src/players/saves/Graf1000.pth (torch_old, 6167 bytes, 4 tensors)

gc.weight f4 [4, 8]
0	0xbe2d5ecb	-0.16930692
1	0x3df2137c	0.118201226
2	0x3e5b977e	0.21444508
3	0xbe26179d	-0.16219945
4	0xbe3d2232	-0.18470076
5	0x3ea5e091	0.32397893
6	0x3aeb2400	0.0017939806
7	0xbea380fa	-0.3193434
8	0x3de5e440	0.11225176
9	0xbe69ade8	-0.22820246
10	0xbea986e6	-0.33110732
11	0x3e902291	0.28151372
12	0xbe78d9db	-0.24301855
13	0x3e940301	0.28908542
14	0xbe32d30e	-0.17463323
15	0xbe380048	-0.17968857
16	0x3cf24290	0.029572755
17	0x3d9f5e84	0.07781699
18	0xbde9ee3e	-0.11422394
19	0x3d093c10	0.033504546
20	0xbdf27728	-0.118391335
21	0x3ddaf210	0.10690701
22	0x3d5a1570	0.0532431
23	0x3df0f974	0.117663294
24	0xbe3fdc74	-0.1873644
25	0xbd34fa50	-0.04418403
26	0xbdd3e9d0	-0.103473306
27	0xbe9a4c09	-0.30136135
28	0xbe152b1a	-0.14567223
29	0x3d7a7278	0.061144322
30	0x3d6f6988	0.05845025
31	0xbd2a64b8	-0.04159996

gc.bias f4 [8]
0	0xbe880ac7	-0.26570722
1	0x3e91cefd	0.28478232
2	0x3ab72700	0.0013973415
3	0xbd41b120	-0.04728806
4	0x3e746ea6	0.23870334
5	0xbe43cd54	-0.19121295
6	0x3e2c0076	0.16797051
7	0xbea972f6	-0.3309552

ln.weight f4 [4, 326]
0	0x3d47ea51	0.048807446
1	0x3d0e079d	0.03467523
2	0xbce98fba	-0.028510917
3	0xbd26bf59	-0.040709827
4	0x3d3066a5	0.04306664
5	0xbd61c4f5	-0.055119473
6	0xbcd89955	-0.026440302
7	0x3d1480bb	0.03625558
8	0x3d38760b	0.04503445
9	0x3d538979	0.051644776
10	0xbd2c04cb	-0.04199676
11	0xbc6d5ca4	-0.014487419
12	0xbd216276	-0.03940054
13	0x3d387441	0.045032743
14	0xbc6a6b44	-0.014307801
15	0xbc57d90c	-0.013174307
16	0xbca1e02c	-0.019760214
17	0xbd345209	-0.044023547
18	0x3d4d6271	0.05014271
19	0x3cfdc48a	0.030977506
20	0x3cbb17de	0.02283853
21	0x3c7d305c	0.015453424
22	0xbccafa97	-0.024777694
23	0x3bbe96d0	0.005816318
24	0x3d4e380b	0.050346415
25	0xbd0cedc4	-0.03440644
26	0xbbe9c7f8	-0.007134434
27	0x3c6e170c	0.014531862
28	0x3d5905cd	0.052984048
29	0x3ce8253e	0.028338071
30	0x3d0f4be7	0.034984495
31	0x3cebc4a2	0.028780285
32	0xbbaa42a0	-0.0051959306
33	0xbd2acb3f	-0.041697737
34	0x3cd0e922	0.025501791
35	0x3c6c0fec	0.014408093
36	0xbd3ad29f	-0.04561102
37	0xbd5629d4	-0.052285984
38	0x3a026cc0	0.00049753115
39	0xbd066788	-0.03281358
40	0x3ae83f00	0.0017718971
41	0x3cb519f6	0.022107106
42	0x3c933786	0.017970812
43	0x3d26b82f	0.040702995
44	0xbd13921a	-0.036028005
45	0xbd5db09f	-0.054123517
46	0xbbb9cdd0	-0.0056702867
47	0x3d5256c1	0.051352266
48	0x3d18d033	0.03730793
49	0xbc247778	-0.010038249
50	0x3d198ec7	0.03748968
51	0xbb40ac00	-0.0029399395
52	0x3ceca02a	0.028884966
53	0x3d164e41	0.036695722
54	0x3d4a796d	0.049432207
55	0x3cfc9b72	0.03083584
56	0xbd0b45d4	-0.03400214
57	0x3d0783a9	0.033084545
58	0x3b6a5360	0.0035755262
59	0xbc2683b8	-0.01016324
60	0xbce98ebf	-0.02851045
61	0xbc970a70	-0.018437594
62	0xbc117d40	-0.00887996
63	0xbc11930c	-0.008885156
64	0x3bc44838	0.0059900545
65	0xbd2557ea	-0.040367045
66	0xbcbd39c2	-0.02309883
67	0x3c10a694	0.008828778
68	0xbc8b5040	-0.01700604
69	0xbcd09a67	-0.02546425
70	0xbcff6314	-0.031175174
71	0x3bd43088	0.006475512
72	0xbd575521	-0.05257142
73	0xbd05e2a6	-0.032686852
74	0x3d62a2ff	0.055331226
75	0x3d239675	0.03993841
76	0x3c896ada	0.016774584
77	0xbd516ece	-0.051131062
78	0x3d5c56a5	0.05379357
79	0xbc71f788	-0.014768489
80	0xbd201f78	-0.03909251
81	0x3c9a86d6	0.018863123
82	0x3c93149e	0.017954167
83	0xbd226728	-0.03964916
84	0x3bf17768	0.0073689707
85	0x3d23739d	0.03990518
86	0xbcc4ff48	-0.024047509
87	0xbd59db34	-0.053187564
88	0xbd146df2	-0.036237665
89	0x3d4c02cd	0.04980736
90	0x3bd1b3f0	0.006399624
91	0xbc349284	-0.01102126
92	0x3cf7285a	0.030170608
93	0x3caf398e	0.021389749
94	0x3bfeedf8	0.007779833
95	0xbc9c78d2	-0.01910058
96	0xbd24cb9c	-0.04023324
97	0xbc0b61cc	-0.008507203
98	0xbba2a398	-0.0049633496
99	0x3c015cb4	0.007895637
100	0x3c77fcfc	0.015136
101	0x3c29367c	0.0103279315
102	0xbd627f11	-0.05529696
103	0xbb8e7848	-0.0043478347
104	0x3cbf0b26	0.023320746
105	0x3c09f49c	0.008420136
106	0x3bb95bc8	0.005656693
107	0xbd07c0a9	-0.03314272
108	0xbcb3ab0c	-0.021932147
109	0xbc8476ea	-0.016169984
110	0xbd2acd56	-0.04169973
111	0xbcbb61ba	-0.022873748
112	0x3d0e00a5	0.034668583
113	0xbd0c9b91	-0.034328047
114	0x3ced2eee	0.028953042
115	0xbd5cbb96	-0.053889833
116	0x3c9df642	0.019282464
117	0xbd42401c	-0.04742442
118	0xbd02ffdb	-0.031982284
119	0x3d052295	0.032503683
120	0xbb283f30	-0.0025672428
121	0x3cb2598a	0.021771211
122	0xbd0db884	-0.034599796
123	0x3d34ae29	0.044111405
124	0xbd467b87	-0.04845765
125	0x3c1cb494	0.009564538
126	0xbc106eec	-0.008815508
127	0x3ccf95de	0.025340017
128	0x3ca13096	0.019676488
129	0x3cf14536	0.029451948
130	0x3c253aec	0.010084849
131	0xbcf0e8a4	-0.029407807
132	0xbcd8c8a9	-0.02646287
133	0xbc77c474	-0.015122522
134	0x3b5d0580	0.0033725202
135	0x3cec9c86	0.02888323
136	0x3d371f87	0.0447078
137	0xbbe05d70	-0.006847076
138	0xbcf92093	-0.03041104
139	0x3cc87df2	0.024474118
140	0x3d502a65	0.05082168
141	0x3ccca97e	0.024983164
142	0xbca10218	-0.019654319
143	0x3cbc4072	0.022979949
144	0xbc91f562	-0.017817203
145	0xbd370a82	-0.044687755
146	0xbc473518	-0.012158655
147	0xbc97d736	-0.018535238
148	0xbd06d03a	-0.032913424
149	0xbd5be076	-0.05368086
150	0xbc06b5ec	-0.0082220845
151	0xbcbb9080	-0.022896051
152	0xbd46feac	-0.048582718
153	0xbd2028da	-0.03910146
154	0x3d5f655d	0.054540027
155	0xbd1d6e78	-0.03843543
156	0xbce81247	-0.028329028
157	0x3c9cbcb2	0.019132946
158	0xbd3a89e7	-0.04554167
159	0xbd11cb2c	-0.03559415
160	0xbced2ab8	-0.028951034
161	0x3b174b50	0.0023085661
162	0xbca8540e	-0.020547893
163	0xbd1a913a	-0.037736155
164	0xbd5c03e8	-0.053714663
165	0x3b368800	0.0027852058
166	0xbbe29a00	-0.006915331
167	0xbd5f88a9	-0.05457369
168	0x3ce1d066	0.027565192
169	0x3cfd3f62	0.030914012
170	0x3d1d867b	0.03845833
171	0x3d1e6c43	0.038677465
172	0xbc3adc94	-0.011405129
173	0x3d22176b	0.039573114
174	0x37982800	1.8138438e-05
175	0xbd4bc367	-0.049746897
176	0x3cb68912	0.022282157
177	0xbcd038a3	-0.025417631
178	0xbc9b9d18	-0.018995807
179	0xbcd01228	-0.025399283
180	0xbbc946f0	-0.0061424896
181	0xbc9f674a	-0.019458432
182	0x3d0e5055	0.03474458
183	0xbab78ac0	-0.0014003143
184	0xbc78c6b8	-0.015184097
185	0x3b65e8c0	0.0035081357
186	0x3d30d60b	0.043172877
187	0xbcaab7b2	-0.020839546
188	0xbbc5d538	-0.0060373805
189	0x3d20dafb	0.039271336
190	0xbc115cb8	-0.0088722035
191	0x3d036efd	0.03208827
192	0xbd387372	-0.045031972
193	0xbc89f89a	-0.016842175
194	0xbcda1c40	-0.026624799
195	0xbc83516e	-0.01603004
196	0x3c6fbbfc	0.014632221
197	0xbc87542e	-0.016519632
198	0xbd3b9ae5	-0.045802016
199	0x3b91f330	0.004454039
200	0xbcbce59a	-0.023058701
201	0xbd4fbf4d	-0.050719548
202	0x3ce1ff12	0.027587447
203	0x3c69c4f4	0.014268149
204	0x3d11b503	0.035573017
205	0x3c098664	0.008393858
206	0xbd4fa5a8	-0.05069509
207	0x3c90cfa2	0.017677132
208	0x3bd5d2e0	0.0065253824
209	0xbd064bca	-0.03278712
210	0x3d55fbb1	0.052241985
211	0x3cb9dbc2	0.022687797
212	0xbcd350f2	-0.025795434
213	0xbd4c4b78	-0.04987666
214	0xbcb4b236	-0.022057634
215	0xbcf0da96	-0.029401105
216	0xbd337bf9	-0.0438194
217	0x3d5cff2b	0.053954285
218	0x3d3ec7c1	0.04657722
219	0x3c7a01ec	0.015259247
220	0x3d21ffe7	0.039550688
221	0x3cff2b62	0.031148616
222	0x3d3fd67f	0.04683542
223	0x3cf088a2	0.029362027
224	0xbd2c7bd4	-0.04211028
225	0xbd157978	-0.036492795
226	0x3d51952f	0.051167663
227	0xbd446e07	-0.047956493
228	0x3d4b09f5	0.049570043
229	0xbc95b0e8	-0.018272832
230	0x3d246d35	0.04014321
231	0xbd3b72a4	-0.045763627
232	0x3d1b25a5	0.037877697
233	0xbd01bcd8	-0.031674236
234	0x3c4a59dc	0.012350526
235	0xbd069812	-0.03285987
236	0xbb32e390	-0.0027296282
237	0x3ab93580	0.0014130324
238	0x3d374f0b	0.044753116
239	0xbcd92b9e	-0.026510056
240	0xbcb8cd8a	-0.022558946
241	0xbd568902	-0.052376755
242	0xbc558b74	-0.0130337365
243	0x3b86cbe0	0.0041136593
244	0x3d495c9b	0.04916058
245	0xbd4f5ee2	-0.050627597
246	0x3c5d23ec	0.013497334
247	0xbd4147e5	-0.047187705
248	0x3d0ebf47	0.034850385
249	0x3d13c63f	0.036077734
250	0x3d31645d	0.043308605
251	0x3d0d672f	0.03452223
252	0xbc16514c	-0.009174656
253	0x3d276f71	0.040877763
254	0xbd4b6a6f	-0.04966205
255	0x3d40427d	0.04693841

ln.bias f4 [4]
0	0xbc541280	-0.012943864
1	0x3b903230	0.004400514
2	0x3d3e6abd	0.046488512
3	0x3d08a9e3	0.03336514
