src/players/saves/Graf1.pth (torch_old, 6071 bytes, 4 tensors)

gc.weight f4 [4, 8]
0	0x3db69159	0.089144416
1	0x3e788351	0.24268843
2	0x3d3e3f2e	0.04644697
3	0x3e98c98a	0.29841262
4	0x3e51e112	0.20496014
5	0x3d54621a	0.05185137
6	0x3e01edcc	0.12688369
7	0x3dc40d85	0.09572891
8	0x3d4a85de	0.049444072
9	0xbead893b	-0.3389376
10	0x3e8f1712	0.2794729
11	0x3e554b1b	0.20829432
12	0xbddb4c80	-0.107079506
13	0xbe9fc0b5	-0.3120171
14	0xbe39c458	-0.18141305
15	0xbdf56991	-0.11983026
16	0x3eb15748	0.34636903
17	0x3e984bfe	0.29745477
18	0x3e3ca1f1	0.1842115
19	0xbe97d987	-0.29658148
20	0xbdfefe06	-0.12450795
21	0x3d66421e	0.056215398
22	0xbdc1662c	-0.09443316
23	0x3e3dda41	0.18540289
24	0xbe8c97e9	-0.27459648
25	0xbe85f847	-0.26165983
26	0x3e0d826c	0.13819283
27	0xbdce82dd	-0.10083554
28	0xbd8c3db0	-0.068477035
29	0x3ea822ba	0.32838994
30	0xbde489c6	-0.11159091
31	0x3e221dfc	0.1583175

gc.bias f4 [8]
0	0xbbf519ae	-0.007479868
1	0x3eaa5f2e	0.3327574
2	0x3e2b1beb	0.16709869
3	0xbe57f1e2	-0.21088365
4	0xbeaf20c5	-0.3420469
5	0x3daf8425	0.085701264
6	0xbeaf7c2b	-0.3427442
7	0x3d50887a	0.050911404

ln.weight f4 [4, 320]
0	0x3d6dee8c	0.058088824
1	0xbd4ce002	-0.050018318
2	0x3bfe245e	0.0077558
3	0xbd51e970	-0.051248014
4	0x3d175034	0.036941722
5	0x3bcce0b2	0.0062523717
6	0xbd5c6a9c	-0.053812608
7	0x3c4305b1	0.011903212
8	0xbd0ef8dd	-0.034905303
9	0xbd396324	-0.045260563
10	0x3d347624	0.04405798
11	0xbd028782	-0.03186751
12	0x3c84050c	0.016115688
13	0xb7d8d580	-2.5848625e-05
14	0x3c4b1658	0.012395464
15	0x3cbc5b88	0.022992864
16	0xbd192de0	-0.037397265
17	0x3ca730bd	0.020408982
18	0x3c7eeafa	0.015558952
19	0xbc3f370f	-0.011670842
20	0x3d327198	0.043565363
21	0x3d2e74b4	0.042591766
22	0x3d42bb2e	0.04754179
23	0x3b021045	0.0019846123
24	0xbd4e8e15	-0.05042847
25	0x3c40a361	0.011757703
26	0xbce6f183	-0.028191334
27	0x3c4ff8ea	0.012693623
28	0x3c2583e8	0.01010225
29	0x3d2ed8e4	0.04268731
30	0xbca49d5c	-0.020094566
31	0x3d6b53e8	0.057453066
32	0x3d5533ae	0.05205124
33	0x3c8549d5	0.016270557
34	0x3cd5d2a1	0.026101412
35	0xbd519982	-0.051171787
36	0xbb28b350	-0.0025741644
37	0x3d15b544	0.03654982
38	0xbc333778	-0.010938518
39	0x3d0225c0	0.031774282
40	0x3d0b2b10	0.033976614
41	0x3d67a0a8	0.056549698
42	0xbc3b0902	-0.011415722
43	0xbcf3c6b3	-0.029757833
44	0xbd4cc760	-0.049994826
45	0xbccb45aa	-0.024813492
46	0xbc2bd140	-0.010486901
47	0x3d0c2a66	0.03422012
48	0x3cfc240d	0.03077891
49	0xbd1ff6df	-0.039053794
50	0xbc2fce89	-0.010730394
51	0x3cc9e641	0.024645926
52	0x3d2b1f28	0.04177776
53	0x3b8e2f4f	0.0043391357
54	0xbcd2cd47	-0.02573265
55	0x3d406dee	0.046979837
56	0xbb5513ab	-0.0032512944
57	0x3bbad0ea	0.005701174
58	0x3c946cd1	0.018118294
59	0x3cd2aaf1	0.025716277
60	0xbd5a81f3	-0.053346585
61	0x3d33c54a	0.04388932
62	0xbd0483fd	-0.032352436
63	0xbc623a73	-0.013807881
64	0x3c2f7d29	0.010710993
65	0x3cb3cf5c	0.021949463
66	0xbc6424eb	-0.013924818
67	0x3c6712a1	0.014103563
68	0x3d173de0	0.036924243
69	0xbd0a7786	-0.033805393
70	0x3ca37414	0.019952811
71	0x3cb50a4d	0.022099638
72	0xbd483cb3	-0.048886012
73	0xbab246d6	-0.0013601433
74	0x3ce64805	0.028110513
75	0xbcf3a7cf	-0.029743103
76	0xbd012e52	-0.031538315
77	0xbd27f79a	-0.041007616
78	0x3c1558c0	0.009115398
79	0x3d46d202	0.048540123
80	0x3ce6ad64	0.028158851
81	0xbcdcf17e	-0.026970621
82	0xbc71dff7	-0.01476287
83	0x3d0fe806	0.035133384
84	0x3d118c5c	0.035534248
85	0xbc826185	-0.015915642
86	0xbd597e58	-0.053099006
87	0xbcf5a9e8	-0.029988244
88	0x39c764a8	0.00038031233
89	0xbc185363	-0.009297225
90	0xbca859f3	-0.020550704
91	0x3cbdb85d	0.0231592
92	0xbd09928e	-0.03358703
93	0x3d459160	0.048234344
94	0xbc43a578	-0.011941306
95	0x3b1a0fe4	0.0023508007
96	0xbce32f26	-0.027732443
97	0x3c3522d9	0.011055672
98	0x3cb5c719	0.022189664
99	0xbd297f8d	-0.041381408
100	0xbca66262	-0.020310584
101	0xbc90d1d7	-0.017678184
102	0xbd2862d4	-0.041109875
103	0xbd529732	-0.051413722
104	0x3d6dcc34	0.05805607
105	0xbc078607	-0.008271701
106	0x3cae52fc	0.021279804
107	0x3ce6c334	0.028169252
108	0xbc9cce74	-0.019141413
109	0xbcd3899c	-0.025822453
110	0x3d41eac4	0.04734303
111	0x3d1bf4a8	0.03807512
112	0xbc8f8995	-0.017521659
113	0x3bcbbb82	0.006217421
114	0xbd1d010f	-0.038331088
115	0xbc8f469e	-0.017489728
116	0x3ccacf08	0.024756923
117	0xbd53e9f7	-0.0517368
118	0x3b4f29a0	0.0031610504
119	0x3d27b272	0.040941663
120	0x3cc9d3d0	0.024637133
121	0xbd4ce7a6	-0.050025605
122	0xbcfd2fac	-0.03090652
123	0x3c2f83d2	0.010712581
124	0xbcb5fe84	-0.02221609
125	0x3d33bd8c	0.043881938
126	0x3be73360	0.007055685
127	0x3bc3ae12	0.0059716785
128	0x3d650d3a	0.055920817
129	0xbccabb35	-0.02474747
130	0x3c016139	0.007896715
131	0xbab0fdb8	-0.0013503348
132	0xbd14f98d	-0.036370803
133	0x3bb7fc7b	0.005614815
134	0x3c872d9c	0.01650124
135	0x3d1c6e92	0.038191386
136	0x3c6f657f	0.014611601
137	0xbcb94520	-0.02261597
138	0x3d2ed458	0.042682976
139	0xbca839bc	-0.020535342
140	0x3d467f20	0.04846108
141	0x3a82f46c	0.0009991056
142	0xbc87eae8	-0.016591504
143	0x3d0cceb0	0.0343768
144	0xbd1f8626	-0.038946293
145	0x3d100060	0.035156608
146	0x3c74aa49	0.014933177
147	0x3d095406	0.033527397
148	0x3c795b10	0.015219465
149	0xbd1d0fbd	-0.038345087
150	0xbd249302	-0.04017926
151	0xbc83c5a1	-0.016085448
152	0x3d1713dc	0.036884174
153	0x3cec5b54	0.028852142
154	0xbd2f54e0	-0.042805552
155	0x3d12d566	0.035848044
156	0xbd505d82	-0.050870426
157	0x3adb07ac	0.001671066
158	0xbd5ce53c	-0.053929552
159	0x3c9e3358	0.019311592
160	0x3d66d55e	0.056355827
161	0xbd36df80	-0.04464674
162	0x3d15dea4	0.03658928
163	0xbd26b755	-0.040702183
164	0x3b0a68e0	0.002111964
165	0x3bd0cb92	0.0063719237
166	0x3ce630c8	0.028099433
167	0x3d305030	0.043045223
168	0x3c6ceef9	0.014461272
169	0x3cf1a030	0.029495329
170	0xbb96070e	-0.0045784777
171	0x3c553479	0.013012999
172	0xbca0b042	-0.019615296
173	0x3c8b5c81	0.017011883
174	0x3d108f40	0.035292864
175	0x3d5b9fe6	0.053619288
176	0xbbc36f1e	-0.005964174
177	0x3a92a1e8	0.0011187168
178	0x3d2691ae	0.040666275
179	0xbcdb4090	-0.026764184
180	0xbd25e112	-0.040497847
181	0x3a8a38aa	0.0010545452
182	0xbd258f08	-0.04041961
183	0x3b16cd24	0.0023010457
184	0x3ca964ed	0.020678008
185	0xbce41c2c	-0.027845465
186	0xbd5f66ae	-0.054541282
187	0xbd1e9cd1	-0.03872377
188	0x3c3b2830	0.011423156
189	0x3ca00248	0.019532338
190	0x3ca1d144	0.019753106
191	0x3bd5f542	0.006529481
192	0xbd2bdb4c	-0.041957185
193	0x3d6681de	0.056276195
194	0x3d3c1eb0	0.045927703
195	0xbd454327	-0.048159745
196	0xbc82a4b0	-0.01594767
197	0xbd4657c4	-0.048423544
198	0xbd530bfe	-0.05152511
199	0x3d69d4ce	0.057087712
200	0xbcb7d73c	-0.022441499
201	0xbbd3828e	-0.0064547723
202	0x3c776f51	0.0151022235
203	0x3d01e428	0.031711727
204	0x3cd32130	0.025772661
205	0x3cef34dd	0.029200012
206	0xbd24c086	-0.040222667
207	0xbaa97478	-0.0012928387
208	0xbd4eade0	-0.05045879
209	0xbd1ae73c	-0.03781818
210	0xbd0e6b29	-0.034770165
211	0xbd408752	-0.04700405
212	0x3c873298	0.016503617
213	0xbc966c99	-0.01836233
214	0xbd1efd24	-0.038815632
215	0x3d47ca18	0.048776716
216	0x3d0e53be	0.03474783
217	0xbd314f44	-0.043288484
218	0x3d373dd0	0.044736683
219	0xbd16f4ec	-0.03685467
220	0x3d154d2c	0.03645055
221	0x3ba5f622	0.0050647417
222	0xbc95da7c	-0.018292658
223	0x3d425364	0.04744281
224	0xbc864af5	-0.016393164
225	0xbd234bac	-0.03986709
226	0xbbc4a8de	-0.006001576
227	0x3bb27782	0.0054463753
228	0xbd583bc9	-0.05279139
229	0x3c20c34f	0.00981219
230	0xbd5d296e	-0.05399459
231	0x3cf658d1	0.030071648
232	0x3d10c5d6	0.03534492
233	0x3cc58839	0.024112808
234	0xbd5247c0	-0.051337957
235	0x3cc7f774	0.024409987
236	0xbc74bcf8	-0.014937632
237	0x3ce3608d	0.027756
238	0x3d402f74	0.046920255
239	0xbbe823c6	-0.0070843427
240	0x3b6572b5	0.0035010998
241	0x3d16254e	0.03665667
242	0xbd346bba	-0.04404805
243	0x3cb355bc	0.021891467
244	0x3d32e4e0	0.043675303
245	0x3d60c05c	0.05487095
246	0x3d370680	0.044683933
247	0x3d2e23c4	0.042514578
248	0x3c8a5984	0.016888388
249	0x3d57aea0	0.05265677
250	0x3d5414c8	0.05177763
251	0x3cb574e5	0.022150466
252	0x3cf2db10	0.029645473
253	0xbb76450a	-0.0037577772
254	0x3ceb9028	0.028755262
255	0xbd0c4235	-0.034242827

ln.bias f4 [4]
0	0x3bcce4f2	0.0062528783
1	0x3ca2ecab	0.019888243
2	0xbc8dbdbd	-0.017302388
3	0xbc976605	-0.018481264
