src/players/saves/Graf100.pth (torch_old, 6071 bytes, 4 tensors)

gc.weight f4 [4, 8]
-0.0617437 0.30101734 0.086557694 -0.08048279 -0.11865699 0.018939525 0.120614015 -0.12934762
-0.088471346 -0.28719494 0.06907961 -0.26568243 0.05509007 -0.21042615 -0.33477643 0.05660366
-0.27226344 -0.1159598 0.117135376 0.3177885 -0.12176877 -0.11538227 -0.010673951 0.030593878
0.033391938 0.17085868 -0.40893385 -0.3097639 -0.06881219 -0.14374776 0.12008041 0.13568637
00000000: f6e6 7cbd f21e 9a3e 2945 b13d 29d4 a4bd
00000010: 7002 f3bd 1027 9b3c 7b04 f73d b473 04be
00000020: 7730 b5bd 370b 93be 9c79 8d3d 8707 88be
00000030: 20a6 613d f479 57be d167 abbe 3dd9 673d
00000040: 1d66 8bbe 557c edbd ace4 ef3d 2db5 a23e
00000050: e861 f9bd 8a4d ecbd cce1 2ebc 03a0 fa3c
00000060: fcc5 083d 94f5 2e3e c75f d1be 6099 9ebe
00000070: 68ed 8cbd 9d32 13be b8ec f53d 5ef1 0a3e

gc.bias f4 [8]
0.10390404 -0.32776007 0.13987671 0.09273569 -0.2844314 -0.033065468 0.036076598 0.042472187
00000000: a4cb d43d 2bd0 a7be d73b 0f3e 36ec bd3d
00000010: fea0 91be a86f 07bd 0ec5 133d 51f7 2d3d

ln.weight f4 [4, 320]
0.01504849 -0.012647841 0.045469996 -0.009176325 0.04351213 0.0003203191 -0.050935343 -0.02846354
-0.0022001634 0.03612522 0.012916683 -0.033216737 0.0015976131 0.029509045 0.017307168 0.03912622
-0.03969512 0.039369345 0.012777937 0.009307643 0.042483583 -0.044492662 -0.005300776 -0.0035756247
0.0024569696 -0.007324863 0.014814383 -0.0073311813 -0.012367733 -0.051978502 0.07384074 0.027330114
0.046306122 0.08341229 0.06719997 -0.034615625 0.044469118 0.015230015 -0.0058227153 -0.019044703
0.0074404846 -0.031518657 -0.02541678 -0.015396812 -0.027542159 -0.01829068 -0.012502902 0.053197358
-0.022643505 -0.025728488 0.0352526 0.00782617 0.030392922 0.048536964 0.016511798 0.034860067
0.004030745 -0.049876817 0.050200958 0.025185755 0.046792313 0.03421753 -0.039177362 0.054328613
0.036394443 -0.027017085 0.04238335 -0.026243562 0.010513738 0.012706786 -0.0027578704 0.010701004
-0.015858538 0.05549124 -0.037598375 0.017723214 -0.034403607 -0.027825085 -0.03148543 -0.025457678
0.008935031 -0.014977566 -0.042605534 -0.030673703 0.0029064193 -0.022021193 0.029484082 0.061999172
-0.055687834 0.017212853 -0.019735217 0.015287695 0.0036560372 0.010725208 -0.036017265 0.07002685
-0.010700342 0.012804957 0.06258502 -0.06989143 -0.025652148 -0.054103673 0.019965744 0.00093106274
-0.029186008 0.054818895 0.009363919 -0.05230521 0.036134683 0.0063004605 -0.031122848 0.027040562
-0.023368398 0.014064037 0.008007513 -0.046014827 -0.011328012 0.019965217 0.015248548 0.087326065
-0.020563431 0.00087315345 0.045417227 -0.05484771 0.04578513 0.028649941 -0.051595703 0.03481847
0.026205022 -0.053306095 -0.043715633 -0.06562397 -0.041193545 -0.014175784 0.044111375 -0.01908671
0.038240567 -0.07365859 -0.038064465 0.013628248 -0.039222788 0.032810576 -0.00201851 0.058637496
-0.024279734 -0.0071589625 0.028035108 -0.02218894 -0.0019072965 0.04950355 -0.019429943 -0.012482406
0.012358725 -0.067782566 -0.021108396 -0.061004296 0.013183132 0.027976222 0.021617815 -0.0074409586
0.03537155 -0.06014769 -0.03290658 0.02746646 0.0070312917 -0.0022844113 -0.02370983 0.057708118
0.026293706 0.029581025 -0.015221063 0.016352542 -0.026490647 -0.0034531057 0.02665461 0.021059848
0.052087564 0.020826709 -0.027862368 -0.004302888 0.0010721795 -0.025338428 -0.039042983 0.06999668
-0.028423259 0.023889083 0.01405737 0.008924361 0.035540447 -0.003019698 -0.015137926 -0.028472401
0.010708308 -0.023375891 0.02974565 -0.014651358 -0.00016729161 -0.05104396 0.0057798233 -0.026676709
-0.06713928 0.03325901 0.022608345 0.07852821 0.04110018 0.01276499 -0.0018746466 -0.02290005
0.084931135 -0.015351928 -0.03624974 0.06371857 -0.0225747 -0.04868679 -0.029936107 0.03012585
0.028140303 -0.04268085 0.024660565 0.011241753 -0.027086003 -0.013563123 -0.041031465 0.03759175
-0.034908004 -0.022940803 0.045159306 0.018572034 -0.001046583 0.055600576 0.031084346 0.046011593
0.025903795 0.049681354 -0.049086396 0.012790834 -0.047295652 0.01268585 -0.03526096 -0.019114075
-0.055348523 0.041482043 0.0014147098 0.01293883 -0.04355293 0.005160976 0.047965106 0.016622147
-0.015650837 0.051818997 -0.06586506 0.023597829 -0.05384211 -0.04654494 0.058787975 0.0058875727
00000000: f18d 763c e438 4fbc bf3e 3a3d 4c58 16bc
00000010: c639 323d 80f0 a739 94a1 50bd 5f2c e9bc
00000020: 9e30 10bb 0af8 133d 7fa0 533c 460e 08bd
00000030: 0067 d13a f4bc f13c c3c7 8d3c d142 203d
00000040: 5a97 22bd c041 213d 8d5a 513c 167f 183c
00000050: 4403 2e3d f03d 36bd 22b2 adbb 0755 6abb
00000060: 1c05 213b 6805 f0bb 07b8 723c 683a f0bb
00000070: 08a2 4abc 69e7 54bd d039 973d 67e3 df3c
00000080: 7dab 3d3d 10d4 aa3d 23a0 893d 1dc9 0dbd
00000090: 4025 363d 5087 793c 7acc bebb a303 9cbc
000000a0: 4fcf f33b b519 01bd da36 d0bc e942 7cbc
000000b0: 18a0 e1bc 56d6 95bc f9d8 4cbc 79e5 593d
000000c0: df7e b9bc 8dc4 d2bc 0865 103d 5639 003c
000000d0: 94fa f83c b2ce 463d c043 873c 6ec9 0e3d
000000e0: 5714 843b a24b 4cbd 859f 4d3d 5b52 ce3c
000000f0: 4ca9 3f3d ae27 0c3d 7178 20bd ae87 5e3d
00000100: 5712 153d ef52 ddbc 2a9a 2d3d bdfc d6bc
00000110: d041 2c3c 2030 503c 63bd 34bb 4453 2f3c
00000120: c4e9 81bc c84a 633d c100 1abd 4630 913c
00000130: ccea 0cbd 6ff1 e3bc def6 00bd 9f8c d0bc
00000140: 3c64 123c 7764 75bc 2483 2ebd 6b47 fbbc
00000150: a079 3e3b ca65 b4bc 9a88 f13c d8f2 7d3d
00000160: ed18 64bd f801 8d3c c0ab a1bc 3e79 7a3c
00000170: 209a 6f3b c8b8 2f3c d786 13bd 3d6a 8f3d
00000180: 7d50 2fbc e2cb 513c 932c 803d 3d23 8fbd
00000190: 7424 d2bc d09b 5dbd 338f a33c 9012 743a
000001a0: 7f17 efbc c789 603d 1f6b 193c fd3d 56bd
000001b0: f601 143d 1874 ce3b 58f5 febc 2b84 dd3c
000001c0: 156f bfbc d96c 663c f231 033c 0b7a 3cbd
000001d0: 2099 39bc 188e a33c 0cd5 793c 02d8 b23d
000001e0: a474 a8bc 56e4 643a 6a07 3a3d fea7 60bd
000001f0: 3089 3b3d 48b3 ea3c 0456 53bd d09d 0e3d
00000200: eaab d63c 7e57 5abd 2a0f 33bd dc65 86bd
00000210: 90ba 28bd 8c41 68bc 21ae 343d bb5b 9cbc
00000220: 24a2 1c3d 51da 96bd 7ce9 1bbd 0449 5f3c
00000230: 13a8 20bd 6264 063d fa48 04bb df2d 703d
00000240: 4be6 c6bc bb95 eabb e2a9 e53c 94c5 b5bc
00000250: 40fe f9ba 3cc4 4a3d 8b2b 9fbc 0183 4cbc
00000260: 407c 4a3c 96d1 8abd 84eb acbc a4df 79bd
00000270: 10fe 573c 642e e53c d817 b13c 49d3 f3bb
00000280: c2e1 103d 6d5d 76bd 0dc9 06bd 5701 e13c
00000290: c066 e63b 10b6 15bb 1e3b c2bc 595f 6c3d
000002a0: e665 d73c e853 f23c c461 79bc c4f5 853c
000002b0: ea02 d9bc 804d 62bb c55a da3c b485 ac3c
000002c0: c559 553d c69c aa3c 9f3f e4bc 3eff 8cbb
000002d0: 6088 8c3a 8992 cfbc 89eb 1fbd 6b5a 8f3d
000002e0: e5d7 e8bc 0ab3 c33c e250 663c 7c37 123c
000002f0: dc92 113d 20e6 45bb 1005 78bc f43e e9bc
00000300: e671 2f3c cc7e bfbc 26ad f33c 400c 70bc
00000310: 006b 2fb9 7913 51bd ac64 bd3b 1d89 dabc
00000320: 5280 89bd 9a3a 083d 2335 b93c 66d3 a03d
00000330: aa58 283d 4024 513c b4b6 f5ba e398 bbbc
00000340: 60f0 ad3d a786 7bbc 9b7a 14bd e27e 823d
00000350: 94ee b8bc cd6b 47bd 913c f5bc 7dca f63c
00000360: 7e86 e63c 1dd2 2ebd f404 ca3c 542f 383c
00000370: 77e3 ddbc dc37 5ebc 9c10 28bd cff9 193d
00000380: b2fb 0ebd 5aee bbbc f7f8 383d 6124 983c
00000390: 802d 89ba 6ebd 633d 99a4 fe3c a776 3c3d
000003a0: 3234 d43c ad7e 4b3d d10e 49bd a590 513c
000003b0: 16b9 41bd 50d8 4f3c cc6d 10bd 1f95 9cbc
000003c0: 22b5 62bd 13e9 293d c96d b93a 63fd 533c
000003d0: 8f64 32bd 681d a93b 0f77 443d 2b2b 883c
000003e0: 2f36 80bc 2840 543d 43e4 86bd 3c50 c13c
000003f0: 8b89 5cbd e8a5 3ebd a9cb 703d 8aec c03b

ln.bias f4 [4]
0.04681864 -0.051169656 0.028760975 -0.02164043
00000000: e7c4 3f3d 4697 51bd 239c eb3c 4547 b1bc
