src/players/saves/Graph5-3.pth (torch_old, 6692 bytes, 6 tensors)

gc1.weight f4 [4, 8]
00000000: 3e87 25be a764 8ebe f0f4 513e 30e8 95be
00000010: 6830 7e3d 62ab b1bd 1c13 98be 682c 1a3d
00000020: c2fd d4bd 150d 893e acbc 5e3e 68b2 c63d
00000030: 92a8 003e 5094 74bd c9b3 91be bba2 813e
00000040: 0065 b0be e3f9 00be 9517 893e d0d4 55bd
00000050: a9a0 353e 9f32 5e3d 60e5 9cbe 6412 b03d
00000060: 3080 bcbd 667f 283e 9d65 a53d 5035 ebbc
00000070: 2586 843d 0e4b 6e3e 0d5b 7ebe 08b6 92be
-0.16164872 -0.27811167 0.20503592 -0.29278708 0.062057883 -0.08675267 -0.2970208 0.037640005
-0.10399963 0.26767793 0.2175166 0.09701997 0.12564304 -0.059711754 -0.28457478 0.25319466
-0.34452057 -0.12595324 0.26775804 -0.052204907 0.17737068 0.054247495 -0.3064375 0.08597258
-0.09204137 0.16454849 0.08076022 -0.028711945 0.064708985 0.23270819 -0.2483942 -0.28654504

gc1.bias f4 [8]
00000000: 7ee7 89be bd5a 53be 225d 0abe 3494 03be
00000010: 4548 0fbc d3d5 dfbb c570 443e a708 97be
-0.26934427 -0.20640083 -0.1351209 -0.12849504 -0.008745258 -0.0068309098 0.19183643 -0.2949879

gc2.weight f4 [8, 8]
00000000: 800a 523b 8b5e 9c3e 14ca b8bd cf95 b43e
00000010: d858 49bd 069e 683e 57d2 88be 401a 593c
00000020: ed27 0ebe 81c9 863e 0c7c b73d f44a 88be
00000030: 2a9f 673e 2db0 aa3e 9f25 963e e79d 8d3e
00000040: 5278 adbd 30c1 8fbd f94d 1bbe 428c 1dbd
00000050: 44a4 93be ea09 e9bd 564a 883e cfe6 8bbe
00000060: 403e c9bd 22a4 a5be e106 8fbe 8b75 18be
00000070: f6b5 3a3e 3dfc 833e 9a16 3b3e 5c1a f83d
00000080: a0a7 043c bd41 a73e ec8e dfbd 3d8a 6b3e
00000090: 39bf 38be a82c 76be c381 79be 5af8 663e
000000a0: 8eac 353e c0dc 65be 22cc 243e be83 9abe
000000b0: 56c4 84be 7308 45be 0cc6 8a3d 0af3 2c3e
000000c0: d0a2 2dbe b19e b13e 8035 37bc e746 ae3e
000000d0: 900a 8fbd 46ba 8a3e 1161 583e a046 813c
000000e0: 00a0 e8bd 9000 e2bd c998 ae3e 244c 1dbe
000000f0: b0ec efbc e8d0 00be 4189 b1be 9de6 a8be
0.0032049716 0.3054088 -0.09022918 0.35270545 -0.049156994 0.22716531 -0.26722977 0.013250887
-0.13882418 0.2632561 0.08959207 -0.26619685 0.2261931 0.33337536 0.29325578 0.27659532
-0.08470215 -0.070192695 -0.15166463 -0.03846384 -0.28836262 -0.11378844 0.26619214 -0.2732453
-0.09826326 -0.32351786 -0.27934936 -0.14888589 0.18233475 0.2577838 0.1827034 0.12114403
0.008096606 0.32667342 -0.10915932 0.23001952 -0.18041696 -0.24040473 -0.24365906 0.22555676
0.17741606 -0.2244749 0.16093495 -0.30178636 -0.25931042 -0.19241504 0.06776056 0.16889587
-0.1695664 0.34691384 -0.011182189 0.3403847 -0.069844365 0.2709524 0.21130778 0.015780747
-0.113586426 -0.110352635 0.3410094 -0.15361077 -0.029287666 -0.12579691 -0.3467503 -0.32988444

gc2.bias f4 [8]
00000000: 54fc 153e 54bd 96bd c468 8abe a682 2a3e
00000010: eae8 a1be 802d 5d3e ee21 3ebc 6b4f 81be
0.14647037 -0.0736033 -0.27033055 0.16651401 -0.31623012 0.21599388 -0.011604769 -0.25255904

ln.weight f4 [4, 326]
00000000: 1d57 813c b086 53bb 0ea3 04bd 8e4d 36bb
00000010: 1cd3 3cbd 9a3e 21bd e4a2 04bd f665 b23c
00000020: 14a8 36bd ac16 8fbc f7d9 d8bc 26f5 1c3a
00000030: 2319 5b3d 8556 083d 0320 37bd 2029 56bd
00000040: dc79 0bbd b7df 0a3d 2d2d 153d dbaa 3ebc
00000050: 441b 25bd 4135 2abd 152c ec3c 7094 0c3b
00000060: b14f 57bd 4054 90bb 1c0e 5e3c 6aab a33b
00000070: 9451 483c c0bf cb3b 86b5 7bbc 96bd fc3c
00000080: 90b5 83bc 4ddf edbc 5879 e2bb 387c 293d
00000090: da30 84bc 9505 293d 6a1a 3ebc 93fd 063d
000000a0: a55c a53c 73e4 e2bc 3aed be3c 4e1c dc3b
000000b0: c46b b4bc f44f 4e3d 5a24 db3c 62cb cf3c
000000c0: 65a8 59bb 681d 02bd 19ac 3bbd 1fd3 0c3d
000000d0: 1cae 2c3c d5d4 5abb 6242 2d3d 0012 1039
000000e0: 72b0 00bd 2408 1a3c 5328 2f3d 2c25 05bb
000000f0: 1221 af3c 609c 38bd 047c 8abb 1c8a 15bd
00000100: c641 5dbd 4034 353a 8598 d0bc 4aa0 093d
00000110: c460 30bc 240a 73bd c221 ebbc cabc dcbc
00000120: fc90 30bd 9876 f23b 1f69 123d 1d9a b23b
00000130: 8848 13bc 2d28 b83c 2da2 1c3d 68cc 38bc
00000140: 6c5a 84bc 5a81 ba3c 4c6f 103c b6ff 26bd
00000150: e0d1 48bb df27 cebc e171 56bd 6c44 6f3c
00000160: 8218 44bd a467 60bd 0d07 0e3d 4d5c 4dbd
00000170: 19f7 1d3d 17b9 6ebc 0ac9 0fbc 74bc 003c
00000180: 120f 793c eb15 f6bc 3fbd 5d3d 0ab5 e4bc
00000190: bc3d 473c 9858 74bc 6445 f9bc 82bb ce3c
000001a0: 7653 9b3b fec5 39bd 7899 fbbc 9089 c03c
000001b0: d9a0 45bd c3b0 c8bc a79a 3e3d fa73 de3c
000001c0: 0cc4 a9bc 52f8 40bd d048 06bb 747c e13c
000001d0: fdd0 49bd 7b26 77bd 954f d8bb 00b8 513a
000001e0: 0e65 003d 16cc 883c e920 373d ea26 423c
000001f0: 4e9c eabc 11be 46bd c4cc 04bd 0aaf 0dbd
00000200: e388 6cbc d8b4 adbb e070 58bd df0d f4bc
00000210: b628 38bd bd0d 37bd 9ad4 b93c 622c cc3c
00000220: 6f4e efbc 71f7 233d bbb9 403d 4445 10bd
00000230: 8af3 25bd 2a90 14bc aeb2 61bd 7c25 29bd
00000240: 73eb 4e3d ec87 15bd bc7d dcbc 2977 1dbc
00000250: 8ded 23bd 2895 95bc 38ca 003d 714e 5c3d
00000260: 0743 453d ba49 a53c c21f 0bbd 2abf 083d
00000270: 30a7 7bbc 7a80 f8bc aab1 c53a eefb b63c
00000280: f9e1 453d 4ec3 a43c 06e2 46bd 2944 7dbb
00000290: 3dd9 023d 4982 78bd 7342 3e3d c9f5 583d
000002a0: d62e 1f3d 0e8d b73c a2c8 3dbd 0027 b83c
000002b0: ee6f db3c 41f1 953c ece0 463b 1575 53bd
000002c0: fd9b f4bc de49 813c c6f9 bd3c d526 33bd
000002d0: 9670 adbc 9d59 a73c 60aa 0bbb 05f3 253d
000002e0: 5291 3fbd c025 cfba 362d eb3c 0543 ecbc
000002f0: e095 09bb a1f0 853c 6c9f 00bd cb4c 503d
00000300: a4ad c43c cc14 3e3c 004b 513a 4b21 8cbc
00000310: 0acb 04bd 22be fa3c ac2f d73b 92e8 c83c
00000320: 3bf6 03bd c6db e13c c027 15ba 476f 4dbd
00000330: 3260 893c 7f19 133c e68b 4bbd d3d4 503d
00000340: fb1e 643d 3757 61bd 0482 62bd 1fb9 1b3d
00000350: 5c85 483c d94c 913c 2f8e a9bc 034a 40bd
00000360: 6df4 53bc 200f e63b 973a 55bd aa6a 023d
00000370: 3092 e9bb 946d 903b 4cbb 90bc 7e21 1bbd
00000380: 39b6 01bd 5882 d03b 3799 343d 1687 a4bc
00000390: 9ef0 db3c fc64 cdbc 3a90 72bd 6fa2 2d3d
000003a0: 508f a0bc 28e5 de3b 841f 063c 4228 3cbd
000003b0: 5b18 593d 13dc 87bc b50f fe3c e96f 003d
000003c0: ef16 29bd 062c 47bd 54f6 213c acbb f23c
000003d0: 1ef1 97bc 51fd 54bd 8c95 373d 220b 18bd
000003e0: c998 bdbb a01e 383b cb03 543d 26b3 fbbc
000003f0: f75c 27bd dce5 32bb c3f9 4b3c 501d 69bb
0.01578861 -0.0032276325 -0.032382064 -0.0027817222 -0.046099767 -0.039366342 -0.032381907 0.021777134
-0.044593886 -0.017466865 -0.026471121 0.00059874577 0.05349077 0.033285636 -0.044708263 -0.052285314
-0.03405176 0.033904757 0.036420036 -0.011637415 -0.040309206 -0.041554693 0.028829614 0.002145078
-0.052566234 -0.0044045746 0.013553169 0.0049947994 0.012226481 0.0062179267 -0.015363103 0.03085212
-0.016077787 -0.029037142 -0.006911438 0.04137823 -0.016136575 0.04126509 -0.011602977 0.03295667
0.020185778 -0.027696824 0.023306478 0.0067172414 -0.022024043 0.050369218 0.026750732 0.025365535
-0.0033211943 -0.031766325 -0.045818422 0.03438103 0.010539558 -0.0033391018 0.042299636 0.00013739616
-0.03141827 0.009401355 0.042763066 -0.0020316346 0.021378074 -0.045071006 -0.0042262096 -0.036508664
-0.054017805 0.0006912388 -0.025463352 0.03360013 -0.010765258 -0.059335843 -0.02870262 -0.02694549
-0.043107018 0.0073993914 0.035744783 0.0054505006 -0.008989461 0.022480095 0.0382406 -0.011279203
-0.016156398 0.022766758 0.008815598 -0.04077121 -0.0030642673 -0.025165496 -0.052354697 0.014603715
-0.047874935 -0.05478634 0.034674693 -0.050136853 0.03856573 -0.014570496 -0.008775959 0.007857431
0.015201347 -0.030039748 0.054135557 -0.027918357 0.012160715 -0.0149137005 -0.030428596 0.025235895
0.004740174 -0.045354836 -0.030712828 0.023503095 -0.0482491 -0.024498349 0.046534207 0.027154911
-0.020723365 -0.047111817 -0.0020490177 0.027525164 -0.049271572 -0.060339432 -0.006601284 0.00080001354
0.031346373 0.016698878 0.04470912 0.011850098 -0.028638985 -0.048521105 -0.032421842 -0.03459076
-0.014436933 -0.0053010993 -0.05284202 -0.02979177 -0.0449607 -0.044690836 0.022684384 0.024923507
-0.029212205 0.0400309 0.047052126 -0.035222307 -0.04051546 -0.0090675745 -0.055102043 -0.041295514
0.05051751 -0.03650658 -0.026915424 -0.0096109295 -0.040021468 -0.0182596 0.03144285 0.053785745
0.048159625 0.020176757 -0.033965833 0.033385433 -0.015359685 -0.0303347 0.0015082855 0.022336926
0.048311207 0.02011266 -0.048555396 -0.0038645363 0.031945456 -0.060671125 0.04645009 0.052968774
0.038863026 0.022406127 -0.046333916 0.022479534 0.02678677 0.018303515 0.0030346466 -0.05162533
-0.029859537 0.015782293 0.02319039 -0.043738205 -0.02117185 0.020428473 -0.0021311268 0.040514965
-0.046769448 -0.0015804097 0.028708082 -0.028840551 -0.0020993873 0.016350092 -0.031402037 0.050854485
0.02400858 0.011601638 0.0007983893 -0.01710572 -0.032420196 0.03060824 0.006566962 0.02452496
-0.032217246 0.027570616 -0.0005689822 -0.05015495 0.016769502 0.008978247 -0.049693964 0.050984215
0.055693608 -0.055014815 -0.055299774 0.038018342 0.012238827 0.01773684 -0.020697681 -0.046945583
-0.012936694 0.007020846 -0.05205783 0.031840004 -0.0071280226 0.004407594 -0.017667435 -0.037873738
-0.03166792 0.0063631944 0.04409143 -0.020083945 0.026848134 -0.025072567 -0.059219576 0.042391237
-0.019599587 0.00680222 0.008186225 -0.04593683 0.053001743 -0.016584432 0.03101335 0.031356726
-0.041281637 -0.04862597 0.009885389 0.029630505 -0.01854759 -0.051999394 0.044820353 -0.037119992
-0.0057860357 0.0028094426 0.05176143 -0.030725073 -0.040860143 -0.0027297651 0.012449685 -0.003557045

ln.bias f4 [4]
00000000: 935c 573d 984d de3c ac31 c8bb e4d8 2b3c
0.05257852 0.027136609 -0.006109437 0.0104887225
