src/players/saves/Graph5-1.pth (torch_old, 6692 bytes, 6 tensors)

gc1.weight f4 [4, 8]
-0.25902495 -0.3156107 -0.19377093 -0.006314814 -0.17947112 -0.26626292 -0.13330463 0.11936867
0.16307674 0.23082583 -0.16224888 -0.22350262 -0.03489877 -0.34496167 -0.18722798 -0.10296556
0.2613442 0.31893945 0.25066492 -0.033154845 0.005535758 0.17181918 -0.30165553 0.06990519
0.301973 -0.12454603 0.17804793 0.15120634 -0.33628774 0.07311356 -0.112376735 -0.30745143
00000000: eb9e 84be ba97 a1be e36b 46be 80ec cebb
00000010: 47c7 37be 9d53 88be 0281 08be 9077 f43d
00000020: 97fd 263e 9b5d 6c3e 9224 26be dfdd 64be
00000030: 03f2 0ebd d19e b0be b1b8 3fbe 9cdf d2bd
00000040: e8ce 853e 084c a33e 2757 803e 60cd 07bd
00000050: 4e65 b53b 5ef1 2f3e 9872 9abe 742a 8f3d
00000060: 349c 9a3e fd11 ffbd 3252 363e d6d5 1a3e
00000070: e82d acbe 90bc 953d c625 e6bd 466a 9dbe

gc1.bias f4 [8]
0.29916272 0.281754 -0.24656421 -0.2820753 0.085429445 -0.30320165 -0.2586998 -0.35298106
00000000: db2b 993e 0f42 903e 547b 7cbe 2c6c 90be
00000010: a2f5 ae3d 3f3d 9bbe 4d74 84be efb9 b4be

gc2.weight f4 [8, 8]
-0.16939826 -0.12790371 0.1852183 -0.28121278 0.035016954 0.09433893 -0.039901525 0.14686805
0.07082955 -0.092919424 0.34927592 0.064101696 0.3323125 -0.13237084 0.12357208 -0.22013426
-0.2834858 0.13238025 0.3102899 -0.31350186 0.32540193 -0.015999526 -0.20725535 -0.22565734
0.1984922 0.14259711 -0.3018845 -0.14530256 0.22621736 0.27339116 -0.19859518 0.24816087
0.17736205 -0.10956263 0.05377841 -0.2738337 0.11737829 -0.26073685 0.2015402 0.13584141
-0.22897531 0.19791892 -0.21535201 -0.03519699 -0.084540725 -0.057039887 -0.04537484 0.12413305
-0.04018259 -0.19927877 -0.19340852 0.17142794 -0.15914826 0.22448882 -0.07062906 -0.061201394
-0.08839369 0.15983412 0.26806614 -0.27886432 0.21593854 0.23708549 -0.098734885 0.0075571537
00000000: bd76 2dbe 31f9 02be dea9 3d3e 1ffb 8fbe
00000010: f06d 0f3d c534 c13d c86f 23bd 9464 163e
00000020: 150f 913d 8a4c bebd 4bd4 b23e c047 833d
00000030: dd24 aa3e 398c 07be 5c13 fd3d e06a 61be
00000040: 0d25 91be b08e 073e 51de 9e3e 5183 a0be
00000050: 159b a63e 7011 83bc bf3a 54be b812 67be
00000060: 8a41 4b3e fa04 123e 9b90 9abe 32ca 14be
00000070: 86a5 673e edf9 8b3e 895c 4bbe e21d 7e3e
00000080: 669e 353e 5f62 e0bd c046 5c3d ee33 8cbe
00000090: 0764 f03d 4d7f 85be 8e60 4e3e 031a 0b3e
000000a0: 8178 6abe 42ab 4a3e 3d85 5cbe b82a 10bd
000000b0: b023 adbd a8a2 69bd f8da 39bd 7839 fe3d
000000c0: 8096 24bd bc0f 4cbe e20c 46be ce8a 2f3e
000000d0: c3f7 22be 66e0 653e f8a5 90bd 50ae 7abd
000000e0: c007 b5bd 8eab 233e f73f 893e 4ec7 8ebe
000000f0: fe1e 5d3e 8ac6 723e 8435 cabd 00a2 f73b

gc2.bias f4 [8]
0.15330881 0.2910197 -0.34431037 -0.100795746 0.16346987 0.122699626 -0.20911336 0.18120295
00000000: fcfc 1c3e 8900 953e 7349 b0be 006e cebd
00000010: a564 273e f149 fb3d d021 56be 448d 393e

ln.weight f4 [4, 326]
-0.039489333 0.03716616 -0.0023374446 -0.022723962 0.012348114 -0.016036374 -0.009974446 0.030339338
0.020650253 0.06496926 0.052432153 0.046143617 0.044829577 -0.0010525121 -0.012814991 0.028758926
0.031653993 0.049685903 0.022596221 0.001545284 0.0030209876 0.031031458 -0.006082639 -0.041987266
0.029494455 -0.01182357 -0.039254323 0.0020264573 0.028056758 -0.012402607 -0.032211374 0.0109844655
0.0041275094 -0.04234224 0.045393948 -0.0011582039 0.025284551 -0.036323775 0.013176743 -0.001947064
0.03437491 -0.018017301 0.027847845 -0.042272754 0.0166135 0.022201385 0.039212395 0.038628504
-0.028064387 -0.034762125 -0.051505737 0.021320444 0.010823948 0.017190505 0.033682723 -0.001998572
-0.019070316 -0.000413312 0.037124332 -0.037691247 0.03705593 0.021933999 0.0067851916 -0.04511024
0.015129399 -0.03690941 0.032230016 0.050940465 -0.009048114 0.048554864 0.037786897 0.038452875
0.04665953 -0.008486712 -0.05389215 0.027869377 0.012206852 0.007019136 0.024008889 0.046835467
0.02033699 -0.039654315 -0.020552244 0.016565178 0.006056239 0.040125802 -0.0385942 -0.007878351
-1.4296558e-05 -0.040980052 0.0027388297 -0.03162591 0.02819939 0.024162345 -0.0036791973 0.013289149
-0.015814219 -0.019721048 0.010350589 -0.022165861 -0.015698204 0.03588344 0.02088831 0.00830538
0.059617892 0.0139060635 -0.03480453 0.03939679 0.056279454 -0.039093167 -0.04818607 -0.031968433
-0.0016397816 0.007373205 -0.022010341 -0.018064052 0.029918946 -0.029376203 -0.026773077 0.04426184
0.050278675 -0.0060353065 0.021307725 0.0061840788 0.036636304 -0.00084141473 0.024214353 0.051121376
-0.00016059238 0.022867162 0.00092551485 0.05116416 0.02581661 -0.00013707374 0.04135177 0.007821154
0.018331256 -0.04753609 0.021772709 -0.04779497 0.059013218 0.056938514 -0.015219327 0.029289335
0.029642126 0.0026110108 0.031120833 -0.047030304 -0.042607103 0.025513928 0.0062357225 0.028513368
0.0395293 -0.044982646 0.037933115 -0.027044903 0.034675553 -0.04148753 -0.020154394 0.01577508
-0.0036038538 0.057797246 0.047625978 -0.002162084 0.00080144196 -0.04885838 0.051702958 0.015368506
-0.020288132 0.023448585 0.00988083 0.011274558 0.051245414 -0.019421296 0.05107877 -0.0024201935
-0.039079044 -0.0021236276 -0.019797906 0.047644775 -0.021599168 0.060547348 0.036338005 0.045640863
-0.009017002 -0.037550125 0.0041285753 -0.0003464669 0.03411662 0.0055372827 -0.041942373 0.028647276
-0.026747914 0.029821955 -0.051943783 -0.017718371 0.06052707 0.015779678 -0.031474173 -0.0011480459
0.013297648 -0.020858748 -0.026964836 0.015975934 0.019889865 -0.019476926 0.032323565 -0.019858435
-0.01655353 0.049800515 -0.012391526 -0.046615046 -0.01345578 -0.0007983397 -0.049043465 -0.004798936
-0.003652498 0.017360056 -0.022364099 0.013011385 0.05329106 0.046762295 0.048447136 0.0064353715
0.04097536 -0.0017547249 0.012782406 -0.04270155 -0.003799058 0.0066283043 -0.054231122 -0.023611048
-0.013229586 -0.0023974357 0.032291662 0.011110488 0.0052210237 0.03617101 0.018334951 -0.03833047
-0.025596658 0.023859577 0.05501541 -0.041813985 0.05304076 0.065390475 -0.013165049 0.01992207
0.057879645 0.019080946 0.007956151 -0.021493156 -0.013381819 0.0070796493 -0.010325 0.03748727
00000000: 91bf 21bd 8b3b 183d d02f 19bb 9a27 babc
00000010: be4f 4a3c b75e 83bc dc6b 23bc 348a f83c
00000020: b82a a93c 9a0e 853d 19c3 563d 1701 3d3d
00000030: 389f 373d 72f4 89ba f8f5 51bc d797 eb3c
00000040: 9ea7 013d 7283 4b3d b61b b93c 208b ca3a
00000050: c3fb 453b af35 fe3c e050 c7bb d7fa 2bbd
00000060: 5b9e f13c a6b7 41bc 24c9 20bd 50ce 043b
00000070: 49d7 e53c 4e34 4bbc 13f0 03bd 30f8 333c
00000080: 0f40 873b 0f6f 2dbd 01ef 393d e0ce 97ba
00000090: 8c21 cf3c 3dc8 14bd 44e3 573c a034 ffba
000000a0: b5cc 0c3d 0599 93bc 2a21 e43c 3226 2dbd
000000b0: 0919 883c aedf b53c 2d9d 203d ec38 1e3d
000000c0: 49e7 e5bc bb62 0ebd aef7 52bd 36a8 ae3c
000000d0: ee56 313c 1ad3 8c3c e5f6 093d 79fa 02bb
000000e0: 5a39 9cbc ccb1 d8b9 af0f 183d 2362 1abd
000000f0: f5c7 173d eeae b33c 5056 de3b 84c5 38bd
00000100: 4ce1 773c 522e 17bd 9f03 043d f3a6 503d
00000110: 8a3e 14bc 77e1 463d 6fc6 1a3d c380 1d3d
00000120: 101e 3f3d da0b 0bbc 04be 5cbd 524e e43c
00000130: 40ff 473c c800 e63b 4aae c43c 8cd6 3f3d
00000140: c299 a63c 906c 22bd 2e5d a8bc b2b3 873c
00000150: 6a73 c63b f45a 243d f414 1ebd 3314 01bc
00000160: 40db 6fb7 b3da 27bd f07d 333b 2c8a 01bd
00000170: 6802 e73c 1cf0 c53c b01e 71bb bbba 593c
00000180: d28c 81bc 098e a1bc 8495 293c 2e95 b5bc
00000190: 8599 80bc 84fa 123d f61d ab3c 4a13 083c
000001a0: e431 743d 42d6 633c 328f 0ebd 875e 213d
000001b0: 4985 663d 2820 20bd c25e 45bd 55f1 02bd
000001c0: f1ed d6ba ed9a f13b 084f b4bc 10fb 93bc
000001d0: 9418 f53c 5da6 f0bc 3653 dbbc e74b 353d
000001e0: 03f1 4d3d d2c3 c5bb 8a8d ae3c d0a3 ca3b
000001f0: f30f 163d 6392 5cba 2e5d c63c a664 513d
00000200: b064 28b9 ea53 bb3c 409e 723a 8391 513d
00000210: 5b7d d33c 74bb 0fb9 7960 293d 4c24 003c
00000220: 6e2b 963c 34b5 42bd ae5c b23c a9c4 43bd
00000230: d8b7 713d 5c38 693d 7c5a 79bc 30f0 ef3c
00000240: 0bd4 f23c 7e1d 2b3b 1ef1 fe3c d9a2 40bd
00000250: c984 2ebd 9602 d13c 0855 cc3b de94 e93c
00000260: 7ae9 213d b93f 38bd c15f 1b3d 468d ddbc
00000270: f407 0e3d d4ee 29bd d41a a5bc be3a 813c
00000280: a22e 6cbb cebc 6c3d 7513 433d c0b1 0dbb
00000290: dc17 523a ba1f 48bd 7bc6 533d 30cc 7b3c
000002a0: 4c33 a6bc 3f17 c03c 34e3 213c ecb8 383c
000002b0: b6e6 513d 6919 9fbc f937 513d 1c9c 1ebb
000002c0: 5911 20bd 8f2c 0bbb 382f a2bc 2b27 433d
000002d0: bdf0 b0bc 7f00 783d 29d7 143d eaf1 3a3d
000002e0: 0cbc 13bc 29ce 19bd 0049 873b 00a6 b5b9
000002f0: debd 0b3d 1872 b53b c4cb 2bbd b1ad ea3c
00000300: 711e dbbc 2c4d f43c 01c3 54bd 1e26 91bc
00000310: 3ceb 773d 6244 813c 10eb 00bd 077a 96ba
00000320: 61de 593c f7df aabc 5ce5 dcbc f6df 823c
00000330: 12f0 a23c 138e 9fbc b765 043d 28ae a2bc
00000340: 459b 87bc a0fb 4b3d d405 4bbc 6bef 3ebd
00000350: a275 5cbc ac47 51ba cde1 48bd 6540 9dbb
00000360: bf5e 6fbb ad36 8e3c ea34 b7bc b42d 553c
00000370: ba47 5a3d d289 3f3d 8170 463d cfdf d23b
00000380: c7d5 273d ccfe e5ba 4c6d 513c d2e7 2ebd
00000390: 9ef9 78bb 3f32 d93b 7421 5ebd f56b c1bc
000003a0: e8c0 58bc 4c1e 1dbb 4344 043d c408 363c
000003b0: 1f15 ab3b 0e28 143d 2e33 963c 6900 1dbd
000003c0: 15b0 d1bc 2975 c33c d757 613d 2445 2bbd
000003d0: 4541 593d 71eb 853d 38b2 57bc 9c33 a33c
000003e0: 3513 6d3d a54f 9c3c 845a 023c 6a12 b0bc
000003f0: 6b3f 5bbc 67fc e73b 302a 29bc 408c 193d

ln.bias f4 [4]
0.014914138 0.031825792 0.0120337 -0.022626467
00000000: 6e5a 743c c35b 023d ff28 453c 245b b9bc
