src/players/saves/Graph12000-4.pth (torch_old, 6692 bytes, 6 tensors)

gc1.weight f4 [4, 8]
0	0x3e30f711	0.17281748
1	0xbe936d12	-0.28794152
2	0x3da7583c	0.08171126
3	0xbe8044fc	-0.2505263
4	0xbd18b900	-0.037285805
5	0x3ead40e3	0.33838567
6	0xbdc0db4c	-0.094168276
7	0xbeb32bf8	-0.34994483
8	0x3dca2445	0.09870199
9	0x3e31741c	0.17329448
10	0xbeb4931f	-0.35268494
11	0xbe9205a0	-0.28519917
12	0xbd301278	-0.042986363
13	0xbdec906b	-0.11550983
14	0xbeb4ccaa	-0.35312396
15	0x3dd4328f	0.10361206
16	0x3df15495	0.11783711
17	0x3dea439c	0.11438677
18	0x3e9a3791	0.3012052
19	0x3d989f0c	0.07452211
20	0xbe6efe26	-0.23339137
21	0xbdf1f1bd	-0.11813686
22	0xbe5d4669	-0.2160889
23	0xbe1991ae	-0.14996979
24	0x3e2bef97	0.16790615
25	0x3e27fbc0	0.16404629
26	0xbe796b50	-0.24357343
27	0x3e166b32	0.1468933
28	0xbeb152e5	-0.34633556
29	0x3e8fbfb1	0.28075936
30	0xbea22a41	-0.31672862
31	0xbe9e1df3	-0.30882224

gc1.bias f4 [8]
0	0x3ed8aed3	0.4232088
1	0x3c9f9323	0.01947934
2	0xbe3d6f84	-0.18499571
3	0xbdb90d80	-0.09035778
4	0xbd95121c	-0.07278845
5	0x3eddf6a6	0.4335224
6	0x3cfd3e60	0.030913532
7	0xbdb9d891	-0.0907451

gc2.weight f4 [8, 8]
0	0xbdb412c9	-0.087926455
1	0xbe41a0bd	-0.18908973
2	0xbcda0022	-0.026611391
3	0xbe8688b0	-0.2627616
4	0xbe9fde06	-0.31224078
5	0xbe8d84b3	-0.27640304
6	0xbeea9fd3	-0.4582506
7	0x3be36f01	0.006940723
8	0xbcb65746	-0.022258412
9	0x3e7b3e22	0.2453542
10	0x3d89df70	0.067320704
11	0x3d14078d	0.036140013
12	0x3e9b8071	0.3037143
13	0xbeb3c947	-0.351145
14	0x3d986343	0.07440808
15	0x3dc1763a	0.09446378
16	0xbeb003be	-0.34377855
17	0x3db7bbf4	0.08971396
18	0xbe7d3e96	-0.24730906
19	0x3ea7b473	0.3275486
20	0x3e684942	0.22684196
21	0x3e87f7c5	0.2655622
22	0xbd2e7368	-0.04259053
23	0x3dba6dcc	0.09102973
24	0xbdfdb1e6	-0.12387447
25	0xbe1359d3	-0.14389734
26	0xbcb7ffc0	-0.022460818
27	0xbdc9aaf8	-0.09847063
28	0xbe221beb	-0.15830962
29	0xbd57e4a0	-0.05270827
30	0xbe5abf39	-0.21362008
31	0x3e003e46	0.12523755
32	0xbe82866e	-0.25493187
33	0xbd4ac0e0	-0.049500346
34	0x3dea0bb8	0.114280164
35	0xbe8c45da	-0.27397043
36	0x3c96ec60	0.01842326
37	0x3d8686b4	0.06568661
38	0xbea0d983	-0.31415948
39	0xbd911130	-0.070833564
40	0xbef21d62	-0.47288042
41	0x3cc7e410	0.02440074
42	0x3d1618b0	0.036644638
43	0xbe9e10c9	-0.3087218
44	0x3cd1ed30	0.025625795
45	0xbdb1f080	-0.0868845
46	0x3ce06fd6	0.027397078
47	0xbea06a13	-0.31330928
48	0xbd19cba0	-0.037547708
49	0xbdfeb284	-0.12436393
50	0x3e367c62	0.17820886
51	0xbe48b45e	-0.19600055
52	0xbe305a5c	-0.1722197
53	0x3e4b5672	0.19857195
54	0x3db04c60	0.086083174
55	0x3dc29a40	0.09502077
56	0x3e13d63c	0.14437193
57	0x3e811841	0.25213817
58	0xbdebeb46	-0.11519484
59	0xbe5a1768	-0.21297991
60	0x3e86f46d	0.26358357
61	0xbe29e886	-0.16592607
62	0x3ea758f5	0.32685056
63	0xbd699160	-0.057023406

gc2.bias f4 [8]
0	0xbb812412	-0.0039410675
1	0xbe916c1f	-0.28402802
2	0xbe6d7671	-0.23189713
3	0xbb1e150e	-0.0024121436
4	0xbe8f6a25	-0.2801067
5	0xbd5b2470	-0.053501546
6	0xbd39b6c0	-0.0453403
7	0xbc5ed288	-0.013599999

ln.weight f4 [4, 326]
0	0x3c654aaa	0.013994852
1	0xbd37e3ca	-0.04489497
2	0xbc31bb04	-0.010847811
3	0x3d03459f	0.032048818
4	0x3ba40310	0.005005248
5	0x3c816d7a	0.015799273
6	0x3dd883aa	0.10571988
7	0x3c9fbd41	0.019499423
8	0x3c49e0e2	0.012321683
9	0x3c9d0b56	0.019170444
10	0x3cafbfda	0.021453787
11	0x3d54ec6b	0.05198328
12	0xbd113833	-0.035453986
13	0x3d4441b5	0.047914226
14	0x3d7573d6	0.059924923
15	0xbe13618d	-0.14392681
16	0x3d89c687	0.06727319
17	0x3c90030a	0.017579574
18	0x3d5becc9	0.053692613
19	0x3e23a264	0.15979916
20	0xbcedabf5	-0.02901266
21	0xba95f2a0	-0.0011440106
22	0x3d920065	0.071289815
23	0x3c5b15a5	0.01337186
24	0x3c126c89	0.00893701
25	0xbd24aa8d	-0.040201712
26	0xbbc74d38	-0.0060822032
27	0xbdb4977f	-0.08817958
28	0xb93bae00	-0.0001789853
29	0x3d50d31b	0.050982576
30	0x3e87e0f2	0.26538807
31	0xbc44baf1	-0.012007461
32	0xbdceceb4	-0.10098019
33	0x3d6084ef	0.054814275
34	0xbcdcd299	-0.02695589
35	0xbdd3aac9	-0.10335309
36	0xbcee3b36	-0.029080968
37	0xbb237b00	-0.002494514
38	0x3dbeae06	0.09310536
39	0xbc47ec98	-0.012202404
40	0xbdc903c7	-0.098151736
41	0x3c63a68c	0.013894688
42	0xba32a50b	-0.00068147545
43	0x3d7a1eb0	0.061064422
44	0x3c781fc4	0.015144292
45	0xbd413213	-0.047166895
46	0x3e111a7a	0.14170256
47	0x3dc5d1f1	0.09659184
48	0x3c7d6dad	0.015468043
49	0x3d50ab29	0.05094448
50	0xbc4d9ba2	-0.012549313
51	0xbcaa6f76	-0.020805102
52	0x3cc3651e	0.023851927
53	0xbce653b9	-0.028116094
54	0x3e2ae323	0.16688208
55	0x3bf96751	0.007611193
56	0x3c7c31ae	0.015392704
57	0xbd4118e0	-0.047142863
58	0x3ca988d8	0.020695135
59	0xbd8c7c4a	-0.06859644
60	0x3a9add00	0.0011815131
61	0x3bd237a8	0.006415326
62	0x3d78fee5	0.06078996
63	0xbd5c81f3	-0.053834867
64	0x3d21e3a5	0.03952374
65	0xbccdff08	-0.025146022
66	0x3d7c5e9f	0.061613675
67	0x3c4e0d05	0.012576346
68	0x3d255b71	0.04037041
69	0xbcc151f2	-0.023598645
70	0x3dd9726d	0.10617528
71	0xbc1f5a95	-0.009726186
72	0xbdde1ff9	-0.10845942
73	0x3c133364	0.00898442
74	0xbc8ca78b	-0.017169734
75	0xbcdbe893	-0.026844298
76	0xbc6aeee8	-0.014339186
77	0x3d038645	0.03211047
78	0x3d64a4b9	0.055821154
79	0xbda4daff	-0.08049583
80	0x3abad3aa	0.0014253755
81	0x3c552e34	0.013011504
82	0x3d3e3dc0	0.04644561
83	0xbbad0d7c	-0.0052811485
84	0x3cb6a61e	0.022296008
85	0xbc5048fc	-0.012712713
86	0x3df4aa77	0.11946576
87	0x3cae7b1a	0.021298934
88	0xba6f8a8d	-0.0009137772
89	0x3cf87b5e	0.030332264
90	0x3d415857	0.047203388
91	0x3d9ba83b	0.07600447
92	0xbd3974e5	-0.045277495
93	0x3c428d54	0.011874516
94	0x3e725835	0.23666461
95	0xbd779965	-0.060449023
96	0xbe00074a	-0.1250278
97	0xbca826bc	-0.020526282
98	0x3b566aae	0.0032717395
99	0xbb248470	-0.0025103353
100	0x3c89217e	0.016739603
101	0xbd5d8436	-0.054081164
102	0xbcc1680b	-0.023609182
103	0xbb29a99b	-0.0025888446
104	0xbd43a36d	-0.047763277
105	0x3b8632d8	0.0040954165
106	0xbce60567	-0.028078748
107	0xbd10b771	-0.035331193
108	0x3a657380	0.00087528676
109	0xbc7eb298	-0.01554551
110	0xbda603ad	-0.0810617
111	0xbc9957e1	-0.018718662
112	0xbcc81763	-0.024425214
113	0x3d062aef	0.03275579
114	0x3c52f380	0.012875438
115	0xbba9161c	-0.0051601063
116	0xbc7b059c	-0.015321162
117	0xbd1bcc26	-0.038036488
118	0xbd6f6fbe	-0.058456175
119	0x3de93800	0.11387634
120	0x3cb97acd	0.022641564
121	0xbd608ccf	-0.054821786
122	0x3d7dc68a	0.06195692
123	0xbd1372ac	-0.03599803
124	0x3d51866d	0.05115359
125	0x3cfbc4e6	0.030733537
126	0x3d43ae10	0.04777342
127	0xbbf5f152	-0.0075055743
128	0x3d339e75	0.04385229
129	0x3b5d1740	0.0033735782
130	0x39fa1bce	0.00047704432
131	0xbda39420	-0.07987237
132	0x3cbd70ba	0.023125041
133	0x3c280624	0.01025537
134	0x3d258f91	0.04042012
135	0xbd2d0aad	-0.04224651
136	0x3d0f98b5	0.035057742
137	0x3d54972d	0.051901985
138	0x3d0ba82a	0.03409592
139	0x3c04e806	0.008111959
140	0xbc81d402	-0.015848164
141	0xbc4cf994	-0.012510676
142	0x3de13281	0.10995961
143	0x3bee3dd9	0.0072705564
144	0x3d024b9a	0.03181038
145	0x3d4309df	0.047616836
146	0xbc680fd1	-0.014163927
147	0xbc45ea18	-0.012079738
148	0xbcea26e3	-0.028582996
149	0xbcf70770	-0.030154914
150	0x3ace6aad	0.0015748345
151	0x3d87fb30	0.06639707
152	0xbcdb2026	-0.026748728
153	0xbcc6b20a	-0.024254818
154	0xbc60437e	-0.013687966
155	0xbc9eb979	-0.01937555
156	0x3d2a835f	0.04162919
157	0x3c3d63ec	0.011559468
158	0xbdde5cfd	-0.1085758
159	0x3d0c99e6	0.034326456
160	0xbd5dc9a3	-0.054147374
161	0x3cf4aefa	0.029868592
162	0x3d545044	0.05183436
163	0x3d38d039	0.04512045
164	0x3d5c3d8f	0.053769644
165	0x3cd9839a	0.02655201
166	0xbd4f2089	-0.050568137
167	0x3ce3dd8f	0.027815608
168	0xbd8f3061	-0.069916494
169	0x3d6156ed	0.05501454
170	0x3cad614e	0.021164563
171	0xbc924928	-0.01785715
172	0x3c11bbbc	0.008894857
173	0xbd300ec2	-0.042982824
174	0xbd042c18	-0.032268614
175	0x3d415bee	0.04720681
176	0xbca2f392	-0.019891534
177	0xbd368926	-0.04456439
178	0x3d1c59f0	0.03817171
179	0x3d5275b0	0.051381767
180	0xbc97672e	-0.018481817
181	0x3c431b54	0.011908371
182	0x3c0a7d69	0.008452752
183	0xbd3e1d57	-0.0464147
184	0x3ca73aa1	0.020413699
185	0x3cadaea2	0.021201435
186	0x3c9cd81e	0.019146021
187	0xbcf106e2	-0.029422227
188	0x3c7e5034	0.015522052
189	0xbcf5ad4c	-0.029989861
190	0x3d95858c	0.07300863
191	0xbda9886a	-0.08277972
192	0x3d1cd8b3	0.038292598
193	0xbbd42a90	-0.0064748004
194	0xbcf4237f	-0.029802082
195	0xbc1fb965	-0.009748791
196	0x38cac000	9.6678734e-05
197	0x3cff8932	0.03119335
198	0x3ca354ae	0.01993784
199	0xbd86ead3	-0.06587758
200	0x3d91ae72	0.07113351
201	0xbcba1e84	-0.02271963
202	0x3cf0a754	0.029376663
203	0x3b5c4c94	0.003361498
204	0xbce0de1d	-0.027449662
205	0x3d19a6b5	0.0375125
206	0xbdca3394	-0.09873119
207	0xbc571d1b	-0.013129498
208	0xbccad39e	-0.02475911
209	0xbd3114a2	-0.043232568
210	0xbd740cd3	-0.059582543
211	0xbcddb4ee	-0.027063813
212	0x3b513750	0.0031923838
213	0x3aa6a1e0	0.0012713037
214	0x3d85c119	0.06530971
215	0x3c56844a	0.013093064
216	0xbd19e128	-0.03756824
217	0xbd2e0bbc	-0.04249166
218	0x37a1405b	1.9222663e-05
219	0x3d4ce60c	0.050024077
220	0x3ce28bf2	0.027654622
221	0x3c0ba4dc	0.008523192
222	0xbdac75ef	-0.084209315
223	0xbcb23128	-0.021751955
224	0xbb93029b	-0.0044863946
225	0x3d079d39	0.033108924
226	0xbd2d3982	-0.04229117
227	0xbd623253	-0.055223774
228	0x3cf1464a	0.029452462
229	0x38662800	5.4873526e-05
230	0x3cbb4571	0.02286026
231	0xbdb52730	-0.08845365
232	0xbd84af07	-0.06478696
233	0xbd4cd97c	-0.050012097
234	0x3c44e892	0.01201834
235	0xbcb399bb	-0.02192389
236	0x3ce66bca	0.02812757
237	0xbd5508c8	-0.052010328
238	0x3dfbde11	0.12298215
239	0x3d50c26d	0.05096667
240	0x3c8e1d1d	0.017347867
241	0xbc2238f8	-0.009901278
242	0xbd220a8a	-0.039560832
243	0x3a848e8c	0.0010113283
244	0xbd504db4	-0.050855353
245	0x3c30ea54	0.010798056
246	0x3ca5fdc7	0.020262612
247	0xbc973d9c	-0.018461995
248	0x3d133e0e	0.03594785
249	0xbc676d90	-0.014125243
250	0x3db06ab4	0.08614102
251	0x3cadfed8	0.021239683
252	0x3d0843c7	0.033267763
253	0x3ca38c2a	0.019964296
254	0x3d943f62	0.07238652
255	0xbd32532a	-0.043536343

ln.bias f4 [4]
0	0x3d7ac205	0.061220188
1	0x3d18721c	0.0372182
2	0xbc9e279e	-0.019306
3	0x3db48593	0.0881454
