src/players/saves/Graph12000-1.pth (torch_old, 6692 bytes, 6 tensors)

gc1.weight f4 [4, 8]
000000 cc ef 05 bd 88 5d e8 3d 29 fb a6 be 5e bd 4f be
       -0.03269939 0.11345965 -0.32613495 -0.20287082
000010 af e7 d7 3e 4b a3 0d 3e 41 4e 31 be ea 1a 95 be
       0.42168948 0.13831823 -0.17315008 -0.29122096
000020 d5 8d 91 be e4 72 0c 3e 1b 36 aa bd d1 13 a9 be
       -0.28428522 0.13715702 -0.08311101 -0.3302293
000030 4b 30 30 3f 9e 60 d3 bb c1 2f 9d 3e 54 7a 7b be
       0.6882369 -0.0064507267 0.30700496 -0.24558383
000040 f3 99 ab bd 30 bc 93 3d b6 40 b0 3c f0 2c c6 3d
       -0.08378973 0.07213628 0.021515232 0.0967654
000050 2a 45 a3 3e 23 12 84 3e bc 91 d6 3d bb b8 a5 3d
       0.31888705 0.25795087 0.104770154 0.08091875
000060 71 52 4f bd a6 a8 8a be 5c 1a 49 be 85 bb 85 be
       -0.05061573 -0.27081794 -0.19638962 -0.2611963
000070 bc 46 4f bd 79 9e 03 3e 14 e2 86 bd 46 41 dd bc
       -0.050604567 0.12853421 -0.0658609 -0.027008664

gc1.bias f4 [8]
000000 70 1c ef 3c 59 50 98 be 2d 61 8f 3c e0 91 8c 3c
       0.029188365 -0.297488 0.017502392 0.017159402
000010 c9 a1 20 3f 5e 07 b3 3e cc 2c b4 bd 7a c4 32 3d
       0.62746865 0.34966558 -0.08797607 0.043644406

gc2.weight f4 [8, 8]
000000 55 2e 3d be b4 3f 74 be 43 dd 5b 3e c4 3b 0f 3e
       -0.18474706 -0.23852426 0.21471123 0.13987643
000010 5d 66 af be 63 6c 74 be b3 ed 93 be 0d 13 ae 3d
       -0.34257784 -0.23869471 -0.28892288 0.084997274
000020 ac 04 fa 3d 87 7e 9c 3e da 0f 6c be 3c 8a 0a be
       0.12207922 0.30565283 -0.23052922 -0.13529295
000030 a7 f4 97 3e ae d2 27 be 53 26 9a 3e 48 2a 0f bd
       0.29678842 -0.16388962 0.30107364 -0.034952432
000040 10 81 ec 3d d0 51 e6 3c bf e1 87 be af 9a 01 3e
       0.11548054 0.028115183 -0.26539418 0.12656663
000050 f7 a7 f3 3b 80 65 b8 3d aa 09 86 3e dd f3 78 3d
       0.0074357945 0.090037346 0.26179248 0.06077944
000060 1a a5 0d 3e 68 8c 19 bd 66 21 38 3e 15 8c b4 3e
       0.13832512 -0.037487417 0.1798149 0.35263124
000070 2e 75 60 3e 62 72 6b 3e c7 11 9d 3e 42 f5 46 3e
       0.219197 0.22992852 0.30677626 0.19429496
000080 c1 0a a2 3d 85 df 57 be 87 f1 8b be 52 eb da be
       0.079122074 -0.2108136 -0.27332708 -0.4275766
000090 44 90 cf 3d e2 e4 02 be a0 d7 b8 bd 29 51 46 bf
       0.10134938 -0.12782624 -0.09025502 -0.7746759
0000a0 6e af 9a be 88 7e 53 3d 1f d3 63 bd a6 c0 d9 be
       -0.30211967 0.05163434 -0.055621263 -0.42529792
0000b0 83 2b 31 3e a6 56 42 3e d3 1b 71 be 74 be 6a be
       0.17301755 0.18978366 -0.2354577 -0.22924215
0000c0 d4 93 86 be 32 6e 72 be ef ec 97 be 27 06 85 be
       -0.2628466 -0.23674849 -0.29672953 -0.25981256
0000d0 d2 73 07 3e 62 b5 33 be ae 9d 64 be 68 53 67 be
       0.13227776 -0.17549661 -0.22325775 -0.2259041
0000e0 c0 27 5c 3c ea f5 0b 3e dc 24 73 bc 2b 04 72 be
       0.0134372115 0.13668028 -0.014840331 -0.23634402
0000f0 fe 5a 7b 3e f5 da ab 3e 2f 21 97 3e 1a 04 9d be
       0.2454643 0.33565488 0.29517505 -0.30667192

gc2.bias f4 [8]
000000 80 09 a5 be 09 ef 46 be ab 9d 70 bd 2c e9 80 bc
       -0.3223381 -0.19427122 -0.058744114 -0.015736185
000010 b5 3f cd be 2c ce 73 be c3 2e 6b bc c7 0f 88 3d
       -0.40087667 -0.23809117 -0.014354411 0.06643634

ln.weight f4 [4, 326]
000000 3a 83 d0 3c a6 ed b1 3c dc 82 4c 3d 02 c9 9a bd
       0.025453199 0.021719765 0.049929485 -0.075578704
000010 8e 87 e0 bd 30 9d 59 bc 2d 0c 51 bd 2c 85 c9 bd
       -0.10963355 -0.013282105 -0.051037002 -0.09839854
000020 a0 c8 60 bd b8 fc ab bb 5a 29 5e 3d 83 94 da 3b
       -0.05487883 -0.0052486323 0.054238655 0.006670536
000030 67 07 8f bc 3d 51 40 bd e3 c3 a2 bd 82 3d c4 bd
       -0.017459584 -0.046952475 -0.07947519 -0.09582044
000040 c4 ce 3c 3c db d8 3b 3d 90 1f e9 bc 2b 91 c7 3c
       0.011523906 0.045861106 -0.028457433 0.024361214
000050 ca 84 c3 bd 24 cb 18 bd 72 ff 72 bd b0 b6 01 bd
       -0.09546812 -0.037303105 -0.059325643 -0.031668365
000060 6c 1b 44 3c d0 7f 68 bb df dc 81 3d bb 62 3d bd
       0.0119694285 -0.0035476573 0.06340956 -0.046236735
000070 32 b6 86 bc b8 fe d6 3b 0e 10 9f 3b 53 b8 42 3e
       -0.0164443 0.0065611266 0.004854209 0.19015627
000080 8c fb 1a bd 1d 23 4a 3d 23 d2 cf 3c c2 84 a2 3d
       -0.03783755 0.049349893 0.025368756 0.07935478
000090 81 2e f8 bc c8 2f 9b bc 46 c2 48 3d b7 db 88 3c
       -0.030295612 -0.018943682 0.0490134 0.01670633
0000a0 40 0d ab bc d8 fe 14 bd 2f 28 1d 3d 88 53 3a 3d
       -0.020880342 -0.03637585 0.0383684 0.045489818
0000b0 bc fa fb 3c 7a 00 81 3c 68 70 02 bd 27 3e 05 be
       0.030759208 0.015747298 -0.03184548 -0.1301199
0000c0 80 a7 9f 39 82 e4 fe 3c 12 e4 ac 3c 23 dc a9 bc
       0.0003045164 0.03111482 0.021104846 -0.020734852
0000d0 f3 7e 25 bd f6 df 02 bd 2d 1a 23 bd 89 1c 33 3e
       -0.04040427 -0.031951867 -0.039819885 0.17491354
0000e0 20 86 2c 3b 9c 19 2a bc b1 a6 df 3c 5a de 97 3c
       0.0026325062 -0.010382082 0.027301164 0.018538643
0000f0 ce a4 95 bc 09 f3 2b bd f4 67 52 bc aa 9f 4d 3d
       -0.018267062 -0.041979823 -0.012842167 0.050201096
000100 52 55 3c bd 30 5c 9d 3b 40 c1 0a bd 3f 1b d9 3d
       -0.045979805 0.0048022494 -0.033875704 0.106009
000110 ae 3a ae bd ff 41 cb bc 73 64 74 3c 2f c2 21 3e
       -0.08507286 -0.024811743 0.014916527 0.15796731
000120 9e a1 92 3c a6 3d ec 3c 7c 8d 46 3d 39 dd 8b 3c
       0.01789933 0.02883799 0.048474774 0.01707326
000130 e4 b7 05 be 90 f1 8e bb 18 a0 28 bd 34 90 bc 3d
       -0.1305843 -0.0043622926 -0.041168302 0.09207192
000140 ba e4 e0 3c 8b 6f 31 3d f8 97 c8 3d 33 11 d0 bb
       0.027452815 0.043319266 0.09794611 -0.0063497066
000150 b1 ad 5c 3d 47 c9 00 3d d7 d1 c5 3b 2f 3e 92 3e
       0.053876583 0.031441953 0.0060369777 0.28563067
000160 48 19 34 bc 7d c7 0a bd 1b 32 0f bc 11 33 cb 3d
       -0.010992356 -0.033881653 -0.008739973 0.099218495
000170 86 b5 0c 3e a8 83 d6 bb a7 9c 58 3d 02 c4 4b 3d
       0.1374112 -0.0065464564 0.05288377 0.049747474
000180 2c 54 5c 3c d4 9a 6b bc 84 4e 8d 3d 7d 91 03 bc
       0.0134478025 -0.014380176 0.06899741 -0.008030293
000190 e4 7c 52 bd 89 86 39 bd 90 f3 6a bc 1a 1d 1a 3e
       -0.051388636 -0.04529432 -0.014340296 0.15050164
0001a0 09 1b ef bc 36 6a 89 3c ed bf 55 ba 71 26 1c bd
       -0.029187696 0.016774278 -0.00081539043 -0.038122598
0001b0 2a dc cd 3d ea aa 4d bd c4 7d ec bc 52 01 9a 3e
       0.100517586 -0.050211824 -0.028868563 0.30079132
0001c0 55 36 61 3d a1 09 40 3d a2 08 eb bb 49 cb 15 3d
       0.054983456 0.046884183 -0.00717266 0.03657082
0001d0 89 8c 90 3d da aa b6 bc 93 1d 2d bd 77 d1 61 3e
       0.07058055 -0.022298265 -0.042264532 0.22052561
0001e0 59 79 51 3d 76 58 f5 3c 50 6a 16 bd 2c 85 b1 3c
       0.051141117 0.029949408 -0.03672248 0.021669947
0001f0 d5 a5 a8 3e 04 5a 0d 3c 00 b1 60 ba 95 f3 18 3e
       0.3293902 0.008627418 -0.0008571297 0.14936669
000200 e8 35 f3 bc 48 c7 c1 bb 71 64 64 3d ef 89 46 3d
       -0.02968879 -0.0059136488 0.05575985 0.048471387
000210 46 51 3f be cf 70 46 bd 53 47 51 bd 2a ee df 3d
       -0.18683347 -0.048447426 -0.05109341 0.10934098
000220 34 e2 70 3c ec 55 3e bc 1c 3a 19 ba dd 83 3d 3d
       0.0147023685 -0.011617165 -0.0005845146 0.046268333
000230 8c fc 58 be bc a3 42 3c 8e d3 4b bd 87 80 f9 39
       -0.21190089 0.011879858 -0.0497623 0.0004758874
000240 2e d0 8a 3c f2 06 fc 3c 76 ed c0 3d 37 fc 8e 3d
       0.016944971 0.03076503 0.09420292 0.069817
000250 fa 67 33 3e c4 9f 51 bd 48 4e a4 bb b6 78 6c 3e
       0.17520133 -0.051177755 -0.0050142147 0.23092923
000260 6d 6c 1d 3d 97 49 1b 3d 40 9f 6f bd 82 0d 10 bd
       0.03843348 0.037911978 -0.058501482 -0.035169132
000270 a1 28 0f be b6 44 e1 3c 90 86 74 bc 43 b2 c9 3d
       -0.13980342 0.027498584 -0.01492466 0.09848454
000280 3a 8f bc 3c ae b5 8f 3c f0 0a 52 3d 18 4f 6f 3d
       0.023017514 0.017542686 0.051279962 0.05842504
000290 d3 5a 37 3b a8 2b e9 3b 5b ea 7f bc d2 41 23 3e
       0.002797772 0.0071158 -0.01561984 0.15943077
0002a0 14 bf 71 3c 2a 9a db 3c aa 3b 69 3b 39 d9 74 3d
       0.014755029 0.02680691 0.003558854 0.059777472
0002b0 41 b0 16 be 1f 53 4c 3d b3 20 c9 bc 36 c7 2e 3e
       -0.14715673 0.049883958 -0.024551725 0.1706818
0002c0 e9 0b 58 3d 7c 64 4d bd ae ae 3e 3c da 3b 17 3d
       0.052745733 -0.050144657 0.011638327 0.036922313
0002d0 a5 01 bf bd 04 0d 87 bc c2 59 8a bc 99 9c b0 3d
       -0.093264855 -0.016485699 -0.016888503 0.08623619
0002e0 dc fe 02 bd 8d 94 1b 3d b3 8c a9 bc 7b b8 a1 3c
       -0.031981334 0.037983466 -0.020696973 0.019741287
0002f0 40 6c c0 bd 78 d0 d2 bb 98 d7 d3 3b ea 03 e3 bd
       -0.09395647 -0.006433543 0.0064649098 -0.11084731
000300 e2 48 4a bd 2d 40 01 3d 8b 46 8f bb 7c d2 21 3d
       -0.049385913 0.031555343 -0.004372423 0.039507374
000310 1c 73 ce 3d e2 51 c4 3c e1 6f 07 bd 0d b6 07 bd
       0.10080549 0.023964826 -0.03306568 -0.0331326
000320 5f 93 23 bd 33 c3 37 3d 97 ac 6f bb e4 bc 09 bd
       -0.039935466 0.04486389 -0.0036571377 -0.033627406
000330 89 5d 0e be e4 42 38 bc 1b d8 ea 3c 80 60 01 be
       -0.13902868 -0.011246417 0.0286675 -0.12634468
000340 20 2a d0 bb 20 52 eb 3a c0 ca 22 3d 91 5a 89 3c
       -0.006352678 0.0017953552 0.03974414 0.016766818
000350 24 8e 4e be 44 54 28 3c 00 b2 99 b8 a1 4a 3d be
       -0.2017141 0.010273997 -7.3287636e-05 -0.184855
000360 c5 8c d8 3d ea ce ca 3c 44 43 b7 3c 19 61 57 bd
       0.10573725 0.024756867 0.022370942 -0.052582834
000370 37 00 aa 3e 20 b2 74 bc 34 28 c7 bc 52 b4 27 be
       0.3320329 -0.014935046 -0.024311163 -0.1637738
000380 d8 92 f3 bb ea d7 ab 3c d7 d1 8a 3c 78 7d 5e 3d
       -0.0074332766 0.02097698 0.016945763 0.054318875
000390 a6 38 0b be 4e ce 97 3c b4 c6 34 3c cc a3 0e bd
       -0.13595828 0.01853099 0.011033703 -0.034824178
0003a0 ec dc 37 bd de a6 46 bd 7a ae 07 3c 67 2e 23 3c
       -0.044888422 -0.04849898 0.008281345 0.009959794
0003b0 3f 11 a0 3d 8a bc cf 3c 6c 2b 29 3c 44 35 81 bd
       0.078157894 0.025358457 0.010325294 -0.06308988
0003c0 d6 95 89 bc 42 cd a5 3c 93 19 17 3d be f9 2c 3d
       -0.01679508 0.020239476 0.036889624 0.04223036
0003d0 26 f3 82 bd 5c 4b 4a bd 8a 3f c5 3c 79 68 2d bd
       -0.06394033 -0.049388275 0.02407815 -0.04233596
0003e0 d0 22 2a bc eb 44 48 3d 89 7a 0d 3d 98 8f c5 ba
       -0.0103842765 0.04889385 0.034540687 -0.0015072701
0003f0 f5 ae a8 bd ae c4 91 bc 8e 26 20 bd e3 df 2b be
       -0.082364954 -0.01779398 -0.03909927 -0.16784625

ln.bias f4 [4]
000000 24 bb aa 3c fd 33 d1 bd 3f e0 1a bd ea d1 af 3c
       0.020841189 -0.10214994 -0.037811514 0.0214624
