src/players/saves/Graph5-4.pth (torch_old, 6692 bytes, 6 tensors)

gc1.weight f4 [4, 8]
000000 98 36 9a 3d 1c ad 5a 3e fa 5a d6 3d 75 8e e0 3d
       0.07529944 0.21355098 0.10466571 0.109646715
000010 30 4a 0b be 60 44 b0 3c 8c f1 1c be 1b b4 ef bd
       -0.13602519 0.021516979 -0.15326518 -0.11704274
000020 00 f4 e0 3c fa 9c 91 3e c5 72 25 be a6 d9 8b 3d
       0.027460098 0.28440076 -0.16157062 0.068286225
000030 c0 c6 98 be a8 90 bb bd d5 37 1f be c0 18 40 be
       -0.29839134 -0.0915845 -0.15548642 -0.18759441
000040 d0 c1 70 3d e6 7d 04 3d f4 97 9d be 9c 81 8f 3e
       0.058778584 0.03234663 -0.30779994 0.28028572
000050 a2 8a 5e 3e 05 82 0f be 36 64 25 3e 81 79 a7 3e
       0.21732572 -0.14014442 0.16151509 0.32709888
000060 c1 3d a1 be 1b b3 93 3e 5f e8 52 3e e3 e4 a8 3e
       -0.31492427 0.28847584 0.20596455 0.32987127
000070 13 18 db bd 68 b4 28 3d af b9 90 bd ee 38 77 be
       -0.10697951 0.041187674 -0.07066666 -0.2414281

gc1.bias f4 [8]
000000 ad c0 a2 be 30 43 3c be 9b 0e 3b 3e f8 c6 c6 3d
       -0.31787625 -0.18385005 0.1826729 0.09705919
000010 ee ef 8b 3e 8e 10 04 be 73 d8 65 3d 06 ad eb 3c
       0.2733149 -0.1289694 0.056114625 0.028769027

gc2.weight f4 [8, 8]
000000 36 c6 78 be 9f 44 84 be 3d e5 8e 3e 2e 23 5f 3e
       -0.24294361 -0.25833604 0.2790927 0.21790764
000010 cc 39 ed 3d c0 69 0b 3c 91 d2 b1 3e c7 cf 8d be
       0.115832895 0.0085090995 0.34730962 -0.27697584
000020 85 17 2e be 63 b1 c5 bd 8b d4 30 bd 52 de 64 be
       -0.1700116 -0.096529745 -0.043171447 -0.22350433
000030 f2 6a 14 be 5b 11 e0 bd 77 9a 7d be 95 50 69 be
       -0.14493921 -0.1094081 -0.24765955 -0.22784646
000040 42 b6 7e be 20 1a 8e 3e c7 29 a5 3e 12 8a e5 bd
       -0.24874213 0.27754307 0.32258436 -0.112079754
000050 92 15 f4 bc 9c 61 89 3c c4 bc 02 be 36 2e f0 bd
       -0.029795442 0.016770177 -0.12767321 -0.11727564
000060 f0 59 35 3e 6b b7 39 be d4 a4 bd 3d bc 76 48 bd
       0.1771009 -0.18136375 0.09259954 -0.04894136
000070 58 9c 94 3e 25 c2 b1 3d 87 54 94 be b0 c4 9b be
       0.2902553 0.08679608 -0.2897074 -0.30423498
000080 59 82 b8 bd 9b 01 8e be fe ff ca 3c 7d 03 78 3e
       -0.09009237 -0.277356 0.02478027 0.2422008
000090 fe ad 8f 3e e2 7e b5 bc 09 5a f9 bd 9d 58 64 3e
       0.28062433 -0.022155229 -0.12175376 0.22299428
0000a0 72 a3 17 be 06 b2 5b 3e a7 ee 86 3e 86 db 3c 3e
       -0.14808443 0.2145463 0.26353952 0.18443117
0000b0 fb b5 50 be 2e 35 33 3e 5a 2c 3e 3e 05 f6 22 be
       -0.2038192 0.17500755 0.18571606 -0.15914162
0000c0 a0 66 79 3d ce b0 7c 3e f0 7c 0f be 1f b3 9c 3e
       0.060888886 0.2467682 -0.14012504 0.3060541
0000d0 da 71 46 be 94 64 81 3d de ba a3 3e 2d b5 b2 be
       -0.19379368 0.06318012 0.31978506 -0.3490385
0000e0 94 a9 ed bc 0f c5 95 3e 0d f4 66 3e 7f 2c aa 3e
       -0.029011525 0.29251906 0.22554035 0.33237073
0000f0 30 60 81 be 57 40 98 be 8f 9d 92 3e f3 cf 96 be
       -0.25268698 -0.29736587 0.28635833 -0.29455528

gc2.bias f4 [8]
000000 65 09 af 3e 9b 85 6d bd c6 9e 49 3e 30 08 84 3e
       0.34186855 -0.057988744 0.19689474 0.25787497
000010 c5 dc 18 3d 09 18 1e 3e 2e 0a 01 3e 72 fb 8f 3d
       0.037319917 0.15438856 0.1260154 0.07030381

ln.weight f4 [4, 326]
000000 a8 94 36 3d b1 a7 4e bd e7 35 76 3c 89 15 69 bd
       0.044575363 -0.05045289 0.0150275 -0.056905303
000010 2a fe bc 3c 1e 04 03 bd a7 84 33 3d d0 88 0d bc
       0.023070414 -0.03198635 0.04382768 -0.008638576
000020 4e 2a 18 bd a0 97 9d bb 47 2c f4 3c 51 70 b1 bc
       -0.03714972 -0.004809335 0.02980627 -0.021660002
000030 ae 62 e3 3c d0 7f b0 bb a7 5a b2 bc 7d 1e d0 bc
       0.027757015 -0.00538633 -0.021771742 -0.025405163
000040 b4 ea 9b 3c ca f1 74 3b 82 c6 12 3d de d7 9f 3b
       0.019032814 0.0037375563 0.035833843 0.0048780283
000050 45 1d 11 3d 3a a7 80 3c 1e 25 4d bd 2f 4c 61 bd
       0.035428304 0.01570474 -0.050084226 -0.055004295
000060 8b 09 22 bc 7c 7b d5 3a 2a 17 85 3c 8a 52 bf 3c
       -0.0098899705 0.0016287412 0.016246397 0.023354787
000070 89 dc 18 3d e7 a7 a6 3c 97 4b 31 bd 63 d0 e7 bc
       0.037319694 0.020343734 -0.04328498 -0.028297609
000080 3d fb 01 3c ab 31 f3 bc 0b 66 18 3d c7 13 95 3c
       0.007933435 -0.02968677 0.03720669 0.018197907
000090 bf 7e e2 3b 04 ee 9c bc ce dd 48 bc 42 f4 81 bc
       0.006912082 -0.019156463 -0.012259914 -0.015863542
0000a0 fe 36 54 bd a4 9d cd 3c 71 70 3d 3d 1c fa ed bc
       -0.051810257 0.025099583 0.04624981 -0.029049926
0000b0 de 58 d5 3c 08 40 94 3c 09 e7 1b 3c fc 78 f2 bc
       0.026043352 0.018096939 0.009515532 -0.029598705
0000c0 2a 42 14 bd f3 59 e1 3b d1 e4 c4 3b 92 b8 98 bc
       -0.03619591 0.006877178 0.0060087224 -0.018642697
0000d0 f2 0b 27 bd 6c 5b 02 3d 50 75 0e bd 1a 7a bf 3c
       -0.040782876 0.031825468 -0.034779847 0.023373652
0000e0 4e b1 3d 3d 6f 10 fa bb d5 6e fa bc 86 e7 51 bd
       0.04631167 -0.0076313536 -0.030570427 -0.05124619
0000f0 dd b2 97 bc f7 39 39 bd 6c 00 66 bd ef 44 1e bd
       -0.018517906 -0.045221295 -0.056152746 -0.03863996
000100 5d ff b1 bc 88 ec e6 bc 0c 1e 4f bc 4e ef d4 3c
       -0.021728212 -0.028188959 -0.012641441 0.025993016
000110 ef e9 68 bd d9 aa 49 bd 18 ca 3d bd 98 c5 08 3d
       -0.05686372 -0.0492352 -0.04633531 0.033391565
000120 36 85 ea 3c 88 45 49 39 ae a9 44 bd f0 70 b2 3c
       0.028627973 0.00019194756 -0.04801338 0.021782368
000130 be c1 88 3c e2 7e 78 bd 10 52 b6 3b ed 9c 08 3d
       0.016693946 -0.06066788 0.005563982 0.03335278
000140 ab 73 19 bc 10 83 3c 3d 0a 08 8c 3a ab 2c 4b 3d
       -0.009365956 0.04602343 0.0010683548 0.049603146
000150 10 20 a0 bb a2 f9 2e bc d2 e9 73 bd 1a b9 46 3c
       -0.0048866346 -0.010679634 -0.05954916 0.012129093
000160 32 04 36 bd 44 18 82 bc 9c 41 0b 3d 13 3f 2c 3d
       -0.044437595 -0.015880711 0.033998117 0.04205234
000170 06 90 3e 3b 56 cc 04 bd 3b c0 98 3b d4 19 82 3c
       0.0029077544 -0.032421432 0.0046615875 0.015881456
000180 eb 35 03 3d 0f f5 5f bc 51 93 2e 3d c7 f5 ff 3c
       0.032033842 -0.013669266 0.04262096 0.031245125
000190 ec ee a6 bc 95 8b a3 3b 9e 7b 21 3d 07 a0 a3 bc
       -0.020377599 0.0049910047 0.03942453 -0.019973768
0001a0 56 92 1e bd 48 e6 a7 bc 2b e3 b5 3c 6d 98 06 bd
       -0.038713776 -0.020495549 0.022203049 -0.03286021
0001b0 cd 90 bd bb 17 de 17 bd be d3 a1 3c 30 aa be bc
       -0.005785084 -0.037077036 0.019754287 -0.023274511
0001c0 bc bd 37 3d e7 c7 51 bd 30 9f 0d bd 36 43 41 3d
       0.04485868 -0.051216032 -0.03457564 0.047183238
0001d0 d2 90 65 3a 50 5c 76 bd 42 4f ff 3c df d9 18 3d
       0.00087572366 -0.06014663 0.031165723 0.037317153
0001e0 8b d9 1f bd 42 9b 81 3c c9 53 27 bd 18 ca e9 b9
       -0.039025825 0.015821103 -0.040851388 -0.00044591795
0001f0 43 58 84 bc b3 fc 3e bd 44 eb 79 bc 25 27 05 3d
       -0.016155368 -0.04662771 -0.015253846 0.032508034
000200 4d 11 10 3d b2 a7 91 bc fe ef 6a bd a0 35 38 3c
       0.03517275 -0.017780159 -0.05735778 0.011243254
000210 53 24 be bc 64 68 40 bc 3f 93 97 bc 70 c6 27 bd
       -0.02321068 -0.011743639 -0.01850283 -0.04096073
000220 a5 5a 2b 3d 8e 5c ee bc 6a a6 5e bd 6f 4a 02 bd
       0.041834492 -0.029096868 -0.054357924 -0.031809267
000230 e7 34 d5 bc 00 92 2b bd 5f f9 98 3c ff 19 16 bd
       -0.026026202 -0.041887283 0.018673597 -0.036645886
000240 a2 3c 32 bd c0 2b 63 3d b6 ae 62 bd 99 25 19 3d
       -0.043514855 0.055461645 -0.0553424 0.03738937
000250 d7 f8 49 bd bf 8f 81 ba 4c 37 6d bb 29 83 56 bd
       -0.049309578 -0.0009884759 -0.003619629 -0.052371178
000260 39 21 36 3c 45 3d 1c 3d a2 39 7a bd e3 40 04 3d
       0.011116319 0.03814437 -0.06109012 0.032288443
000270 52 af 01 3d 15 69 f7 bc 2c 3f ac 3c 5f b2 a0 3c
       0.03166134 -0.030201474 0.021026216 0.019616304
000280 94 13 0c bd 0e 77 5f bd 26 69 c0 3c 0e 5b 37 3d
       -0.03419836 -0.0545569 0.023487639 0.04476457
000290 78 64 ad bc fb 01 a7 bc ea 78 6d 3d 79 c2 12 bc
       -0.021166071 -0.020386687 0.05797664 -0.008957499
0002a0 d8 12 2e bd 5c 51 26 3c 5b 56 19 3d a9 89 9f ba
       -0.04249844 0.0101512335 0.03743587 -0.0012171763
0002b0 f6 28 6f bc a0 0e 40 bd a1 79 7e bd 25 21 4b 3d
       -0.014597168 -0.046888947 -0.062127713 0.049592156
0002c0 d1 f6 3a 3d e2 65 1c bd bf f5 37 bc e7 9f 34 3c
       0.04564554 -0.0381831 -0.011228024 0.011024452
0002d0 a6 45 44 bd b9 80 47 3c c2 fa 40 bd cf 26 0f 3d
       -0.047917984 0.012176686 -0.04711414 0.03494912
0002e0 b7 67 b1 bc 01 b4 0c bd ea d6 96 bb 18 2b 91 3c
       -0.0216559 -0.034351353 -0.0046032565 0.017720744
0002f0 d9 38 a7 3c 6a d6 89 3c cb 8b 01 3d d5 59 55 bd
       0.02041285 0.016825873 0.031627458 -0.052087624
000300 1e 05 41 bd df 50 b5 3c d9 64 5b bd 74 a2 c8 3a
       -0.04712402 0.022133289 -0.053562973 0.0015307204
000310 05 91 ee 3c 74 ae 25 3d a8 67 aa 3c f6 51 43 3d
       0.029121885 0.040449575 0.02080138 0.047685586
000320 06 9f b8 3c 65 5c ce 3c 9f 08 c5 3c 00 7a 15 bd
       0.022536766 0.025190542 0.024051962 -0.0364933
000330 3b b9 d5 3c 07 92 8b 3b 02 e6 e2 3b 5c 82 eb 3c
       0.026089301 0.004259351 0.0069243917 0.028748684
000340 9d a0 3d 3c 01 55 69 3d 84 e8 81 3c 3e d8 b9 3c
       0.011573938 0.05696583 0.015857942 0.02268612
000350 c9 6d 73 3b 02 9f bf bc 22 bb 26 bc 40 a1 10 3d
       0.0037144294 -0.02339125 -0.010176452 0.03531003
000360 79 ac 86 3c 4a 4c c8 3c 78 75 9d bc 61 c8 41 3d
       0.016439663 0.02445044 -0.019221053 0.047310237
000370 c0 24 69 3c 1a 41 49 bd a7 30 1b 3c 8c ed b2 3c
       0.014229953 -0.04913435 0.009472049 0.021841787
000380 01 e1 76 bd 80 ce e1 3a 4d 38 09 bd fe 51 2f 3d
       -0.060273174 0.001722768 -0.03350096 0.042802803
000390 0e 1d 05 3d 9b 49 83 bd 5d e2 6b bc 82 8d fa 3c
       0.03249841 -0.064105235 -0.014397231 0.030585054
0003a0 55 5a 2a bd 90 8e 2b bd 29 3a a2 3a 82 99 75 bd
       -0.041590054 -0.041884005 0.0012376952 -0.05996085
0003b0 4a f6 0d 3c b6 42 1e bd 52 ab cf bc 2e 33 5c 3d
       0.008664677 -0.03863784 -0.025350247 0.053759746
0003c0 c7 8c 98 bc b2 7c d6 3c 18 bb 17 3d 0d 22 4e bc
       -0.018621815 0.026182506 0.03704366 -0.0125813605
0003d0 10 30 38 3d af 62 00 bc c4 4a f7 3b c9 f2 43 3d
       0.04496771 -0.007836028 0.0075467546 0.04783896
0003e0 8c e4 64 3c dd 5c a6 3c 25 f7 2f 3b 66 7a 56 bc
       0.013970505 0.020307953 0.002685019 -0.0130907055
0003f0 3d d3 15 3d d7 47 3b bd 44 38 08 3d 4a 76 fe 3c
       0.036578406 -0.04572281 0.033256784 0.031062264

ln.bias f4 [4]
000000 2c a1 51 bd 83 19 80 3d 11 c0 df bc 1f a7 5f bc
       -0.051179096 0.06254866 -0.027313264 -0.013650685
