src/players/saves/Graph12000-2.pth (torch_old, 6692 bytes, 6 tensors)

gc1.weight f4 [4, 8]
0	0xbddef9ff	-0.10887527
1	0xba0f51b6	-0.0005467193
2	0x3d3fab25	0.046794076
3	0xbd741b58	-0.05959639
4	0x3e2d32dc	0.16913933
5	0x3e08c054	0.13354617
6	0xbe066948	-0.13126099
7	0x3e8386c4	0.25688756
8	0xbe156c99	-0.14592208
9	0xbe9804d5	-0.29691187
10	0x3e8757ba	0.26434118
11	0xbdce5d0c	-0.10076341
12	0x3edc71da	0.43055612
13	0xbe5245aa	-0.20534387
14	0xbe97948e	-0.29605526
15	0x3e6b230d	0.2296259
16	0x3cf03fca	0.029327292
17	0xbc117d57	-0.008879981
18	0x3c562154	0.0130694695
19	0x3d061ba8	0.03274122
20	0xbaf25d45	-0.0018490931
21	0x3dc99e00	0.09844589
22	0xbd876036	-0.06610148
23	0x3e563087	0.20916949
24	0xbec0fe8e	-0.3769421
25	0xbce7ebae	-0.028310623
26	0x3f08c177	0.53420204
27	0xbe47db43	-0.19517235
28	0x3f0b31f1	0.5437308
29	0xbd16c430	-0.036808193
30	0x3dee4eb5	0.11636106
31	0x3db5ce9b	0.088772975

gc1.bias f4 [8]
0	0x3e999965	0.29999843
1	0xbaa56ee0	-0.0012621544
2	0x3e69261c	0.22768444
3	0xbdb80f18	-0.08987254
4	0x3ef73906	0.48285693
5	0xbe97aaef	-0.296226
6	0x3ee8b092	0.45447212
7	0xbead8610	-0.33891344

gc2.weight f4 [8, 8]
0	0xbf06da97	-0.5267729
1	0x3eb180d5	0.34668604
2	0xbdde3211	-0.10849393
3	0x3cda20b6	0.026626926
4	0x3e1fa722	0.155911
5	0xbde5b19f	-0.11215519
6	0xbee7a5b5	-0.45243612
7	0xbc503670	-0.012708291
8	0xbd5c033a	-0.053714015
9	0x3d007298	0.031359285
10	0x3e3b0f32	0.18267515
11	0x3dfa21de	0.12213491
12	0x3e2b2ea2	0.16717008
13	0xbec7632b	-0.38942847
14	0x3d6b7e5e	0.05749356
15	0x3e82fb29	0.25582245
16	0xbec1f5f3	-0.37882957
17	0xbdb57344	-0.08859876
18	0xbde0936d	-0.10965619
19	0xbe63b1a9	-0.2223574
20	0xbdd3042c	-0.1030353
21	0xbee437f3	-0.44573936
22	0x3e4282bd	0.18995185
23	0x3e186e9f	0.14885949
24	0x3e425bc6	0.18980321
25	0xbe0649da	-0.1311411
26	0x3e492e1a	0.19646493
27	0x3e880fa3	0.2657443
28	0x3e2d828e	0.16944334
29	0x3d9b90ac	0.07595953
30	0x3e8eb5b3	0.27873
31	0x3ea57b8b	0.32320818
32	0xbe9ffca9	-0.31247452
33	0xbe09fa42	-0.13474372
34	0xbe3e1c31	-0.18565442
35	0xbeb19948	-0.34687257
36	0x3dd30e1c	0.103054255
37	0xbe1c372f	-0.15255426
38	0xbdb271c8	-0.08713108
39	0xbee69d2d	-0.4504179
40	0xbe4b94e2	-0.19881013
41	0xbcbd02f0	-0.02307269
42	0x3ea4d083	0.32190332
43	0xbea2d22c	-0.31800973
44	0xbde008d0	-0.10939181
45	0xbcd6a8e0	-0.026203573
46	0xbe9c8169	-0.30567482
47	0x3e8c94b3	0.27457199
48	0xbec3b4f5	-0.38223997
49	0x3d8db328	0.06918937
50	0xbd33e9fc	-0.043924317
51	0xbeac80a6	-0.336919
52	0xbe9e1187	-0.30872747
53	0xbdb04064	-0.086060315
54	0xbda5c9dc	-0.08095142
55	0x3e546d18	0.20744741
56	0x3e4a7381	0.19770624
57	0x3e15dcd2	0.14635018
58	0x3e220c9f	0.15825127
59	0xbdca5635	-0.09879724
60	0xbe35640b	-0.17713945
61	0xbe480b30	-0.19535518
62	0xbdd9dfb8	-0.10638374
63	0x3e6593e0	0.22419691

gc2.bias f4 [8]
0	0x3d786006	0.06063845
1	0xbe905173	-0.2818714
2	0xbc1e1237	-0.009647897
3	0x3cd75453	0.026285326
4	0xbe893b30	-0.2680297
5	0xbc17ef5e	-0.009273378
6	0xbd67b4a0	-0.05656874
7	0xbebc40c8	-0.36768174

ln.weight f4 [4, 326]
0	0xbce69285	-0.028146038
1	0xbd32d4ef	-0.0436601
2	0x3d39c0f7	0.04535004
3	0x3d11a5d5	0.03555854
4	0x3d0c8421	0.034305695
5	0xbd0c6b15	-0.03428181
6	0x3d3a7e7d	0.045530785
7	0x3c45583c	0.0120449625
8	0x3cd7bb18	0.02633433
9	0xbca7279e	-0.020404633
10	0x3d948e35	0.07253686
11	0x3e0b3df3	0.1359785
12	0xbc9597aa	-0.018260796
13	0x3cc980d0	0.024597555
14	0xbda1f054	-0.07907167
15	0xbd575fd5	-0.052581627
16	0x3baebed9	0.0053328094
17	0x394c3800	0.00019475818
18	0xbcb7b097	-0.022423072
19	0xbe45d946	-0.19321164
20	0x3cef305a	0.02919786
21	0xbd2fe003	-0.042938244
22	0xbd3a40e7	-0.045472052
23	0xbc1584fc	-0.009125944
24	0x3cef8384	0.029237516
25	0xbd0b2340	-0.033969164
26	0x3d78f186	0.06077721
27	0x3da76992	0.08174433
28	0x3c5adb1c	0.013357904
29	0x3d9ef752	0.07762016
30	0xbd55ef90	-0.052230418
31	0x3d24a58b	0.040196937
32	0x3d8196f3	0.063276194
33	0x3a4c0c40	0.0007783808
34	0x3d1bd891	0.03804833
35	0xbd6e4476	-0.05817076
36	0x3bbf3fb0	0.0058364496
37	0x3bc924f2	0.0061384374
38	0xbd83641f	-0.06415581
39	0x3e0da423	0.13832144
40	0x3c297a1e	0.010344056
41	0x3d09de85	0.033659477
42	0xbd019161	-0.031632785
43	0x3dc12cf6	0.09432404
44	0xbcb3f686	-0.021968137
45	0x3d9c9e77	0.07647412
46	0xbdab9a40	-0.0837903
47	0xbd327cfa	-0.04357622
48	0xbd4b4f8e	-0.049636416
49	0x3cb33c72	0.021879409
50	0x3d3b6281	0.045748238
51	0x3e0eef9a	0.13958588
52	0x3d1fc799	0.03900871
53	0x3c900801	0.017581942
54	0xbdcd1367	-0.10013466
55	0x3d1d62c5	0.038424272
56	0xb9a86b7b	-0.00032123536
57	0x3cbdb58e	0.023157861
58	0xbac49153	-0.0014996923
59	0xbdb5fcc6	-0.08886103
60	0xbd348b8e	-0.044078402
61	0xbd0ed6c4	-0.034872785
62	0x3ba4e168	0.0050317533
63	0xbd00144c	-0.031269357
64	0xbc8dae6c	-0.017295085
65	0x3d301945	0.04299285
66	0x3cb94b1d	0.022618825
67	0xbce7c765	-0.02829332
68	0xbd5affce	-0.05346661
69	0x3bb0a676	0.0053909374
70	0xbccebb49	-0.025235789
71	0xbc29a8fc	-0.01035523
72	0x3c417a75	0.011808981
73	0xbd2d51fa	-0.042314507
74	0x3b272d23	0.0025509081
75	0xbdb92ff6	-0.09042351
76	0x3b6ce600	0.0036147833
77	0xbc1c5f24	-0.009544168
78	0xbd8ce28e	-0.068791494
79	0x3b318f10	0.0027093329
80	0xbd367d4a	-0.04455308
81	0x3c6c94d4	0.01443978
82	0xbcf59d18	-0.029982135
83	0xbe083cc2	-0.13304427
84	0x3cc7aa46	0.024373185
85	0x3d4b93a0	0.049701333
86	0x3d2c30a3	0.04203857
87	0xbd536a83	-0.05161525
88	0xbd5afbd0	-0.053462803
89	0xbd407c29	-0.04699341
90	0xbc8e907e	-0.017402884
91	0x3cb4f1b6	0.022087913
92	0x3d4abd95	0.049497206
93	0x3d12d8ab	0.035851162
94	0x3bfeb55f	0.007773086
95	0xbd1bb762	-0.038016684
96	0x3ccd8e6f	0.025092332
97	0x3ce0bf46	0.027434956
98	0x3d82ba06	0.063831374
99	0xbe9f4361	-0.31106094
100	0xbd049e0d	-0.03237729
101	0xbda3b2f8	-0.0799312
102	0x3d164c71	0.036693994
103	0xbd3c5a35	-0.045984466
104	0xbada561c	-0.0016657743
105	0x3c6d0764	0.014467094
106	0x3cb45ccd	0.022016907
107	0xbe04f0e9	-0.12982525
108	0xbcca8db8	-0.02472578
109	0xbdbaf254	-0.09128252
110	0x3d23245b	0.039829593
111	0x3d413157	0.047166195
112	0x3d200a48	0.039072305
113	0xbcb99288	-0.02265288
114	0xbd3b78fb	-0.045769673
115	0xbe039eae	-0.128535
116	0x3c66aae4	0.014078829
117	0xbbb3e450	-0.0054898635
118	0x3b98013f	0.0046388204
119	0x3cd92882	0.026508573
120	0xbd546798	-0.051856607
121	0x3a164500	0.00057323277
122	0xbd72142e	-0.059101276
123	0xbd131a42	-0.035913713
124	0x3b838340	0.004013449
125	0xbcb77988	-0.022396818
126	0x3dc3e3fa	0.095649675
127	0x3cec5486	0.028848898
128	0x3b97ba87	0.00463039
129	0x3d3402ff	0.04394817
130	0xbcc65c0b	-0.024213811
131	0x3d459e7e	0.048246853
132	0x3c1aae4c	0.00944097
133	0x3d374d73	0.044751596
134	0x3d536327	0.05160823
135	0xbd08a53e	-0.033360712
136	0x3d5d303b	0.054001074
137	0x3d51932d	0.05116575
138	0xbd4b1136	-0.04957696
139	0x3d8a6efe	0.06759451
140	0xbd5e2995	-0.054238874
141	0x3b681d2e	0.0035417783
142	0x3c982bb0	0.01857552
143	0x3cbb50b2	0.022865627
144	0x3c1291c1	0.008945883
145	0x3d160689	0.036627326
146	0xbd83f7de	-0.06443761
147	0x3d7f97cc	0.062400624
148	0xbbe32498	-0.0069318525
149	0x3ba0c280	0.0049059987
150	0x3ca92679	0.020648228
151	0xbcfb8d5b	-0.030707052
152	0xbc5b46ef	-0.013383611
153	0x3d53ab65	0.051677126
154	0xbcf624e0	-0.03004688
155	0x3d87d74e	0.06632863
156	0xbc1e0344	-0.009644333
157	0x3c990f88	0.018684164
158	0x3bd7ea68	0.0065892227
159	0x3dde2d9b	0.10848542
160	0x3d34fdb7	0.044187274
161	0x3d494a9f	0.04914343
162	0x3d252a44	0.04032351
163	0x3e0b2a39	0.13590325
164	0xbd236ab6	-0.03989669
165	0x3abf0a67	0.0014575244
166	0xbcdc6057	-0.026901407
167	0x3cbe4b06	0.023229133
168	0x3d03a388	0.032138377
169	0xbd1d919a	-0.038468935
170	0xbd054aa0	-0.03254187
171	0x3e151ff6	0.14562973
172	0xba527ac0	-0.00080291554
173	0xbda98560	-0.082773924
174	0xbbbcac63	-0.005757855
175	0x3d6ab963	0.057305705
176	0x3d11fb6d	0.03564017
177	0xbb627f10	-0.0034560598
178	0xbca2dd05	-0.019880781
179	0x3a8a3273	0.00105436
180	0x3d13158d	0.035909224
181	0xbc6f7390	-0.014614955
182	0x3d9ca818	0.07649249
183	0x3a75e280	0.00093797594
184	0x3d586427	0.052829888
185	0x3c2da3fc	0.010598179
186	0xbcaeca7b	-0.021336785
187	0x3cef0abb	0.029179921
188	0x3bd14060	0.006385848
189	0x3d1b19ed	0.03786652
190	0x3c70891e	0.014681129
191	0xbd8f9851	-0.07011474
192	0x3da07aed	0.07835946
193	0xbca09e14	-0.019606628
194	0x3d25b463	0.040455233
195	0x3cf47b79	0.029844033
196	0x3cebddf6	0.028792363
197	0xbdba4f09	-0.09097106
198	0x3d4fde5c	0.050749168
199	0x3b58bdb0	0.0033072047
200	0x3d41f59a	0.047353365
201	0xbd2e19c7	-0.042505052
202	0x39ab35f0	0.00032655848
203	0xbcd406b2	-0.025882099
204	0xbc533270	-0.012890443
205	0xbabcbf73	-0.0014400318
206	0x3bfe8e0a	0.007768397
207	0xbd493a8c	-0.0491281
208	0xbce8a0b1	-0.028396936
209	0x3d34c7cd	0.044135857
210	0x3d7c5a85	0.061609764
211	0xbe25c1bd	-0.16187187
212	0xbd11e36a	-0.03561727
213	0xbcffa299	-0.031205462
214	0x3d76aeb4	0.060225204
215	0xbc9f0030	-0.01940927
216	0x3cbe9dc1	0.023268582
217	0xbcbefb56	-0.023313206
218	0xbd32bf9c	-0.043639764
219	0x3c397e18	0.011321567
220	0xbd527bef	-0.051387724
221	0xbcf8f4d9	-0.03039019
222	0xbcb01d77	-0.021498425
223	0xbd9ed505	-0.07755474
224	0xbc716dca	-0.014735648
225	0xbd547633	-0.051870536
226	0xbc9d1c04	-0.019178398
227	0x3a1aa225	0.0005898795
228	0x3d25ca73	0.040476274
229	0x3b65f2e1	0.0035087394
230	0x3d3839b5	0.04497691
231	0xbb900eb0	-0.004396282
232	0x3c936160	0.017990768
233	0x3d3cd8d9	0.04610524
234	0x3c02b66c	0.007978063
235	0xbc4a086d	-0.01233111
236	0x3cac4796	0.021030229
237	0xbd88b0fc	-0.06674382
238	0xbc793488	-0.015210278
239	0xbdcbec70	-0.09957206
240	0x3d3a5004	0.045486465
241	0xbc523ba4	-0.012831602
242	0xbbe83f3d	-0.0070876167
243	0xbd9cbebf	-0.076535694
244	0x3d5c3e0f	0.05377012
245	0xbcb819fe	-0.022473332
246	0xbcedc16a	-0.029022891
247	0x3d5238d5	0.05132373
248	0xbd0f6642	-0.03500963
249	0x3d085f9f	0.033294316
250	0x3bf4f0aa	0.0074749785
251	0xbcaec1a0	-0.021332562
252	0x3c214a5c	0.009844389
253	0xbd376f4e	-0.044783883
254	0x3bfa9b52	0.00764791
255	0x3cfdafde	0.03096765

ln.bias f4 [4]
0	0xbda125d2	-0.07868542
1	0x3c63426d	0.013870818
2	0x3da170f7	0.078828745
3	0x3bc3157c	0.005953489
