src/players/saves/Graph12000-3.pth (torch_old, 6692 bytes, 6 tensors)

gc1.weight f4 [4, 8]
0.13290553 -0.09878238 -0.044065494 -0.11790228 0.15450574 -0.25336215 0.5498652 -0.043732792
0.073730126 -0.26987344 -0.33439773 0.279923 -0.5876807 0.2965087 0.2156556 -0.3227482
0.077354856 -0.4115757 0.12721401 0.18711437 -0.63227785 0.13566998 0.29558274 -0.18061028
-0.14634481 -0.03837792 0.016730387 -0.20760724 -0.28502467 -0.27211872 0.122234136 -0.23698865
00000000: 6318 083e 6b4e cabd 057e 34bd c076 f1bd
00000010: c136 1e3e afb8 81be f7c3 0c3f 2821 33bd
00000020: d2ff 963d da2c 8abe 2e36 abbe 1152 8f3e
00000030: 3e72 16bf fdcf 973e d2d4 5c3e 413f a5be
00000040: 396c 9e3d 0dba d2be 6444 023e e99a 3f3e
00000050: f6dc 21bf 12ed 0a3e 9f56 973e e7f1 38be
00000060: 6adb 15be 2a32 1dbd 2a0e 893c fe96 54be
00000070: c1ee 91be 2553 8bbe e455 fa3d 27ad 72be

gc1.bias f4 [8]
-0.17571047 -0.052204087 -0.016040908 0.39443573 0.16853075 -0.10090184 0.54299355 0.0066308677
00000000: 72ed 33be f4d3 55bd 3968 83bc 7bf3 c93e
00000010: 5393 2c3e a0a5 cebd a001 0b3f c047 d93b

gc2.weight f4 [8, 8]
0.19210812 -0.1323216 0.11223495 0.033940922 -0.3854274 -0.102147005 0.017364614 -0.08300049
-0.25583017 0.16130322 -0.21535532 -0.1522372 0.11510743 -0.018548679 -0.20829004 0.26029366
0.21440086 0.31119668 0.009060338 -0.06906004 0.06456641 -0.09679503 -0.01475961 -0.0030667626
-0.006511092 -0.056165922 -0.7035743 -0.35247767 0.11554526 -0.3488778 -0.47943828 -0.08962471
-0.35133654 -0.33312958 -0.5026274 0.06346559 0.10879549 0.07228351 0.058330774 -0.23701583
-0.21146937 0.23077628 -0.08591059 -0.014093578 -0.30299878 0.088620484 -0.20344377 -0.03485784
-0.057912707 0.06654578 -0.40574008 -0.06148341 -0.08679579 -0.018331043 -0.4547546 -0.10336095
-0.24861182 -0.14851703 0.1133405 0.14061233 -0.17101632 0.24277201 -0.21784496 -0.30940694
00000000: feb7 443e 507f 07be 70db e53d a305 0b3d
00000010: bd56 c5be 7332 d1bd 3c40 8e3c 29fc a9bd
00000020: 2cfc 82be ac2c 253e 1b86 5cbe 12e4 1bbe
00000030: 72bd eb3d 66f3 97bc fc49 55be 3645 853e
00000040: e68b 5b3e 2c55 9f3e d071 143c 5a6f 8dbd
00000050: 653b 843d 793c c6bd 4bd2 71bc bdfb 48bb
00000060: 005b d5bb 3d0e 66bd 721d 34bf f477 b4be
00000070: fea2 ec3d 1ca0 b2be ef78 f5be 298d b7bd
00000080: 62e2 b3be f68f aabe 30ac 00bf 3ffa 813d
00000090: 2bd0 de3d 6009 943d 40ec 6e3d 47b4 72be
000000a0: 6d8b 58be 9e50 6c3e e4f1 afbd c0e8 66bc
000000b0: a822 9bbe a87e b53d 9053 50be 18c7 0ebd
000000c0: e035 6dbd 2749 883d 2abd cfbe 07d6 7bbd
000000d0: fec1 b1bd fc2a 96bc 98d5 e8be e8ae d3bd
000000e0: 1994 7ebe d914 18be 101f e83d aefc 0f3e
000000f0: e71e 2fbe 3a99 783e c012 5fbe 966a 9ebe

gc2.bias f4 [8]
-0.110048756 -0.25965908 0.007388786 -0.2806225 -0.2602863 -0.06118368 0.0342701 -0.07779031
00000000: 3e61 e1bd 09f2 84be a11d f23b c1ad 8fbe
00000010: 3f44 85be bd9b 7abd ce5e 0c3d 8750 9fbd

ln.weight f4 [4, 326]
-0.04433429 -0.0026683956 -0.019604176 -0.028841909 0.053951986 0.018079551 0.13541055 0.04836394
0.022289481 0.04366081 0.061560985 -0.033770435 -0.021557918 0.07084225 0.015880736 0.038970012
0.014044572 0.033457924 -0.014096078 0.035238232 -0.061395627 -0.0481681 0.044366468 0.019519266
0.053371113 -0.045130704 0.06486954 -0.0022616163 -0.041266955 0.032970417 -0.0769706 -0.050427914
0.0073102824 -0.020011526 0.050381824 -0.021291085 -0.057271335 0.020065065 0.16912343 0.019191116
-0.0021701679 0.028971363 -0.03052365 -0.04523736 0.010642375 -0.0054211733 0.07669026 0.05968339
0.0018285066 0.05487169 -0.10291945 0.006960936 0.043030392 -0.016527694 0.054466747 0.010444179
-0.025943182 -0.025940804 -0.08634842 0.0038335286 0.007871882 -0.06958828 0.026201835 0.032807417
0.019857462 -0.00432488 0.06710404 0.014504891 0.022134058 0.038503032 -0.03771137 0.00020587826
0.041709986 0.043761265 0.105815224 -0.052822035 0.0059657684 0.010320838 0.039737497 0.0061962744
-0.0123723 0.0089629665 0.11680624 0.037597995 -0.055634752 -0.045751356 0.07509003 0.02362537
0.039427157 0.05134923 0.031961396 -0.0015193745 -0.031971864 -0.056428645 0.08967989 -0.009303338
0.013076227 0.058554385 0.030542437 0.014281761 -0.031749394 -0.049531203 0.07695388 0.036167584
-0.030896831 0.0014204807 -0.010829016 0.00093090534 0.016752355 -0.029077359 0.10954283 0.033487592
0.023635533 -0.0017685031 0.053318083 -0.034656193 0.02947751 0.034396037 -0.11294879 -0.031320363
0.0063150823 0.066839896 0.072000675 -0.034993514 0.04204378 0.02802227 -0.09732509 -0.06663849
0.047534164 0.04993538 0.05955876 -0.009050194 -0.029741941 0.028102806 -0.051035542 0.028723188
0.02425262 -0.029861476 0.033206962 -0.015275553 -0.023673138 0.019858966 -0.045311183 -0.0132888425
0.007760849 0.0009940043 0.03910552 -0.05013279 0.016143508 0.036717623 -0.11994793 0.069559865
0.011345711 0.07020758 0.007253473 0.04179747 -0.043903407 -0.04419939 -0.18965077 -0.075600736
-0.04737288 0.0332934 0.030102586 0.044361357 -0.0919667 -0.022238197 0.10501269 0.038704943
0.020425227 0.021819787 0.068954475 -0.017356552 -0.0010625831 -0.024063762 -0.27610832 0.029035982
-0.019714955 -0.007788493 -0.0014394774 -0.049629323 -0.05171798 0.07269102 -0.23630263 0.12560654
0.032549094 -0.0051281108 0.02533975 -0.04989034 0.00021746117 -0.017035026 0.15279736 -0.0097043635
-0.04605748 0.049764346 0.072594844 0.02451035 -0.008679437 0.026406545 0.12216292 -0.0054777483
-0.029995307 -0.0031135674 0.05972621 0.048001643 -0.05783814 -0.027282063 0.05707057 -0.08037823
-0.0013440214 -0.02381335 -0.048955053 0.043596063 0.030064747 0.039210998 0.14041767 -0.0052935635
0.023217615 -0.017596403 -0.017626008 -0.037391417 -0.050709654 0.0039811158 0.08062974 -0.028381303
-0.015010688 -0.032583833 -0.097410485 0.018788438 0.018665422 -0.009781992 0.24250743 -0.03275263
0.026319537 -0.0590944 0.02936764 0.053961683 0.00626393 -0.0010503853 0.111092076 -0.0005805485
0.034147155 -0.01477832 -0.04878435 0.040094797 0.011089615 0.0071372543 0.20599425 0.024133537
-0.046558913 -0.040689524 0.00489108 0.038824808 0.07552725 0.0705112 0.055307638 0.0399042
00000000: df97 35bd 40e0 2ebb f098 a0bc de45 ecbc
00000010: c2fc 5c3d 911b 943c 10a9 0a3e 4419 463d
00000020: 6e98 b63c add5 323d 5f27 7c3d de52 0abd
00000030: 3b9a b0bc be15 913d 5118 823c 059f 1f3d
00000040: 341b 663c 2d0b 093d 3df3 66bc f755 103d
00000050: fb79 7bbd ea4b 45bd 9db9 353d dee6 9f3c
00000060: ab9b 5a3d f9da 38bd 52da 843d a037 14bb
00000070: 8a07 29bd fd0b 073d c3a2 9dbd 808d 4ebd
00000080: 188b ef3b 36ef a3bc 2c5d 4e3d a46a aebc
00000090: 5995 6abd 7e5f a43c b12e 2d3e b036 9d3c
000000a0: 6039 0ebb 5a55 ed3c bc0c fabc cf4a 39bd
000000b0: 5b5d 2e3c 19a4 b1bb c80f 9d3d 9276 743d
000000c0: 80aa ef3a 23c1 603d 6fc7 d2bd 9018 e43b
000000d0: a340 303d 1665 87bc 8618 5f3d 101e 2b3c
000000e0: cc86 d4bc cf81 d4bc 71d7 b0bd f03b 7b3b
000000f0: 11f9 003c 4d84 8ebd 3ba5 d63c 1261 063d
00000100: 1eac a23c b9b7 8dbb d86d 893d eca5 6d3c
00000110: 7c52 b53c 5bb5 1d3d 3d77 1abd 06e1 5739
00000120: 17d8 2a3d 033f 333d a7b5 d83d eb5b 58bd
00000130: 7e7c c33b bb18 293c c9c3 223d 1e0a cb3b
00000140: 30b5 4abc 68d9 123c 1c38 ef3d 5b00 1a3d
00000150: 44e1 63bd c665 3bbd cdc8 993d fe89 c13c
00000160: 5f7e 213d 9253 523d f4e9 023d c025 c7ba
00000170: eef4 02bd b921 67bd 17aa b73d 076d 18bc
00000180: ac3d 563c b9d6 6f3d 2234 fa3c 0cfe 693c
00000190: a70b 02bd 3be1 4abd ff99 9d3d 7624 143d
000001a0: 5a1b fdbc 6c2f ba3a 2f6c 31bc 0008 743a
000001b0: 3c3c 893c a433 eebc fe57 e03d 492a 093d
000001c0: 4e9f c13c 1ecd e7ba 1064 5a3d a7f3 0dbd
000001d0: d27a f13c dce2 0c3d b251 e7bd c849 00bd
000001e0: c0ee ce3b 5be3 883d 1775 933d 5c55 0fbd
000001f0: 1936 2c3d f68e e53c 6052 c7bd c379 88bd
00000200: 2fb3 423d 0b89 4c3d e3f3 733d 4447 14bc
00000210: 5fa5 f3bc db37 e63c a50a 51bd e44c eb3c
00000220: 6ead c63c 0ea0 f4bc 0604 083d 5046 7abc
00000230: 2bee c1bc 45af a23c 3898 39bd 72b9 59bc
00000240: b84e fe3b 4049 823a 1c2d 203d 0a58 4dbd
00000250: 643f 843c 3865 163d 43a7 f5bd 6775 8e3d
00000260: 5ce3 393c fec8 8f3d 8bae ed3b d333 2b3d
00000270: 0fd4 33bd 6b0a 35bd d033 42be 8fd4 9abd
00000280: 110a 42bd a95e 083d b399 f63c 41b4 353d
00000290: 0a59 bcbd e12c b6bc e510 d73d 1389 1e3d
000002a0: ce52 a73c 69bf b23c 0138 8d3d 542f 8ebc
000002b0: 5f46 8bba 5e21 c5bc 125e 8dbe dedc ed3c
000002c0: 4281 a1bc 9d36 ffbb d9ac bcba 1e48 4bbd
000002d0: 3cd6 53bd 08df 943d 51f9 71be 009f 003e
000002e0: 3352 053d b609 a8bb 4f95 cf3c d059 4cbd
000002f0: 4a06 6439 0a8d 8bbc e976 1c3e 0dff 1ebc
00000300: c5a6 3cbd b3d5 4b3d 9bac 943d eec9 c83c
00000310: 3334 0ebc 8a52 d83c 8e30 fa3d af7e b3bb
00000320: b8b8 f5bc fe0c 4cbb 78a3 743d 5f9d 443d
00000330: afe7 6cbd a27e dfbc d4c2 693d 579d a4bd
00000340: e029 b0ba 3714 c3bc 1885 48bd c991 323d
00000350: 584a f63c b69b 203d a6c9 0f3e a175 adbb
00000360: de32 be3c 5526 90bc 6b64 90bc be27 19bd
00000370: edb4 4fbd 0574 823b 3521 a53d e87f e8bc
00000380: 64ef 75bc a076 05bd 267f c7bd 36ea 993c
00000390: 3ae8 983c a644 20bc de53 783e 9f27 06bd
000003a0: 129c d73c f80c 72bd 6894 f03c ed06 5d3d
000003b0: a741 cd3b 15ad 89ba 3e84 e33d f32f 18ba
000003c0: e3dd 0b3d c420 72bc 19d2 47bd 713a 243d
000003d0: 37b1 353c a1df e93b 28f0 523e b2b3 c53c
000003e0: 8fb4 3ebd 0faa 26bd 5a45 a03b c306 1f3d
000003f0: 08ae 9a3d 2d68 903d 438a 623d 9672 233d

ln.bias f4 [4]
0.0013883563 -0.010845797 0.010097235 -0.025832416
00000000: 82f9 b53a 92b2 31bc e06e 253c 819e d3bc
