src/players/saves/Graph5-2.pth (torch_old, 6692 bytes, 6 tensors)

gc1.weight f4 [4, 8]
000000 6d 6c b1 3e cf eb 5d 3e 99 3e fc 3d 00 fe 9c 3e
       0.34653035 0.21671985 0.12316627 0.30662537
000010 f4 22 99 be ac c8 81 be 46 08 29 be 74 da af 3d
       -0.2990948 -0.25348413 -0.16507062 0.085865885
000020 1a 9a 0c bd f1 42 1c be ca 94 9e be 1b 2a 30 be
       -0.03432665 -0.15259911 -0.30972892 -0.17203562
000030 b5 e6 a6 be eb bf af 3e 21 cf 85 be af 88 a8 be
       -0.3259789 0.3432611 -0.2613459 -0.3291678
000040 55 21 7f be 79 f6 58 3e b0 cb 8e be c7 83 30 3e
       -0.24915059 0.21187772 -0.27889776 0.17237769
000050 e2 24 0c be cf 8d 99 3e aa 35 3f 3e 23 f3 58 be
       -0.13685945 0.29991004 0.18672815 -0.211865
000060 d1 1d a3 be df e4 42 3e 02 3f 63 3e 0f fd db 3d
       -0.31858686 0.1903262 0.22192004 0.107416265
000070 71 a4 7f 3c 08 18 cb 3d 42 ee da bd d0 73 6b bd
       0.015603171 0.09916693 -0.10689975 -0.057483494

gc1.bias f4 [8]
000000 d1 e3 f2 3d 17 fa ce bd 14 3c 3b 3e c9 40 3f 3e
       0.11859859 -0.101062946 0.18284637 0.18677057
000010 1a 70 4a 3e b6 68 91 be c7 58 08 be f6 46 82 be
       0.19769326 -0.284002 -0.13315116 -0.25444764

gc2.weight f4 [8, 8]
000000 5a 18 28 be 10 94 9f 3e 20 38 88 be cf d7 28 3e
       -0.1641554 0.3116765 -0.2660532 0.16488574
000010 18 b9 97 bd 82 67 29 be d3 67 90 be d3 60 2e 3e
       -0.07408351 -0.16543391 -0.28204212 0.17029123
000020 c0 1e 34 bd 81 6f 5f 3e 2b 9e 9b 3d 00 00 84 3e
       -0.043974638 0.21819879 0.075985275 0.2578125
000030 9e ce 21 3e c5 92 f0 bd a0 83 01 3e 6a 75 b9 bd
       0.15801474 -0.11746744 0.12647867 -0.09055598
000040 cf 4a 2e be 64 57 79 be 57 70 33 3e 0a 74 5f be
       -0.17020725 -0.24349743 0.17523323 -0.21821609
000050 88 08 16 bd 88 a7 45 be 58 4c 4e 3e 68 b9 a2 be
       -0.03662923 -0.1930219 0.2014631 -0.3178208
000060 1f 0e 52 be 7f 03 74 3c fd 16 ab 3e ae 20 7d 3e
       -0.205132 0.014893412 0.33415976 0.24719498
000070 00 c0 d4 ba aa 59 f3 3d 15 57 4a 3e 04 55 c7 3d
       -0.0016231537 0.118823364 0.19759782 0.09733012
000080 05 bf ab 3e a9 b5 93 be 9a 0d 87 3e 32 f3 07 be
       0.33544174 -0.28849533 0.26377565 -0.13276365
000090 d8 6b 80 3d c7 c4 52 3d cf 60 4b 3e df 46 97 bd
       0.062705696 0.051457193 0.19861148 -0.073865645
0000a0 5c e1 82 be e0 8e f1 bd c2 bd 1b 3e 2c a2 0d be
       -0.2556256 -0.11794829 0.15209106 -0.13831395
0000b0 94 41 10 be 80 ed 43 bc 72 b9 8e be 9e bb 62 3e
       -0.14087516 -0.01195848 -0.2787586 0.22141883
0000c0 b4 bd e3 3d 27 3b aa 3e 0b 60 86 3e 3e 5f 84 be
       0.111201674 0.33248255 0.2624515 -0.25853914
0000d0 93 52 55 be ee 67 7a 3e 14 3f 87 3d fe 8a d7 bd
       -0.20832281 0.24453709 0.06603828 -0.105245575
0000e0 40 85 c5 3d 36 27 d8 bd 0d 6d 2c be c0 a2 6c 3c
       0.09644556 -0.10554354 -0.16838475 0.0144430995
0000f0 6e 2c 4a 3e 90 d8 e4 bc 54 44 1b be 38 46 8d be
       0.19743511 -0.027935296 -0.15162784 -0.27592635

gc2.bias f4 [8]
000000 14 fc 65 3e 17 0f 98 3e 89 1f ee 3d ff 10 6a 3c
       0.22459441 0.29699013 0.116271086 0.014286279
000010 c0 b1 f6 bc bb 02 56 3e 86 16 7c 3d 70 a0 62 3d
       -0.030114055 0.20899479 0.061544918 0.055328786

ln.weight f4 [4, 326]
000000 96 61 56 3d 85 2c 32 bd 9e a2 29 bb 98 34 1e bd
       0.05233916 -0.04349949 -0.002588428 -0.038624376
000010 b6 e0 af bc 28 2e 39 3d 16 a1 57 bd 87 65 22 3d
       -0.021469455 0.045210034 -0.052643858 0.039647605
000020 26 a0 09 3c 96 d3 04 3d 84 7d fa bc 0a 58 4e 3d
       0.008399999 0.032428347 -0.030577429 0.05037693
000030 5a 1a 15 bd 6d d7 c4 bc 5f 18 53 3d e5 dd 3e bb
       -0.036402084 -0.024028504 0.051536914 -0.0029123959
000040 d7 31 fc bc f3 08 d4 bc 4d 07 2b bc 48 1f 86 ba
       -0.030785484 -0.025883174 -0.010438752 -0.0010232711
000050 10 06 97 bc 2c fc bd bc 6e 84 65 3c 7f bd 5a 3d
       -0.018435508 -0.023191534 0.0140086245 0.053403374
000060 11 8d 7a bc 47 2a 66 3b fb 2d 25 bd 05 ea 57 3d
       -0.015292422 0.0035120414 -0.040327054 0.052713413
000070 72 c2 c2 3c ae d4 10 3d ac fc be 3c eb 77 be bc
       0.02377436 0.035359077 0.023313843 -0.02325054
000080 f7 fa 49 3d d2 27 bb 3a 50 d7 2d bd 93 06 13 bd
       0.049311604 0.0014278835 -0.042441666 -0.03589494
000090 60 00 a1 bc 85 91 21 bc 09 9f ef 3c e4 67 9e 3c
       -0.0196535 -0.009861355 0.029250639 0.019336648
0000a0 0b 8a 66 3d 76 ea 4c bc 21 d0 6d bc a5 a5 e1 3c
       0.05628399 -0.012507072 -0.014514954 0.027544806
0000b0 b0 65 01 3b c2 53 09 bd 9d 71 c6 bc ad ff 8b bb
       0.0019744448 -0.033527143 -0.024224097 -0.0042724223
0000c0 68 5f 84 3b fe 33 26 3d c1 7c 16 bd 7f d4 26 bd
       0.0040396936 0.040576927 -0.03674007 -0.040729996
0000d0 d3 fb e3 bc 50 a5 4c bc b7 b7 0d bd 7d bf 2e 3d
       -0.02783004 -0.012490585 -0.034599032 0.042663086
0000e0 b4 d1 09 3b f7 67 18 3d 9e 06 3d bd ac 21 e1 bb
       0.0021029534 0.037208524 -0.04614889 -0.006870469
0000f0 b0 4b cf bb 80 61 58 3d 0d 04 68 3d 00 f8 11 3d
       -0.0063261613 0.05282736 0.056644488 0.0356369
000100 91 e7 0c 3d 4b fc f3 bc 61 fe eb 3c 29 95 a9 3b
       0.034400526 -0.029783389 0.02880782 0.005175252
000110 fc 08 2f 3c fe 2e f0 3b 37 16 b4 3c bc 2a 1d 3d
       0.010683294 0.0073298207 0.02198325 0.038370833
000120 45 92 96 bc db cd 3c bb aa 23 f2 3c 76 91 92 bc
       -0.018380294 -0.0028809223 0.029558022 -0.017891627
000130 fe c9 96 3c 50 a1 f9 bc 4c 68 ba bc ed 2a 5b 3d
       0.018406864 -0.030472428 -0.02275481 0.053507734
000140 ca 2e d4 bc c8 a4 9c bc 8b bb 29 3d 44 cc 1a 3d
       -0.025901217 -0.019121543 0.04143862 0.03779246
000150 73 09 1e 3d b8 c0 81 3b 82 f2 bf 3c cb 21 6e 3b
       0.03858323 0.0039597414 0.023431066 0.003633606
000160 02 35 af bc f5 ba 11 bd b3 45 0f bd b7 fc 64 3c
       -0.02138758 -0.035578687 -0.03497858 0.013976268
000170 7c 5b 40 bd 9e 31 04 bb a8 e1 17 3c f9 8f ed 3c
       -0.046962246 -0.0020171176 0.009270109 0.028999316
000180 94 eb a2 39 e0 9b 16 3c 09 96 28 bd 97 ed 00 3d
       0.00031074567 0.009192437 -0.04115871 0.031476583
000190 db 1e 4a 3d bd 6e 48 3d 28 62 4a bb 26 50 46 bd
       0.049345832 0.048933733 -0.003088126 -0.04841628
0001a0 d3 f4 36 bd b3 02 41 3c c6 e8 01 bd a5 8e 41 bd
       -0.044667076 0.011780429 -0.03171613 -0.047255177
0001b0 da 76 e1 3c 70 19 80 3d 39 a9 03 3d ed 15 c6 bc
       0.027522493 0.06254852 0.032143805 -0.024180377
0001c0 10 11 1b 3d e7 09 e7 bc 27 c7 5c 3d 15 02 75 bb
       0.03785807 -0.028202964 0.053900864 -0.0037385274
0001d0 0c 0e 37 3c 1a d1 84 3c c6 cc 9c bb f2 4d 84 3d
       0.011172783 0.016212989 -0.004785153 0.064601794
0001e0 f8 81 11 bd c2 a2 30 bb 56 a4 ed bb db d0 12 bd
       -0.03552434 -0.002695248 -0.0072522564 -0.03584371
0001f0 2a 7d 1c bd d6 f8 84 bc 02 b6 6e 3d fe 85 3d bd
       -0.038205303 -0.016231935 0.058279045 -0.046270363
000200 2b 19 7c 3d 9d c2 07 bd a7 1f c5 bc 3c 6c a7 bc
       0.06154744 -0.033144582 -0.024062945 -0.020437352
000210 80 0b 47 bd a7 72 53 3d 5e 03 f4 3c 1c 4c bb bc
       -0.04859495 0.051623013 0.029786762 -0.02286344
000220 5e 56 1c bd 62 64 11 bd 1f 92 63 bc 7e 2d ab 3c
       -0.038168304 -0.035496123 -0.013889818 0.020895716
000230 00 a2 e1 ba c6 b7 db bc 37 fe 6f 3c d8 48 2f 3d
       -0.0017214417 -0.026821028 0.014648012 0.04279408
000240 3a 08 40 3c 8f 85 0a 3d 0d f0 5c 3d 61 31 33 3d
       0.011720711 0.033818778 0.053939868 0.043748263
000250 00 c6 92 ba 44 9a 36 3c 67 10 6f bc b8 7f 4c bc
       -0.0011197925 0.011145178 -0.014591313 -0.012481622
000260 fd d8 3b 3d 1a 4e 10 bc a5 24 9f 3c 69 6b 43 3d
       0.045861233 -0.008807683 0.019426653 0.047709856
000270 a0 99 7b bb 40 ed db bc e3 59 8c bc 67 fb 3f bd
       -0.0038391128 -0.026846528 -0.017132705 -0.046870615
000280 ee d1 16 3d e5 a8 91 bc 2a 44 c0 3c 7c dd de 3c
       0.0368213 -0.01778073 0.023470003 0.027205221
000290 82 56 2f bd 80 a6 13 3c ac bb c4 3c ff 1d 94 3c
       -0.04280711 0.009011865 0.02401527 0.01808071
0002a0 16 c6 ce bb 3c a0 3a bd 29 dc c0 bc e3 c3 59 3d
       -0.006310235 -0.045562968 -0.02354248 0.053165328
0002b0 99 bc 1f 3d 53 37 e4 3c 3a 88 e8 bc 0d 68 17 3c
       0.03899822 0.027858412 -0.02838527 0.009241116
0002c0 e3 4b 27 bd 87 c4 97 bc 41 bf cf 3c 18 d5 0c 3a
       -0.040843856 -0.018526329 0.025359752 0.00053723296
0002d0 31 d3 e6 bc b4 86 25 bd e0 bb 0b 3c 41 39 37 bd
       -0.028176876 -0.040411666 0.00852868 -0.044732336
0002e0 23 4d 96 bc d1 b2 f1 bc 76 03 3e bd ab 41 1a 3d
       -0.018347329 -0.029504212 -0.04639002 0.037660282
0002f0 7f 7f 4f 3d 69 1d 52 bc cc 8d e3 bc 71 79 3e 3d
       0.0506587 -0.012824395 -0.027777575 0.046502534
000300 fa 24 c1 3c 84 0e 2d 3d 38 f8 29 bd 39 1b bb 3c
       0.023577202 0.04225017 -0.041496485 0.02284013
000310 42 00 8e 3c cd 36 a1 bc 16 1e 37 bd ea c2 0c 3d
       0.017334107 -0.019679451 -0.044706427 0.034365572
000320 e8 f5 b3 3c 40 2f 1c bd 9a 13 38 3a 9d d8 71 bc
       0.021967843 -0.038131 0.0007021964 -0.014761117
000330 04 b0 93 bc 2e ad 42 bd 94 ca 2f 3d a0 85 f2 bb
       -0.018028267 -0.04752844 0.042917803 -0.0074011832
000340 69 d8 4e 3d ae e8 88 bc 97 e3 6d 3d 2a 02 e8 bc
       0.050499354 -0.016712513 0.058078375 -0.028321344
000350 16 6b bb 3c 5a 95 01 3c 49 ac 65 3d 23 70 1a bd
       0.022878211 0.007909143 0.056072507 -0.0377046
000360 69 b4 0a bc 5c b0 0e bd 6a 91 43 bd e2 d2 af 3c
       -0.008465865 -0.03483616 -0.0477461 0.021462861
000370 77 82 55 bd 8f 42 60 3d 83 55 9c 3c 42 cd af bc
       -0.052126374 0.054750975 0.019083744 -0.02146018
000380 ce 81 02 3d c9 69 4a 3d 36 39 8e bc 25 82 25 bd
       0.031862073 0.04941729 -0.017361265 -0.04040732
000390 e0 bf 2c bd 6a c5 cf bc 5f b3 5e 3d 65 27 41 3d
       -0.042175174 -0.025362689 0.05437028 0.04715671
0003a0 01 5f 3b 3c 39 6e 70 bc c4 9b 78 3d b5 4a c6 3b
       0.011436225 -0.014674717 0.060695425 0.0060513862
0003b0 20 bb 84 3b f6 18 a3 bb 55 81 b4 bc c5 56 85 3c
       0.0040506274 -0.004977341 -0.022034327 0.016276726
0003c0 73 c1 24 3d ca e0 06 3d 95 1d 82 3b 5a 47 3a bd
       0.04022355 0.03292922 0.0039708116 -0.045478202
0003d0 f8 bb bd 3b 6c c5 17 bc b4 09 97 bb f1 05 63 3c
       0.00579023 -0.009263378 -0.004609311 0.013856397
0003e0 1c ef 8b bc cb 73 81 bc 5b fc fa 3b 4d 16 f5 3c
       -0.01708179 -0.015802285 0.0076594776 0.02991786
0003f0 b0 6b e5 bc 4d 7c 43 3d c1 1f 2c bd 52 4d 22 3d
       -0.028005451 0.047725964 -0.04202247 0.03962452

ln.bias f4 [4]
000000 0a c3 5c 3d 99 39 8f bc 18 1f a8 3c 78 c0 0d 3d
       0.05389694 -0.01748352 0.02052264 0.03460738
