src/players/saves/Reinforce200.pth (torch_old, 105730 bytes, 6 tensors)

neuralnet.0.weight f4 [125, 182]
000000 52 20 5c 3d 10 08 9d 3d 66 60 94 3d b4 e0 b3 3d
       0.05374176 0.076675534 0.07244949 0.08783093
000010 37 07 36 bc d1 fd a0 3d 90 70 5d 38 d9 40 11 bd
       -0.011110119 0.07860912 5.2795338e-05 -0.035462234
000020 ce 46 0f 3e 40 a2 2c 3c 01 80 aa 3b 90 fa 55 3c
       0.13991854 0.01053673 0.0052032475 0.013060227
000030 1e b2 5b 3d 2c 5b 4a bd e3 6b a9 bc 0f ff bb 3d
       0.053636663 -0.049403355 -0.020681327 0.09179508
000040 67 d5 25 bc 64 b9 e3 3c c4 90 d7 3b 9e d2 a9 3d
       -0.01012168 0.027798362 0.0065785367 0.08292125
000050 14 aa dc 3a e8 32 3c bc 95 0e 2b 3d 37 73 3e bd
       0.0016835355 -0.011486746 0.041761953 -0.046496596
000060 84 00 9c bd 13 f4 6c bc 75 74 75 3d 83 ce e3 3d
       -0.07617286 -0.014462489 0.059925515 0.11123373
000070 82 55 3f bd 61 cd cf bc 5e 12 8a 3d b0 3d f9 3c
       -0.046712406 -0.025366487 0.067417845 0.030424923
000080 2b 3f 8f bd 02 17 86 3d 7b 38 d4 bc 0c 51 da bd
       -0.0699447 0.06547357 -0.025905838 -0.1065999
000090 24 5e 38 3c d0 c6 12 3d 90 8a 2d bd 50 53 51 3d
       0.011252914 0.035834134 -0.04236847 0.051104844
0000a0 6b 88 0a 3d b4 62 36 bd 04 80 8d bd 52 17 bf bd
       0.033821505 -0.044527724 -0.06909183 -0.0933062
0000b0 17 25 87 3d d4 e4 94 bb 76 84 55 3d 4d 6a a5 bc
       0.06598871 -0.00454388 0.052128278 -0.02019229
0000c0 76 1b 74 bc e6 7e 13 bc 42 b3 7c bd d5 c3 8e 3d
       -0.014899125 -0.009002423 -0.06169439 0.06970946
0000d0 68 72 c9 3c fe f8 0a bd 97 37 61 be b1 a9 6b ba
       0.024590686 -0.033928864 -0.21993862 -0.00089898246
0000e0 6c 1b f3 bd e9 aa 3e 3c 8f 5f 7c 3c 30 a8 b7 3b
       -0.11870465 0.011637428 0.015403642 0.0056047663
0000f0 55 4d 4d 3d 22 4b 15 bc 92 df 00 3c 2c ce d0 bd
       0.050122578 -0.009112151 0.007865803 -0.10195574
000100 74 f5 6d 3d d8 4a 5a 3b d4 3c 74 3d 7c 5e 12 be
       0.05809541 0.003330877 0.059628323 -0.14293855
000110 d6 fa 99 3d c2 5c 71 3d 6d 1e aa bd 57 7c d9 bb
       0.07518546 0.05892635 -0.083065845 -0.006637137
000120 64 36 a1 bb 7a 3a 08 be 79 09 2d bd a8 06 08 3d
       -0.004919814 -0.13303557 -0.042245362 0.033209473
000130 09 83 71 bd ed e9 e5 3d 0a 24 0e be 3b b1 5a bd
       -0.058962855 0.112262584 -0.13880935 -0.053391676
000140 59 6b 34 3d b8 fc 2a bc 9a 6a 53 3d 97 f7 82 3c
       0.044047687 -0.010436229 0.051615335 0.0159872
000150 86 ca 8a 3d 01 3f 62 bc 0b 7a 43 3d 19 4c 5f bd
       0.067769095 -0.013808967 0.04772381 -0.05451593
000160 c8 50 ac bd 9e d8 f0 bc f2 22 3d ba 51 99 13 3c
       -0.08413845 -0.029400166 -0.0007214985 0.009008721
000170 d3 ae a3 3b 98 e0 2a 3d 5d 7e ed bd 57 b2 6b bd
       0.004995206 0.041718096 -0.115963675 -0.057543125
000180 19 5e 0b 3d fd be 18 3e b8 f7 3a bd 98 48 04 bc
       0.034025285 0.14916606 -0.0456464 -0.008073948
000190 13 be c5 3c 89 6d e5 3c 1f 73 e2 3c 51 30 01 bd
       0.024138486 0.028006332 0.027642785 -0.03154022
0001a0 56 16 86 3d cf d9 00 bd 9c 3a bb bc 8c 5a b8 bd
       0.06547229 -0.03145772 -0.022855096 -0.090016454
0001b0 56 68 71 3c 7d e9 b9 bc f6 7f 26 3d 62 86 cf 3d
       0.014734348 -0.022694344 0.040649377 0.10133053
0001c0 51 10 d9 bd 02 61 4d bd c0 72 bb bd 9f 9e 1d 3d
       -0.10598815 -0.050141342 -0.09152746 0.03848135
0001d0 93 81 91 3c 7d f8 26 3d b6 c1 e4 3d 1a f8 5d 3d
       0.017761981 0.04076432 0.1116976 0.054191686
0001e0 14 f1 94 bd a5 3c 64 3d 7c 9a 82 3d 81 4a f6 ba
       -0.072725445 0.055721898 0.06377122 -0.0018790514
0001f0 90 00 cc bb dc 7b 1b 3e a5 82 2d 3c 34 09 2a 3d
       -0.006225653 0.15183967 0.01059023 0.041512683
000200 9b f4 92 3d fb 8f 24 3d 50 fe af bc 2b 5e 8e 3d
       0.07175561 0.040176373 -0.02148357 0.06951555
000210 98 9f 84 3d ce 20 c3 3d ac 93 1b 3d 65 9d a2 3c
       0.064757526 0.095277414 0.037982628 0.019850442
000220 e8 e2 de bb 32 ba 00 bd c3 79 73 bd c2 e1 38 3d
       -0.0068019517 -0.03142757 -0.059442293 0.045137174
000230 7f 5b 18 bd df 9c 5a bd 60 e2 79 3d 18 f4 95 3c
       -0.037196632 -0.05337226 0.061006904 0.01830487
000240 b8 8a 14 3d 0e cb 08 3a a0 93 fe 3d 79 d1 a6 bd
       0.036265105 0.0005218246 0.12430501 -0.081454225
000250 a7 88 59 3d 24 df 52 3d 9e 57 5c bc 10 74 56 bb
       0.053108837 0.051482335 -0.013448624 -0.0032722987
000260 e4 47 ad bc bd c3 f5 bd 51 f8 93 bd 8e 06 d1 3d
       -0.021152444 -0.12000225 -0.07225097 0.10206328
000270 18 8a 6e 3d 1f 4f cd 3d 10 b8 ba ba 08 99 38 3c
       0.058237165 0.10024857 -0.0014245529 0.011266954
000280 c2 bd 10 be 76 48 30 bd b1 a0 c7 bc 4d 3a f9 3d
       -0.14134887 -0.043037854 -0.024368616 0.12169323
000290 e7 e3 89 3d b9 33 c0 3c 42 39 0a 3d 07 19 7e bb
       0.06732922 0.023462163 0.03374601 -0.0038772242
0002a0 ff 36 28 3d ae 2c c0 bc 49 a3 81 3c 0e 7d 72 bc
       0.041068073 -0.023458805 0.01582493 -0.014800323
0002b0 a1 04 b8 3c a5 7a 29 3d ef 74 c2 3d 76 e6 2c 3d
       0.022463145 0.04137673 0.094949596 0.042211972
0002c0 14 42 1d 3e 94 29 ca bd d7 49 2c 3d a1 b5 89 3c
       0.15357238 -0.09871212 0.042062607 0.01681024
0002d0 d1 1e 44 bd ba 56 88 bd 72 51 f4 3b 9e 2f a8 bd
       -0.04788095 -0.06657167 0.007455998 -0.08212207
0002e0 a2 8f e4 3c ae 66 d9 3d 9b 1c 9b bc ae 81 e0 3c
       0.02790052 0.10615288 -0.018934539 0.027405586
0002f0 c9 e3 bb bc 4a 82 60 bd 09 ca b9 ba d0 af 36 bd
       -0.022935765 -0.054811753 -0.0014174591 -0.04460126
000300 94 9a 92 3c 0b d3 7c bd ba 91 a0 3c 24 b5 97 3b
       0.017895974 -0.061724704 0.019600738 0.004629748
000310 98 25 0a 3c 86 5c 1f bc 3f 5c 43 3d 65 19 34 bd
       0.008431815 -0.009726649 0.047695395 -0.04396953
000320 56 aa 7f bd 80 3d 2f 3c f6 d9 8e bb 36 73 3f 3d
       -0.062418304 0.010695815 -0.004359479 0.046740733
000330 79 e1 02 3c 79 a2 52 bc df 9f 16 3d f3 65 7d bd
       0.007988327 -0.012856119 0.03677356 -0.061864804
000340 13 66 7a bb d8 4e 2e 3d 30 20 ce bc 44 f0 37 3d
       -0.0038207814 0.04255566 -0.025161833 0.04490687
000350 cf b8 73 bb c6 c3 3e 3d b4 cd 4c bd 07 99 b2 bd
       -0.0037189012 0.046573423 -0.05000086 -0.08720594
000360 7c 64 54 3d e4 2b f1 3a 55 9a dd 3c af 6e e0 3c
       0.051853642 0.0018399921 0.02705113 0.027396528
000370 1f 49 45 3c 84 31 44 3d be 5f fd bd c2 5b cc bc
       0.012041359 0.047898784 -0.12371777 -0.024946097
000380 4d e9 c6 3c 1a 5a 3d bc 27 12 77 bd cf 66 1d 3c
       0.024281168 -0.011557126 -0.060320046 0.009607031
000390 3b 3f 04 3b d7 8e cb bd 51 84 08 bd 1a 72 87 ba
       0.002017929 -0.09939354 -0.03332931 -0.0010333688
0003a0 9b d7 ee 3d 84 fb 6b bd 92 09 22 bd 49 66 47 3d
       0.11662217 -0.05761291 -0.03955991 0.04868153
0003b0 03 9e 81 bd b0 86 8a bd c0 bf 67 bd 21 fd 27 bd
       -0.063289665 -0.06763971 -0.05657935 -0.041012887
0003c0 5e 40 11 3d f4 b6 c8 3c 1c 21 5d bc b1 ff 16 bd
       0.035461776 0.024501301 -0.013496663 -0.03686494
0003d0 13 96 b2 3d 16 5e da 3d 8e bf 6d 3c c4 7d a3 bd
       0.08720031 0.10662477 0.014511002 -0.07982972
0003e0 5f 90 aa 3d 4c 33 64 bd e4 76 9b bd 34 2f 2d 3d
       0.08328318 -0.055712983 -0.07591036 0.042281345
0003f0 82 cc f4 3b 45 ed b8 bd 0e bd 53 3d ce bd 02 bd
       0.0074706683 -0.090296306 0.05169397 -0.031919293

neuralnet.0.bias f4 [125]
000000 52 31 78 3d 70 74 a4 bc 3f 42 bd bc 5f 89 17 3d
       0.06059391 -0.020075053 -0.023102878 0.03699624
000010 02 4b b7 3d b6 bd 7a bd bc 77 12 3d ba df 0e 3d
       0.089498535 -0.06121608 0.03575872 0.03488133
000020 3d 80 ab 3d 0e 5a 44 bb 3c 41 ba bb 95 7a c8 bc
       0.08374069 -0.0029960903 -0.005684046 -0.024472514
000030 1d af 27 3d 0a b9 0f bd 7b ac 9e bd 60 f2 8f 3d
       0.040938485 -0.035088576 -0.07747742 0.07028651
000040 28 4a 26 bc 36 4d ea 3c a3 df c3 bd b0 78 c0 bd
       -0.010149516 0.02860127 -0.0956414 -0.09398019
000050 2a e7 0b 3d 10 b6 c7 bd 7f 14 cd 3d 23 c5 78 bd
       0.034156002 -0.097515225 0.10013675 -0.06073488
000060 55 64 b9 bd 48 56 c5 bc db 77 89 3d c8 76 b5 3d
       -0.0905234 -0.024088994 0.06712314 0.08860546
000070 fa e6 80 3c a3 2e 4d bc 5f a7 5c bc 56 87 09 be
       0.015735138 -0.012523326 -0.013467639 -0.13430533
000080 7a ef 81 bb 22 43 b3 bc 9c c2 88 3d a8 00 40 3d
       -0.0039653154 -0.021882597 0.06677744 0.046875626
000090 50 08 bc bc f0 4a 4e bc f4 c4 dd 3c c3 29 11 3d
       -0.022953182 -0.012591109 0.027071454 0.035440218
0000a0 32 d2 87 bd 94 6c a2 bc df a6 ae 3d d8 95 c9 3d
       -0.066318884 -0.019827165 0.08527922 0.098430336
0000b0 fb 6b 4f bb b0 4a 10 3c 0c 4c 34 bd d7 98 ca 3d
       -0.0031650055 0.008806869 -0.044017836 0.09892433
0000c0 82 eb 9d bc 68 44 19 bd f8 10 f2 bc 85 e8 50 3b
       -0.019277338 -0.037418753 -0.029549107 0.0031876874
0000d0 5d 61 de 3c e5 dc f3 bc 0e e6 d6 bc de 00 ce 3d
       0.027146036 -0.029768417 -0.026232745 0.10058759
0000e0 b0 42 6f bc 54 b3 0b 3d 22 52 a4 3b de d2 1d bd
       -0.014603302 0.034106568 0.005014674 -0.038531177
0000f0 07 97 54 3d a5 41 8a 3d 97 56 84 3d 28 b4 1f 3d
       0.051901843 0.06750802 0.06461828 0.03899017
000100 03 b3 68 3d 79 29 da 3c 6c 92 c1 3d f0 ec 56 bb
       0.056811344 0.026631104 0.09451756 -0.0032795034
000110 57 bc 15 bd 2f 6f 2e 3d 75 ed 26 bc 4b 9e 43 3d
       -0.036556568 0.0425865 -0.01018845 0.04775838
000120 85 6e 8f bd be fb a9 bd 21 d7 94 bc f6 23 04 3c
       -0.07003502 -0.08299969 -0.018168988 0.008065214
000130 3e af d1 bc 41 4a bb 3d 71 d3 86 bd 84 d2 6a 3c
       -0.025596257 0.09145022 -0.06583298 0.014332417
000140 fc a4 59 bd d1 54 9a bd 97 4b 52 bd 5f 6f 25 3d
       -0.053135857 -0.07535709 -0.05134162 0.040389415
000150 00 08 bc 3d 7c 50 c1 bb 3e d3 76 bd 58 5a 68 3d
       0.091812134 -0.005899487 -0.06026005 0.056726784
000160 a9 48 bc 3c b6 1a ed 3c 5d 90 76 bd b2 da d2 bd
       0.022983866 0.0289434 -0.06019627 -0.10295619
000170 4a c8 5a 3c 48 15 0d 3d 8f 7e c6 3d 82 9e 4c bd
       0.013353417 0.034444124 0.09692108 -0.049955852
000180 49 63 56 bd a5 e1 5b 3d 97 6e d4 bd 38 3b 82 3c
       -0.05234078 0.05368199 -0.10372656 0.015897378
000190 47 c4 af bd e8 13 f5 3c 8d 10 ab 3d a8 56 15 bd
       -0.08582359 0.029916719 0.08352766 -0.036459595
0001a0 b2 cb 79 3d 4b d7 2b 3c 86 62 37 bd d8 d7 b1 bd
       0.060985275 0.010488342 -0.044771694 -0.08683747
0001b0 65 2b 81 3b 81 9d ae 3c 12 95 d8 3c 62 1c 93 3d
       0.0039419406 0.021315338 0.02643827 0.07183148
0001c0 cd 44 00 3e 85 d4 b2 bc ea 7a c2 bd 85 50 c4 3d
       0.12526245 -0.021829853 -0.094961 0.095856704
0001d0 61 0b d7 bc ca 40 21 bd db bf 98 3d 98 00 cd 3c
       -0.026250543 -0.03936843 0.074584685 0.025024697
0001e0 80 03 d3 bc 2d 06 f0 3d 29 97 94 bd d2 47 7f bb
       -0.025758505 0.11719928 -0.07255394 -0.003895272
0001f0 31 d7 ef bd
       -0.117109664

neuralnet.3.weight f4 [25, 125]
000000 c0 12 1f 3d 27 41 be 3c 71 3f 22 3d 9b 97 f6 bd
       0.03883624 0.023224426 0.039611284 -0.12040635
000010 88 f0 67 3d aa 61 7d bc e6 d7 00 3e 94 01 58 bd
       0.056625873 -0.015465179 0.12582359 -0.05273588
000020 fd c9 25 3d f5 4e 5a 3d 60 9d 89 3d de a5 35 3d
       0.040475834 0.053297956 0.0671947 0.044347636
000030 81 2a 99 bd db 86 34 3e 8d f1 b9 3c 0a 5c 85 bd
       -0.0747881 0.17629568 0.022698188 -0.06511696
000040 2b 4d 07 bd 36 83 93 3d 84 1c d4 bd b0 70 11 3c
       -0.033032577 0.07202761 -0.103570014 0.008876964
000050 da 1c c0 3c 12 f5 9a bd 8e 7c 15 bd c0 6e 3c 3d
       0.023451257 -0.07566275 -0.036495738 0.046004057
000060 bd 48 de bb 5c 91 35 bd b8 98 86 3d 90 6b 26 bd
       -0.0067835734 -0.04432808 0.065720975 -0.040629923
000070 a4 56 4f bc 8b 64 18 bd 31 f9 a1 bd 82 3e ac 3c
       -0.012654934 -0.03720526 -0.079088576 0.0210259
000080 a1 66 29 3c df 3a 01 3e 44 58 a3 3c 72 01 e7 3d
       0.01033941 0.12620114 0.01993955 0.112795725
000090 0a be 87 3c 40 fb 84 bd f7 60 8d 3d 2c e0 b0 3c
       0.01657011 -0.06493235 0.0690326 0.021591268
0000a0 c9 86 80 3d 56 8c 26 bd 8f 90 b3 3c 15 73 06 3e
       0.06275708 -0.04066118 0.021919517 0.13129838
0000b0 1a 23 3a bd 60 64 e3 3d 12 e0 41 3c 8c d6 9d 3d
       -0.04544363 0.111031294 0.011833208 0.07706937
0000c0 54 38 a4 bd ff 9b 0b 3e 6e dc 18 3c 5a 15 aa bd
       -0.08018556 0.13633727 0.009329898 -0.08304854
0000d0 e0 01 7e 3d d1 2d d6 3c b1 00 00 3e 73 3b a1 bc
       0.062013507 0.026144894 0.12500264 -0.019681668
0000e0 7d a0 c2 bd 16 d9 b8 3d fc b8 95 bd 77 2e a5 bc
       -0.09503267 0.09025781 -0.073106736 -0.020163758
0000f0 7b 93 ca bd bd ce 98 3d 68 21 de bd b4 c3 f0 3d
       -0.09891411 0.07461307 -0.108462155 0.117560774
000100 d0 13 65 bd b8 bf 60 3d ea 13 92 bd 03 ee 1f 3d
       -0.055927098 0.054870337 -0.071327046 0.039045345
000110 b3 61 84 3d d5 0f 3d 3e ac 28 81 bd cd 64 c1 3d
       0.06463947 0.1846307 -0.06306586 0.09443054
000120 f9 b5 38 3e a7 ea c2 3d 08 8b 74 bc 58 e2 32 bd
       0.18038167 0.09517413 -0.014925726 -0.04367289
000130 84 9a 03 3d d1 16 14 3e 4b 87 98 bc c0 d6 34 bd
       0.03212978 0.14461829 -0.0186192 -0.044150114
000140 d0 76 5f 3d f3 64 bc 3c 20 f6 32 3d d7 0c 30 3b
       0.054556668 0.022997355 0.043691754 0.0026863122
000150 ff 2e c8 3d dc b5 97 bd a6 62 7a 3d 8a 5c 20 3d
       0.09774589 -0.07407734 0.061129235 0.039150752
000160 1e e4 46 3d c8 80 6a 3e 00 90 59 bd 6e 77 36 3d
       0.048557393 0.22900689 -0.053115845 0.04454749
000170 fb 52 9f bc f6 1e 47 3d 82 15 62 bd f4 a6 03 3e
       -0.019448748 0.04861351 -0.055196293 0.12856656
000180 30 ca a7 bd c6 d3 e1 3d 0e 98 48 3c 62 52 1d bd
       -0.08192861 0.11026721 0.012243284 -0.038408644
000190 63 82 55 bd 25 9b e6 3d 11 8b 21 3e f7 25 52 bd
       -0.0521263 0.1126006 0.15775706 -0.051305737
0001a0 e8 35 4c bd 10 95 35 3d 2c 98 27 3d 24 d2 1b bd
       -0.049856097 0.04433161 0.040916607 -0.038042203
0001b0 63 17 59 bd e3 f0 81 3d 3f 43 30 3e f6 47 a6 3d
       -0.05300082 0.063447736 0.17213152 0.08119194
0001c0 cf e2 55 bd 91 77 c2 3c 79 ac 3d 3c 43 d3 96 3c
       -0.052218255 0.023738654 0.011576765 0.018411284
0001d0 43 dc 78 3d b3 bd 8b 3c 0b 67 06 be 6f 7a ce bd
       0.060756933 0.01705823 -0.13125245 -0.10081946
0001e0 06 9c e5 3c b2 73 db bc 51 df 8d bc 7a bf 4a bc
       0.0280285 -0.026788566 -0.0173184 -0.012374753
0001f0 5c 6e 21 bd d9 3f cf bb 37 0f 1b bd 65 af 06 bd
       -0.039411888 -0.00632475 -0.037856307 -0.032882113
000200 c6 93 08 3e 14 f5 cc 3d 25 8d 84 3c 49 18 a5 3d
       0.13337621 0.100076824 0.016180584 0.08061273
000210 b4 84 93 bd 84 f1 ca 3d 26 63 8d 3d 4a ef 97 3d
       -0.072030455 0.09909347 0.06903677 0.07418688
000220 c7 9b 8a 3c 83 c5 bf 3d 9b 9a 9a bd 50 89 40 bd
       0.016919984 0.09363844 -0.0754902 -0.04700595
000230 86 c7 1a 3e f0 db 42 3d 12 be 23 bd 32 ff a6 bd
       0.15115175 0.04757303 -0.039976187 -0.081541434
000240 68 fb c7 bd 7b 89 b2 3d cd 1c 47 bc 09 5e a0 3d
       -0.09764749 0.087176286 -0.012152863 0.07830436
000250 63 bd 84 3b cf b1 41 3d 06 5b e2 bc 55 21 90 3d
       0.004050897 0.047288712 -0.027631294 0.070376076
000260 46 ba 97 bd cf 53 12 3c c0 90 04 3e c5 d7 ea bc
       -0.07408576 0.008931114 0.12945843 -0.02866734
000270 50 de e8 bc 64 fb 6a 3d c2 e0 21 be 2b 74 c0 3d
       -0.02842632 0.05736865 -0.15808395 0.09397157
000280 74 50 42 3c ab e4 a1 3d 76 38 a4 bd 3e 02 8b 3d
       0.011860002 0.07904943 -0.080185816 0.06787537
000290 61 b0 26 3d 31 c7 7b bc cf 72 a0 3d 0c b9 37 bd
       0.04069555 -0.015367315 0.07834398 -0.04485421
0002a0 07 59 93 bd 1d d2 55 bb 07 0f 9f bc 51 12 2e bd
       -0.07194715 -0.0032626458 -0.019416345 -0.042497937
0002b0 4e d5 5b 3d 3c e1 a3 3b 87 31 4e bd 6e 16 3d 3c
       0.05367022 0.0050012153 -0.0503402 0.011540992
0002c0 a5 14 0c 3e 4d a1 5d 3d 29 84 f4 bd 9b 03 35 3d
       0.1367975 0.054108907 -0.1193927 0.04419289
0002d0 e5 7a 14 bc 60 ac 41 3d 14 2b 1c be 44 93 67 bd
       -0.009062503 0.04728353 -0.15250808 -0.056536928
0002e0 2c 67 d1 3d ca 84 44 3e fd 33 a6 bd f8 58 01 3e
       0.102247566 0.1919128 -0.08115385 0.12631595
0002f0 ac 9d e2 bc 54 37 0e 3d 9a 44 c7 3d dd a7 42 3e
       -0.027663074 0.034720734 0.097298816 0.19009347
000300 4a d4 8a bd 4b 14 17 3e 76 74 a6 bc 24 1d 5f 3c
       -0.06778772 0.14753835 -0.020319205 0.0136177875
000310 68 6a dd 37 63 1d 4b bd 31 ad 43 bd 60 e0 85 bc
       2.6394802e-05 -0.049588572 -0.04777259 -0.016342342
000320 0c e5 97 bd ad 36 96 bd 92 3e 33 bb 4c 76 16 3e
       -0.07416734 -0.07334647 -0.0027350527 0.14693564
000330 57 5e 0a 3e 20 b1 3f bd 38 96 19 3e 9d 2b 6e 3c
       0.1351255 -0.04679978 0.1499871 0.014536765
000340 d9 3d d9 3c 2d c7 b5 ba 63 35 be bd 55 59 f2 3b
       0.02651875 -0.0013868563 -0.092875265 0.007395903
000350 7f 88 b8 3d 11 e8 4a 3d 06 95 26 bd 93 bd b0 3d
       0.090104096 0.049537722 -0.040669464 0.086299084
000360 19 c6 4a 3d c3 98 00 3e d3 c2 e8 bd b8 bc 96 3c
       0.049505327 0.12558274 -0.11365285 0.018400535
000370 73 1d 46 3d eb cd 8f 3d 22 8e 94 3d 41 a8 1a 3d
       0.04836793 0.070216976 0.07253672 0.037758116
000380 12 50 84 bd 6e 89 8a 3d ac 8f f4 3c 30 ce 8a bd
       -0.06460585 0.06764494 0.029853664 -0.067776084
000390 fc e5 1c 3b 20 88 2e 3d 2a ec b5 bd 4c 4c c0 bd
       0.0023940792 0.042610288 -0.08882935 -0.093895525
0003a0 b3 b7 72 bd 32 a9 02 3e 05 5c 50 bc 9d 36 2a 3d
       -0.05925722 0.12759855 -0.012717252 0.04155599
0003b0 e3 09 b6 bd b5 94 2b 3e 17 1c 52 bd 58 08 82 3c
       -0.088886045 0.16755946 -0.05129632 0.01587312
0003c0 af ac c6 3d 79 0c 20 bd 01 15 e4 3c db 32 a8 3d
       0.097009055 -0.039074395 0.027842047 0.08212825
0003d0 aa 88 50 bc 7c 8b ef bd 06 2a 6b 3c 7e 72 9b bd
       -0.012727896 -0.116965264 0.014353281 -0.07590197
0003e0 9c cd 02 3d 03 84 e1 3c 61 ba ca 3d 14 e4 70 bd
       0.031934366 0.027528768 0.0989883 -0.058811262
0003f0 6a b2 69 3d 2b 90 9d bc 15 42 67 3d c5 ac e3 bc
       0.057054915 -0.019233784 0.056459505 -0.027792344

neuralnet.3.bias f4 [25]
000000 f2 e3 82 3d eb 37 d8 3d 55 ba 0f 3e 6c 57 cd 3c
       0.06391133 0.105575405 0.14035924 0.0250661
000010 14 9e 62 3c b2 50 13 be 2a 3a 48 bd ec b4 a1 3d
       0.013831634 -0.14386252 -0.048883595 0.07895836
000020 27 cc 1d bd 2e c6 40 bd c1 a2 12 3b 42 18 a0 bc
       -0.038524773 -0.047064 0.002237484 -0.019542817
000030 2c 47 76 3d ae a1 8f 3d dd 3b b6 3d 8c 6c f5 bc
       0.06012647 0.0701326 0.08898137 -0.029958986
000040 50 aa b6 bd 5c fd 80 3d 12 fe 83 bd e0 74 b8 3c
       -0.08919203 0.062983245 -0.064449444 0.022516668
000050 0d 92 a7 3d 7b ae 13 bd b7 c6 79 bd 63 c2 2a bc
       0.08182154 -0.03605507 -0.060980525 -0.010422322
000060 7c 4c ff 3c
       0.0311644

neuralnet.6.weight f4 [4, 25]
000000 0e 65 ab bd 09 d2 bd bd 20 51 d8 3d a4 d3 22 3e
       -0.08368884 -0.09268577 0.10562348 0.15901047
000010 c3 ae 01 3d 40 86 0b be 1a 93 5c be 71 2a 95 3d
       0.031660806 -0.13625431 -0.2154049 0.07283486
000020 9e 5a 6f 3d f5 07 44 3e dc a0 bf bd 88 6d 78 3d
       0.05843603 0.1914366 -0.09356853 0.060651332
000030 d1 68 ef 3d 06 69 5c 3e 35 71 c8 bd 45 3c 0f 3e
       0.11689914 0.21524438 -0.097872175 0.13987835
000040 1b 25 85 bc 1a e7 4d be e3 d7 1e be 54 5d 63 3e
       -0.016253045 -0.2010769 -0.15512042 0.2220357
000050 78 8d 41 3e 89 e9 f2 3d c4 ad 83 3c ed 7f bb bd
       0.18901622 0.118609495 0.016074069 -0.09155259
000060 65 7b 00 3e 60 db 15 be 92 d8 4e 3e 82 8e 83 3e
       0.12547071 -0.14634466 0.20199803 0.25694662
000070 71 fe ee 3d 24 35 6a bd 3d 83 ee bd f2 1d 1c 3e
       0.116696246 -0.057179585 -0.116461255 0.15245798
000080 4c 57 c6 3d 8b f4 98 bd 2f ab b3 3d e1 3a ba 3c
       0.09684619 -0.07468518 0.08772885 0.022733154
000090 08 fd 0c bd 3e 71 11 be f5 09 3d 3d e3 a3 1d bc
       -0.034420997 -0.14203355 0.046152074 -0.009621593
0000a0 5d 77 ba 3d 69 c7 13 3e 19 db ea bc 10 75 4c 3e
       0.09104798 0.14431538 -0.028668927 0.19966531
0000b0 25 21 ac bc c2 05 1d 3e 16 90 0c 3e 0f 48 8e bd
       -0.021011898 0.15334228 0.1372684 -0.06947338
0000c0 6e 2e be bd 54 db 35 3e 37 ed 54 be cc 25 88 3e
       -0.092861995 0.17759448 -0.20793615 0.26591337
0000d0 dc c3 21 be 98 11 b6 bd 42 f7 ae bd 20 cc cd 3c
       -0.1579737 -0.088900745 -0.085432544 0.025121748
0000e0 d2 12 fc 3d 62 37 09 3e 14 4c e8 bd 8a 91 d4 bd
       0.12308277 0.13400033 -0.11342636 -0.10379322
0000f0 6e 3c fd 3d 91 c5 ea bc 36 d1 2c 3e 30 19 85 be
       0.12365042 -0.02865866 0.16876683 -0.2599578
000100 61 fd 6f 3e da 8d 85 3c 69 5a 7c bd 8e 1d 9a bd
       0.234365 0.016302992 -0.06160966 -0.07525168
000110 cd 00 4f 3d 53 72 8d 3c dd 7b 54 3e f0 99 53 be
       0.050537873 0.017266428 0.20750375 -0.20664191
000120 eb 03 be 3d 53 25 a5 bc 96 5a 41 be 53 87 83 3e
       0.09278091 -0.0201594 -0.18882212 0.25689182
000130 d4 f6 f7 bd 89 6f d8 bd 1f 3f d5 bc 84 ac b5 bc
       -0.121076256 -0.10568149 -0.026031075 -0.022176988
000140 49 18 e9 3b 0a a8 06 3e 66 53 32 be be 96 b6 3e
       0.0071134907 0.1315004 -0.17414626 0.35661882
000150 5b eb 03 be bf 4f 8b 3d f9 d1 db 3c 0d 8d 9a be
       -0.1288275 0.0680232 0.026833521 -0.30185738
000160 77 07 f5 bd 17 77 13 3d 5b 3c 64 be db e5 ef 3c
       -0.119643144 0.036002245 -0.22288649 0.029284408
000170 08 41 2d 3e 12 44 58 3d 38 b6 12 be 3d ce 11 be
       0.16919339 0.052799292 -0.14327323 -0.1423883
000180 62 76 07 be 28 5e ce 3d 98 95 52 3e e6 59 5f 3e
       -0.13228753 0.10076553 0.20564878 0.21811637

neuralnet.6.bias f4 [4]
000000 a2 21 f2 bd 92 c1 52 bd 2f 6b dc 3d 07 75 c6 3d
       -0.11822821 -0.051454134 0.10762631 0.0969029
