src/players/saves/Reinforce5000.pth (torch_old, 172230 bytes, 6 tensors)

neuralnet.0.weight f4 [200, 182]
-0.044611327 -0.13325068 0.11341094 -0.022136668 0.07259166 0.41257074 0.015359465 0.0154692475
0.008861691 0.00908696 -0.19099458 -0.08311514 -0.08271101 0.03047238 0.056130115 0.08534836
0.1269873 0.14917372 -0.10701255 0.15628849 0.076627105 -0.040566806 0.16091132 -0.073617764
0.03228948 -0.015810765 0.114830755 -0.04437031 0.04329576 0.043302488 -0.19570906 0.11797619
0.16835284 0.04103612 -0.056698687 -0.14887635 0.16319215 -0.02403944 -0.05566015 -0.0389363
-0.27127555 -0.13807032 0.09908978 -0.013916874 -0.06750684 -0.036475122 0.035374515 0.0103913285
0.20719156 -0.17060983 -0.059310433 0.17040971 0.018864073 -0.036413193 0.19844857 -0.057831656
-0.14127664 -0.1291528 0.14392519 0.06497978 0.12568471 -0.22662513 -0.07534511 -0.12499827
0.07403893 -0.02981937 0.07838083 -0.08933669 0.02735098 -0.06789649 -0.23626149 0.15626495
-0.0018924199 0.0237808 0.15700722 -0.14075702 0.04168759 0.021929953 -0.04860701 0.08095157
0.25751966 -0.0953005 0.09802693 0.13193072 0.053200163 0.049170576 0.28471464 -0.21976212
0.12224613 -0.053774282 -0.017502777 0.056410465 0.045034003 0.042996015 -0.009525043 0.0536611
0.20130964 -0.20678678 -0.040113702 0.22220676 0.14428768 -0.12602419 0.1402906 -0.026349029
0.12086015 0.21127725 -0.037549127 0.04283138 0.18534862 0.08804768 0.009940321 -0.0043200534
-0.038621183 -0.0034966713 -0.10574527 -0.056359395 0.3923216 0.029052107 -0.10285373 -0.24400577
-0.25101912 0.10000725 0.30739716 0.12461052 -0.07016695 -0.21999773 -0.039123666 0.028098643
-0.19179693 0.17593682 -0.018729007 0.015466858 -0.11756206 -0.0013188722 -0.1535519 -0.07290376
-0.10173063 0.0025249484 0.039724384 -0.08750963 -0.011969022 0.12926154 -0.085125364 0.30400527
0.25491613 0.070425615 0.3833118 -0.1233737 0.052939728 0.03390894 0.07748592 -0.0421411
-0.15933347 -0.035291813 -0.01676868 0.06029029 0.20555916 0.09304047 -0.068666555 0.013027538
-0.4995088 0.18779202 -0.35381594 1.0984969 0.1829438 -0.08031583 -0.031107068 -0.03634741
-0.020163726 0.091827296 0.20475504 0.097834475 0.048088767 0.15253988 0.02621909 0.17871667
0.28622603 0.11713326 -0.26723137 -0.0048210635 0.119724 0.086404674 -0.013879942 -0.28765473
0.25700545 -0.07055134 -0.013361765 0.054994583 0.02737776 0.14608271 0.10781455 -0.09162423
-0.14347826 -0.15595712 -0.18352936 0.20919004 0.05279091 -0.09901186 -0.021557339 0.025438817
-0.13526247 0.18434653 -0.11225407 0.00430244 0.13825457 -0.03040763 -0.065660134 -0.17994078
-0.07896799 -0.104923464 -0.09127958 0.07085751 0.124439664 -0.06725465 -0.19611798 -0.13755937
-0.11270195 -0.084369265 -0.07021324 0.056108397 0.11521646 -0.05196868 0.0054638064 0.07451209
0.0050290553 -0.019771986 0.1148911 0.20984879 -0.04557411 -0.10793926 0.05936792 0.27936643
0.056691624 -0.03510028 -0.07127825 0.18058807 -0.08939035 0.22177358 0.29409575 -0.13792957
-0.05683122 -0.01931858 0.03447526 -0.15286334 -0.07403935 0.0054931645 0.048107926 0.16033474
0.10606987 0.111387946 0.061663873 -0.0671047 0.13437925 0.015955972 -0.042649113 0.14315832
00000000: 5eba 36bd de72 08be ff43 e83d f557 b5bc
00000010: f0aa 943d 793c d33e 44a6 7b3c ba72 7d3c
00000020: a030 113c 79e1 143c 1594 43be 4538 aabd
00000030: 6464 a9bd 36a1 f93c b1e8 653d 1fcb ae3d
00000040: f508 023e ffc0 183e 6529 dbbd 170a 203e
00000050: acee 9c3d 6129 26bd f0c5 243e e9c4 96bd
00000060: f941 043d 9485 81bc 632c eb3d a4bd 35bd
00000070: e556 313d f35d 313d f567 48be 809d f13d
00000080: b064 2c3e 7e15 283d e23c 68bd 0b73 18be
00000090: d81b 273e 5cee c4bc e6fb 63bd ab7b 1fbd
000000a0: a1e4 8abe 4e62 0dbe 95ef ca3d 9a03 64bc
000000b0: 0741 8abd f066 15bd dee4 103d 6440 2a3c
000000c0: 062a 543e 58b4 2ebe 7fef 72bd e27f 2e3e
000000d0: d488 9a3c 0026 15bd 1a36 4b3e e3e0 6cbd
000000e0: d3aa 10be a240 04be 2061 133e 1e14 853d
000000f0: 7eb3 003e 6b10 68be 894e 9abd 18ff ffbd
00000100: b9a1 973d c047 f4bc 2186 a03d 28f6 b6bd
00000110: 2a0f e03c 510d 8bbd 88ee 71be eb03 203e
00000120: 130b f8ba f4cf c23c 80c6 203e 9c22 10be
00000130: 9bc0 2a3d 72a6 b33c 2518 47bd f0c9 a53d
00000140: 9ed9 833e e92c c3bd 58c2 c83d d918 073e
00000150: 6ae8 593d 1667 493d 1ec6 913e 5209 61be
00000160: 2e5c fa3d 6c42 5cbd fc61 8fbc a90e 673d
00000170: 9375 383d 971c 303d ed0e 1cbc becb 5b3d
00000180: 1d24 4e3e eabf 53be 444e 24bd 2b8a 633e
00000190: 26c0 133e 7c0c 01be 57a8 0f3e ebd9 d7bc
000001a0: 8785 f73d 1059 583e 1dcd 19bd f56f 2f3d
000001b0: 07cc 3d3e 5852 b43d badc 223c 3c8f 8dbb
000001c0: 3f31 1ebd 6928 65bb fa90 d8bd 1cd9 66bd
000001d0: 60de c83e affe ed3c faa4 d2bd a6dc 79be
000001e0: 9485 80be 9ad0 cc3d 2963 9d3e cd33 ff3d
000001f0: b1b3 8fbd 1647 61be 2340 20bd 202f e63c
00000200: 6a66 44be c828 343e 936d 99bc b468 7d3c
00000210: 61c4 f0bd 02de acba b63c 1dbe 914e 95bd
00000220: 2658 d0bd 9b79 253b 09b6 223d 4038 b3bd
00000230: b819 44bc 235d 043e 3556 aebd 94a6 9b3e
00000240: 5e84 823e 4e3b 903d 7241 c43e 5aab fcbd
00000250: 54d7 583d 1ae4 0a3d f0b0 9e3d 259c 2cbd
00000260: 5028 23be 268e 10bd 795e 89bc f3f2 763d
00000270: 1a7e 523e 008c be3d 0da1 8cbd 7471 553c
00000280: 9ebf ffbe 8d4c 403e 5d27 b5be 8c9b 8c3f
00000290: 9f55 3b3e a07c a4bd 40d4 febc 06e1 14bd
000002a0: 662e a5bc f30f bc3d 4eab 513e 715d c83d
000002b0: baf8 443d 6a33 1c3e 6bc9 d63c 8101 373e
000002c0: 388c 923e 90e3 ef3d 8dd2 88be 03fa 9dbb
000002d0: db31 f53d eff4 b03d b268 63bc 7b47 93be
000002e0: 3896 833e 397d 90bd 4eeb 5abc 0042 613d
000002f0: 5347 e03c b596 153e e0cd dc3d 7ca5 bbbd
00000300: f7eb 12be 39b3 1fbe 1fef 3bbe ea35 563e
00000310: 483b 583d bbc6 cabd 0499 b0bc 1165 d03c
00000320: 3f82 0abe 56c5 3c3e 76e5 e5bd 7cfb 8c3b
00000330: 9b92 0d3e 6c19 f9bc d278 86bd 6542 38be
00000340: f8b9 a1bd 1de2 d6bd caf0 babd be1d 913d
00000350: 39da fe3d cebc 89bd 27d3 48be 5ddc 0cbe
00000360: 48d0 e6bd cbc9 acbd f6cb 8fbd ebd1 653d
00000370: 9bf6 eb3d 1cdd 54bd bb09 b33b cb99 983d
00000380: c6ca a43b dcf8 a1bc 064c eb3d 9ae2 563e
00000390: ebab 3abd 420f ddbd c72b 733d 1e09 8f3e
000003a0: 7a35 683d 50c5 0fbd 55fa 91bd 14ec 383e
000003b0: 4a12 b7bd 9d18 633e b893 963e 693d 0dbe
000003c0: dac7 68bd 0042 9ebc ee35 0d3d 3588 1cbe
000003d0: f1a1 97bd 0100 b43b d10c 453d ca2e 243e
000003e0: 293b d93d 5d1f e43d 4293 7c3d 306e 89bd
000003f0: b79a 093e 19b6 823c d6b0 2ebd 1898 123e

neuralnet.0.bias f4 [200]
0.18120316 -0.10701536 0.087987065 -0.08097731 -0.22376111 -0.10934658 0.08348988 -0.18167298
0.3135956 -0.14979905 0.06600941 0.33742803 -0.1037293 0.5494523 0.1128763 0.38682988
-0.113286585 0.123105295 0.012315918 -0.1329318 -0.0039937417 -0.14499633 -0.022486858 -0.009149879
-0.15454297 -0.14669958 -0.2043591 -0.077204905 -0.11469522 0.058073357 -0.010150331 0.34525144
-0.06591778 -0.20865732 -0.11419484 0.5273078 -0.22569846 -0.037886176 -0.090135895 0.15508224
-0.093075715 0.015397497 0.27871466 -0.24972127 -0.15210791 -0.06706637 0.4329884 0.28758386
0.3294138 -0.0652557 0.15475754 -0.09346389 -0.16145511 0.07924164 0.14026481 -0.03972882
-0.22735667 0.29845193 -0.25108555 0.12204925 -0.03393566 -0.07636509 0.09218626 0.0675738
0.040591888 -0.09964375 -0.18763968 -0.16581504 0.1649429 0.3523303 0.13996986 -0.17878991
0.07114132 0.0477992 0.047453966 -0.0847272 -0.068207964 0.12441146 -0.0424518 -0.1261874
-0.12752019 0.2407809 -0.15457253 0.002022672 -0.07539849 -0.0999589 -0.062779136 0.07014525
0.37245798 0.10518939 -0.14006601 0.02434588 -0.18264861 0.21762395 -0.13044113 -0.11400166
0.11610008 -0.19078687 -0.2332091 0.31214863 -0.04195774 -0.03864361 -0.17532612 0.08593326
-0.05772228 -0.09661622 0.10228763 -0.17404857 0.36957532 0.18400791 -0.058277097 -0.13970757
0.3978053 0.11896545 0.17675465 0.26061448 0.7980752 -0.19155174 -0.16033266 0.3056283
-0.017074017 0.41173506 -0.13188207 0.21311492 -0.002593271 -0.23614118 -0.13281214 0.020475902
0.19605204 -0.06687665 0.040899143 -0.08793005 0.0787212 0.294537 0.19245052 0.06658495
0.17145388 -0.26642224 0.122546546 -0.12063732 -0.23494579 0.07951938 0.046969797 -0.17487448
-0.08023367 -0.032588985 0.055608626 0.15459749 -0.050406646 -0.15452002 0.18114497 0.23447382
0.33286268 0.33167714 0.24316369 -0.069716714 -0.16953824 -0.044365805 -0.15628654 0.21653262
-0.23934275 0.21504037 -0.123789854 0.27935296 0.23831108 -0.20369054 0.052216414 0.3293663
0.3492186 -0.07984904 -0.08457565 -0.22375655 0.094026215 0.20945248 -0.13387765 -0.0018341138
-0.07174052 0.29333764 0.08071846 -0.015294622 0.11552716 0.28174877 -0.15213849 0.37353665
0.13977505 0.0030384806 -0.03903755 0.010088743 0.393539 0.010601381 -0.09542303 0.024144066
-0.049577147 -0.1986102 0.12289631 -0.004399943 -0.17810646 -0.08770321 0.008221177 0.30081737
00000000: 528d 393e de2a dbbd 9032 b43d 6fd7 a5bd
00000010: a221 65be 1af1 dfbd befc aa3d 7b08 3abe
00000020: 9a8f a03e ec64 19be f12f 873d 5ec3 ac3e
00000030: 0770 d4bd e8a8 0c3f b12b e73d 910e c63e
00000040: cc02 e8bd a11e fc3d b4c8 493c 461f 08be
00000050: efdd 82bb eb79 14be 5c36 b8bc 60e9 15bc
00000060: 8340 1ebe 6a38 16be 8343 51be 9b1d 9ebd
00000070: 54e5 eabd 54de 6d3d 934d 26bc ccc4 b03e
00000080: e7ff 86bd 44aa 55be fcde e9bd a5fd 063f
00000090: 7f1d 67be 892e 1bbd 2b99 b8bd e1cd 1e3e
000000a0: 7b9e bebd c945 7c3c b0b3 8e3e efb6 7fbe
000000b0: 2dc2 1bbe 185a 89bd a8b0 dd3e 313e 933e
000000c0: eda8 a83e c8a4 85bd c378 1e3e ff69 bfbd
000000d0: 7d54 25be 7149 a23d 94a1 0f3e b0ba 22bd
000000e0: 30d0 68be b1ce 983e 498e 80be f5f4 f93d
000000f0: 1e00 0bbd 4d65 9cbd 26cc bc3d 2264 8a3d
00000100: ae43 263d 0612 ccbd 9e24 40be 6bcb 29be
00000110: cbe6 283e a364 b43e 4254 0f3e b414 37be
00000120: 8ab2 913d 18c9 433d 175f 423d 7485 adbd
00000130: 9eb0 8bbd 6fcb fe3d f0e1 2dbd 4537 01be
00000140: a794 02be 458f 763e 4348 1ebe ce8e 043b
00000150: 866a 9abd 40b7 ccbd 5992 80bd 50a8 8f3d
00000160: d0b2 be3e 896d d73d 776d 0fbe 0371 c73c
00000170: 3d08 3bbe d0d8 5e3e 5c92 05be b479 e9bd
00000180: e1c5 ed3d a25d 43be 5ece 6ebe f2d1 9f3e
00000190: e1db 2bbd c348 1ebd b188 33be c7fd af3d
000001a0: 336e 6cbd bade c5bd 2d7c d13d ca39 32be
000001b0: fa38 bd3e 926c 3c3e f7b3 6ebd 800f 0fbe
000001c0: 23ad cb3e 28a4 f33d 2cff 343e 436f 853e
000001d0: a84e 4c3f 2426 44be 3f2e 24be 507b 9c3e
000001e0: cfde 8bbc f0ce d23e 180c 07be cc3a 5a3e
000001f0: def3 29bb fece 71be e8ff 07be 14bd a73c
00000200: dec1 483e a0f6 88bd dc85 273d ac14 b4bd
00000210: 9538 a13d 8ecd 963e c011 453e b15d 883d
00000220: 9b91 2f3e 7f68 88be aff9 fa3d b310 f7bd
00000230: a195 70be 0fdb a23d 6763 403d 4c12 33be
00000240: 8d51 a4bd 077c 05bd dfc5 633d ce4e 1e3e
00000250: 3377 4ebd 7f3a 1ebe 117e 393e e819 703e
00000260: fa6c aa3e 96d1 a93e e7ff 783e a3c7 8ebd
00000270: 6f9b 2dbe ebb8 35bd 9409 20be baba 5d3e
00000280: 4416 75be 8b33 5c3e 8985 fdbd 5a07 8f3e
00000290: d207 743e 4194 50be e1e0 553d b3a2 a83e
000002a0: c8cc b23e e587 a3bd 0036 adbd 7020 65be
000002b0: d190 c03d b67a 563e 3917 09be a666 f0ba
000002c0: b2ec 92bd 5a30 963e b84f a53d 4b96 7abc
000002d0: 8199 ec3d 6041 903e 31ca 1bbe 3240 bf3e
000002e0: 3121 0f3e 3f21 473b d7e5 1fbd 414b 253c
000002f0: f27d c93e 6ab1 2d3c 266d c3bd c7c9 c53c
00000300: 6811 4bbd 7960 4bbe 10b1 fb3d 662d 90bb
00000310: 8a61 36be be9d b3bd 1eb2 063c bc04 9a3e

neuralnet.3.weight f4 [30, 200]
-0.3739889 -0.08534238 -0.2809955 0.0057454286 -0.23224181 0.056852274 -0.14279442 0.10298442
-0.40405995 -0.012616728 -0.47097003 -0.06562183 -0.09271529 -0.028648179 0.090203986 0.04001023
-0.10713071 -0.23905404 0.013698324 0.19038428 -0.13151689 -0.27158895 0.43250135 -0.287295
0.075151674 0.1036418 -0.00700145 0.003036007 0.36415625 -0.02856359 0.3003209 -0.18666944
0.05958691 -0.07110154 -0.14201774 -0.075948745 0.27557352 -0.20859264 0.12013084 -0.30926228
0.012163429 -0.20057571 -0.20509249 0.10166321 0.055569496 -0.029003926 -0.1849744 -0.16121987
-0.12447938 -0.06308231 -0.38499838 0.14356105 0.17538859 -0.043533403 -0.37438947 -0.34331203
-0.021029107 -0.07343126 0.19370118 -0.015258852 0.037847165 -0.0643853 -0.17662045 0.27119118
0.06979779 0.1531418 0.028941335 -0.06570948 -0.33006576 -0.25232494 0.21516246 -0.08188986
0.1456936 0.26605722 -0.34901467 0.048812978 -0.08287946 -0.18784049 0.22630914 0.36784625
0.30244353 0.0030717955 -0.4200862 -0.34511182 -0.26119715 -0.07433215 0.21568458 0.07930023
-0.023025274 -0.035076633 0.013339137 -0.24911384 -0.046296064 0.16886364 0.1262332 0.15663116
0.047732662 0.018266713 -0.03072183 -0.0024001317 0.02282222 -0.1230366 -0.18062866 0.0148423305
0.35980624 -0.106888875 -0.35163867 0.022818787 -0.09801843 0.0525602 -0.08957093 -0.051748518
0.051368795 0.09263517 -0.2170678 -0.09659078 -0.08191794 -0.07686844 -0.0112735955 -0.01689695
-0.02393065 0.14230268 0.06442363 -0.18293618 0.47380483 0.30030915 0.027630305 -0.117941335
-0.37835145 -0.14130461 0.14035892 -0.057024524 -0.36250186 -0.2250267 -0.3219633 -0.12459481
-0.094863266 0.27800286 -0.1593268 0.164691 0.037941545 -0.2606714 0.091890536 0.135025
0.015902085 -0.25964463 -0.29024276 0.1865667 0.10956831 0.16712898 -0.04542063 -0.1458973
-0.3862325 -0.15636933 0.023124535 0.14732629 -0.06907532 0.22863984 -0.074384876 -0.34334782
0.049420767 0.20651813 0.11690639 -0.20766 -0.41824955 0.01834716 -0.07053503 -0.10325303
-0.053306423 0.01859051 -0.070089 0.015245819 -0.25250974 -0.27519864 0.026474563 0.46216244
-0.07008765 0.16043541 -0.013135024 0.3898897 -0.1456167 -0.00043164784 -0.048204277 0.34847087
-0.1572482 -0.02316036 -0.065161824 -0.007847774 0.07898945 0.16454053 -0.02609937 0.17806524
-0.14634761 0.27978525 0.2322428 0.17752792 -0.0034056962 0.02833157 -0.043924335 0.11604169
0.15233947 0.14099538 0.13887373 0.07474822 -0.14921583 -0.008512904 0.33050868 -0.0705116
0.20540398 -0.043449957 0.21541771 0.26493207 -0.06660393 0.028251836 -0.18554555 0.017918061
0.048053853 0.3657151 -0.004401363 -0.048542578 0.47746485 0.13615449 -0.2642631 0.09649523
-0.040113334 -0.07712856 0.08439941 0.118301675 -0.1551176 0.0004619209 -0.2812367 0.15487683
0.15733331 0.073546164 -0.19499925 -0.11542989 -0.20626558 0.058614187 -0.32814026 0.27643687
-0.028273901 0.13143034 0.43081313 -0.13327973 0.10639053 -0.12980233 0.07940425 -0.016675113
-0.1363728 -0.21358354 0.38801897 0.065633096 -0.20165552 0.03211282 0.012893349 0.102255724
00000000: 797b bfbe fcc7 aebd a4de 8fbe 2644 bc3b
00000010: ccd0 6dbe eedd 683d b338 12be 7fe9 d23d
00000020: f2e0 cebe 65b6 4ebc fc22 f1be bd64 86bd
00000030: 84e1 bdbd 96af eabc debc b83d c4e1 233d
00000040: 5867 dbbd 95ca 74be ef6e 603c 19f4 423e
00000050: 5dac 06be b50d 8bbe d170 dd3e 5518 93be
00000060: 1fe9 993d 2742 d43d 6b6c e5bb bff7 463b
00000070: b072 ba3e 31fe e9bc a9c3 993e 4626 3fbe
00000080: 6711 743d af9d 91bd 196d 11be 048b 9bbd
00000090: f917 8d3e 4f99 55be 2807 f63d a057 9ebe
000000a0: 1e49 473c b863 4dbe c403 52be cd34 d03d
000000b0: d79c 633d a499 edbc ee69 3dbe d216 25be
000000c0: 0cef febd 4c31 81bd 821e c5be ab01 133e
000000d0: 1199 333e 1550 32bd faaf bfbe 98c6 afbe
000000e0: 3c45 acbc 2163 96bd 9a59 463e 4400 7abc
000000f0: a105 1b3d 71dc 83bd fedb 34be 92d9 8a3e
00000100: 25f2 8e3d 34d1 1c3e 6116 ed3c b192 86bd
00000110: 61fe a8be bc30 81be 8c53 5c3e dfb5 a7bd
00000120: b430 153e a738 883e 0db2 b2be 1ef0 473d
00000130: b5bc a9bd 4259 40be 95bd 673e 5856 bc3e
00000140: e1d9 9a3e 2d50 493b 8a15 d7be 7fb2 b0be
00000150: a2bb 85be 743b 98bd 6bdc 5c3e 2968 a23d
00000160: 809f bcbc 84ac 0fbd 658c 5a3c b317 7fbe
00000170: f1a0 3dbd 97ea 2c3e 4743 013e eb63 203e
00000180: 5383 433d 13a4 953c 59ac fbbc 874b 1dbb
00000190: aaf5 ba3c 9dfa fbbd b8f6 38be 3f2d 733c
000001a0: 8638 b83e 8ee8 dabd fc09 b4be 77ee ba3c
000001b0: e3bd c8bd 5d49 573d f770 b7bd 41f6 53bd
000001c0: 1668 523d 82b7 bd3d 0547 5ebe 63d1 c5bd
000001d0: 98c4 a7bd 336d 9dbd e3b4 38bc 796b 8abc
000001e0: 360a c4bc cbb7 113e 89f0 833d 9f53 3bbe
000001f0: 8c96 f23e 1fc2 993e f358 e23c 3a8b f1bd
00000200: 48b7 c1be 28b2 10be 40ba 0f3e 8c92 69bd
00000210: d899 b9be 666d 66be 60d8 a4be 902b ffbd
00000220: ac47 c2bd 6456 8e3e 9126 23be c2a4 283e
00000230: 9868 1b3d b976 85be 1b31 bc3d fe43 0a3e
00000240: 1745 823c 24f0 84be b39a 94be 570b 3f3e
00000250: 5a65 e03d dc23 2b3e fc0a 3abd 1a66 15be
00000260: 44c0 c5be 481f 20be aa6f bd3c b4dc 163e
00000270: 5d77 8dbd 9020 6a3e 1957 98bd 49cb afbe
00000280: 6e6d 4a3d 7d79 533e 9e6c ef3d d3a4 54be
00000290: ce24 d6be c94c 963c ab74 90bd 5376 d3bd
000002a0: d657 5abd 204b 983c d28a 8fbd 9ac9 793c
000002b0: f548 81be d6e6 8cbe 2fe1 d83c 8ea0 ec3e
000002c0: 1d8a 8fbd 2e49 243e 4934 57bc 9f9f c73e
000002d0: 8b1c 15be cb4e e2b9 d971 45bd c66a b23e
000002e0: ac05 21be ccba bdbc 9073 85bd f393 00bc
000002f0: 39c5 a13d 507d 283e 59ce d5bc bc56 363e
00000300: 26dc 15be 0340 8f3e 0ed1 6d3e e1c9 353e
00000310: 1a32 5fbb 9c17 e83c 01ea 33bd 44a7 ed3d
00000320: e1fe 1b3e 1861 103e ea34 0e3e 9815 993d
00000330: 09cc 18be b579 0bbc 6f38 a93e 6368 90bd
00000340: 6c55 523e 95f8 31bd 7696 5c3e 2da5 873e
00000350: a467 88bd 6570 e73c a7ff 3dbe e6c8 923c
00000360: 1ed4 443d 023f bb3e 4f39 90bb 95d4 46bd
00000370: 4676 f43e 156c 0b3e 7e4d 87be 4b9f c53d
00000380: e14d 24bd 94f5 9dbd 99d9 ac3d 2648 f23d
00000390: 26d7 1ebe f92d f239 42fe 8fbe 0898 1e3e
000003a0: fc1b 213e 5f9f 963d e2ad 47be 8266 ecbd
000003b0: 4937 53be 6e15 703d 0002 a8be 2289 8d3e
000003c0: ab9e e7bc ad95 063e 8a93 dc3e 7b7a 08be
000003d0: 47e3 d93d e7ea 04be b29e a23d 3f9a 88bc
000003e0: 50a5 0bbe a5b5 5abe 6caa c63e a56a 863d
000003f0: c97e 4ebe bb88 033d a03e 533c 736b d13d

neuralnet.3.bias f4 [30]
0.0051134 0.023358257 -0.06762184 0.085501194 -0.021183189 0.094644465 -0.09911236 0.14156076
0.109043494 0.053734124 -0.04179361 0.1139959 -0.070279285 0.0023433254 -0.049595136 -0.1010973
-0.01085885 -0.0121767605 0.025095893 -0.094024815 0.16730215 -0.07381988 -0.0047866935 0.28005546
0.055364832 0.05931147 0.16913646 0.15564945 -0.08281689 0.028590918
00000000: 4f8e a73b d159 bf3c 527d 8abd 401b af3d
00000010: 5e88 adbc f5d4 c13d 6cfb cabd 4ef5 103e
00000020: 3252 df3d 5018 5c3d c72f 2bbd af76 e93d
00000030: 96ee 8fbd 7a92 193b 4524 4bbd 1a0c cfbd
00000040: 51e9 31bc 0981 47bc e795 cd3c 1590 c0bd
00000050: 4151 2b3e e12e 97bd b2d9 9cbb 6e63 8f3e
00000060: 3cc6 623d 95f0 723d 1c32 2d3e 9262 1f3e
00000070: e79b a9bd 8037 ea3c

neuralnet.6.weight f4 [4, 30]
-0.18832833 0.20130083 -0.19972272 0.38979933 0.4827154 0.22953872 -0.24419692 0.8068816
-0.009804275 -0.54617876 -0.58507097 0.28160012 -0.3597424 -0.55226797 -0.36305186 -0.1267297
-0.5573034 -0.1897003 -0.49081165 0.0039503784 0.47859013 0.03474058 0.27753678 0.22832993
0.5589181 -0.12923986 0.23233652 0.33068419 -0.24816078 -0.30269837 -0.33127263 -0.45590177
-0.0141548235 -0.5648445 -0.279511 -0.559273 0.25004008 -0.2690893 -0.02256271 -0.115301535
0.17350475 0.36085308 -0.34356037 0.38857454 0.14880224 0.5211892 0.30768558 -0.672613
0.36399478 0.020568494 -0.5027716 -0.041106388 0.4528668 -0.29913986 -0.063284785 0.28215778
-0.5792106 -0.39801973 -0.49484542 -0.40543985 -0.23036885 0.37471098 -0.08005222 -0.5104265
-0.24778366 0.4591755 -0.6722013 -0.24230753 -0.16238062 0.22972319 -0.5487704 -0.26522067
0.59112906 0.2513574 -0.28905517 -0.27343407 0.16523135 0.28991333 0.3168295 -0.11882948
0.16876687 -0.10932176 -0.4158158 -0.6568273 -0.19454576 -0.56999904 0.34413368 0.33206096
0.37318832 0.5789101 0.40561762 -0.32892212 0.5678497 0.13297379 -0.069654495 -0.33139828
-0.088950135 -0.16550192 0.3028633 0.44868383 0.11298941 -0.585579 -0.1288945 -0.2130426
0.48761854 -0.16993871 0.02369986 0.38402694 -0.27075252 -0.060894154 -0.31025532 -0.09065492
-0.42122674 0.41125458 -0.21375206 0.14118345 -0.5713271 -0.56113076 -0.18844531 -0.2296462
00000000: 24d9 40be ce21 4e3e 1d84 4cbe c793 c73e
00000010: 7926 f73e 330c 6b3e c20e 7abe cb8f 4e3f
00000020: 1ca2 20bc 5fd2 0bbf 36c7 15bf e42d 903e
00000030: 2830 b8be 6f61 0dbf efe1 b9be 6ec5 01be
00000040: 70ab 0ebf cc40 42be aa4b fbbe 2d72 813b
00000050: c409 f53e 234c 0e3d 4d19 8e3e 52cf 693e
00000060: 4215 0f3f 7457 04be a0e9 6d3e 704f a93e
00000070: dc1d 7ebe 48fb 9abe 919c a9be f56b e9be
00000080: a2e9 67bc a699 10bf 111c 8fbe 842c 0fbf
00000090: 4105 803e 13c6 89be 6fd5 b8bc 3623 ecbd
000000a0: 3bab 313e bcc1 b83e 25e7 afbe 3ef3 c63e
000000b0: 9d5f 183e a86c 053f f788 9d3e 5e30 2cbf
000000c0: 865d ba3e 427f a83c a4b5 00bf 2c5f 28bd
000000d0: 28de e73e dc28 99be 749b 81bd fc76 903e
000000e0: 2547 14bf 3ec9 cbbe 615c fdbe d095 cfbe
000000f0: d0e5 6bbe 1eda bf3e 6bf2 a3bd 50ab 02bf
00000100: 00bb 7dbe 0d19 eb3e 6215 2cbf 771f 78be
00000110: 1b47 26be 8e3c 6b3e 387c 0cbf 01cb 87be
00000120: 3c54 173f ebb1 803e 0aff 93be 8dff 8bbe
00000130: 6832 293e 856f 943e 7a37 a23e df5c f3bd
00000140: 39d1 2c3e 16e4 dfbd cfe5 d4be d525 28bf
00000150: 0137 47be 75eb 11bf 4a32 b03e e503 aa3e
00000160: 8a12 bf3e 7433 143f 1dad cf3e 7b68 a8be
00000170: 995e 113f 482a 083e 04a7 8ebd 09ad a9be
00000180: 7d2b b6bd 5679 29be e610 9b3e e3b9 e53e
00000190: fe66 e73d 81e8 15bf ebfc 03be d727 5abe
000001a0: 23a9 f93e 6a04 2ebe 3526 c23c 2e9f c43e
000001b0: 13a0 8abe 266c 79bd c9d9 9ebe 49a9 b9bd
000001c0: 08ab d7be f68f d23e d2e1 5abe 6592 103e
000001d0: 7e42 12bf 44a6 0fbf cff7 40be 6028 6bbe

neuralnet.6.bias f4 [4]
-0.39666554 -0.13985339 -0.51335126 0.9349211
00000000: bf17 cbbe ba35 0fbe fd6a 03bf fd56 6f3f
