src/players/saves/Reinforce30000-1.pth (torch_old, 172230 bytes, 6 tensors)

neuralnet.0.weight f4 [200, 182]
000000 94 9e b3 bc b3 d3 e5 bb 80 e8 26 3e a8 20 fb bd
       -0.021926202 -0.007013762 0.16299629 -0.12262088
000010 67 ce 81 3e c9 c9 b1 bc aa 56 ab be d1 ca 85 be
       0.25352785 -0.021702664 -0.33464557 -0.261313
000020 1e 22 9c be 7a aa 1c 3d 98 80 6d 3e 2e f2 cd 3c
       -0.3049478 0.038248517 0.23193586 0.025139894
000030 40 4b 14 be 9e ab 57 be 81 ef 17 bd fa 1f 4d be
       -0.1448183 -0.2106156 -0.037093643 -0.2003173
000040 8c 91 08 3e 52 35 b6 3e 3b e3 94 bd b7 45 07 3d
       0.13336772 0.35587555 -0.07269903 0.03302547
000050 af 58 1c 3e e0 ac 6d be 95 29 a9 3e 63 3d dd bd
       0.15268205 -0.23210478 0.33039537 -0.10802724
000060 83 28 f1 bd 53 d4 6b be 38 93 95 bb 7b 33 36 be
       -0.11775305 -0.23030214 -0.004564669 -0.17793076
000070 7b 4c b4 3c 31 01 50 3c 00 35 c6 3d 1e 37 86 3d
       0.022009125 0.012695597 0.09678078 0.065534815
000080 b6 a2 dc bd 94 83 f5 bd 05 8a 21 3e bb d6 71 3e
       -0.10773222 -0.11987987 0.15775307 0.2361707
000090 97 ba 72 be ff e2 7b 3e f6 9b 6d be e4 a0 cd 3c
       -0.23703991 0.24598311 -0.23204026 0.025101133
0000a0 aa 57 4e 3c 4b 74 b5 3d ae 0d 93 bb fd ed d1 be
       0.012594143 0.08860072 -0.0044877147 -0.41001883
0000b0 4b da 87 3e 67 81 95 3d ba 45 f6 3d 32 19 f6 bd
       0.26533732 0.07300072 0.12025018 -0.120165244
0000c0 d3 cc 3d be 1c 14 9a be 63 57 64 be 0a 5a 0d be
       -0.18535165 -0.30093467 -0.2229896 -0.13803878
0000d0 5c ce f4 bc 6e 3a 0d 3f 5f 20 b8 3d 59 e1 eb bd
       -0.029883556 0.5516728 0.08990549 -0.11517591
0000e0 3e 39 58 3e 2f 3c 08 be 46 a2 ef 3d be 98 75 bd
       0.21115586 -0.13304208 0.11700873 -0.05996012
0000f0 36 b9 73 3e 26 95 8e 3d eb b3 49 3c 85 c4 91 bd
       0.23801121 0.069620416 0.012310962 -0.07117561
000100 b3 eb 55 3c 43 c2 56 be c5 52 4f bd a9 ea 9a be
       0.013056683 -0.20972542 -0.050616045 -0.30257156
000110 eb fb 42 bd e7 b0 89 be 34 6a 36 be a0 57 de 3d
       -0.04760353 -0.26892778 -0.17813951 0.10856557
000120 ac df 92 bd cf bd 6d 3e b5 45 d3 be f2 a6 02 be
       -0.07171568 0.23216937 -0.4126412 -0.12758997
000130 5d 8f 05 3e 9c fd 34 be 8e d0 9c 3a 9b c2 5e be
       0.1304297 -0.1767487 0.001196401 -0.21753924
000140 e3 4b 16 be 1d d4 95 3c 40 97 d4 3a 20 51 47 be
       -0.14677386 0.01828962 0.0016219392 -0.1946454
000150 79 1b 97 be a3 ed 56 be 94 05 ea bd d2 00 3a 3e
       -0.29513147 -0.20989089 -0.11426845 0.18164375
000160 f6 19 eb be 6c 72 a0 3c 07 65 8b be 1a 22 9b 3e
       -0.45918244 0.01958581 -0.27225515 0.30299455
000170 f1 59 a2 be fb 10 9f 3d ba da 5c be bc a4 12 3e
       -0.31709245 0.07766911 -0.21567813 0.14320654
000180 f2 5e fe bc 3b 7a 62 3d 42 3c 90 be d0 73 fe 3d
       -0.031051133 0.05529235 -0.28170973 0.12424433
000190 11 dd 4b be 04 c6 8f be ed 55 4d 3e 6e 17 52 be
       -0.19908549 -0.2808076 0.2005231 -0.2051675
0001a0 11 63 58 be ed 66 43 be 96 11 22 be 32 3f 43 3e
       -0.21131541 -0.19082232 -0.15827021 0.19067076
0001b0 fd 71 18 be 9c 41 40 bd 6a 4e b5 bd 67 4c 23 be
       -0.14887233 -0.04693757 -0.08852847 -0.15947114
0001c0 04 20 92 bd 78 8e 06 be 2c 4f 08 ba 12 7f 96 bd
       -0.07135013 -0.13140285 -0.0005199786 -0.073484555
0001d0 e8 ec 64 3d c1 16 b6 bd 1b 9a 7d be 22 4a 85 3e
       0.055889994 -0.08891059 -0.24765818 0.2603312
0001e0 4e 81 bf bd f4 fe b0 be 82 37 35 3d 2f 2c 99 bd
       -0.09350835 -0.34569514 0.04424239 -0.074791305
0001f0 e7 84 c4 bd 2e 9d 0f 3e ac 4c e9 3b e6 49 6f be
       -0.095956616 0.14024803 0.0071197357 -0.23368034
000200 3b 52 49 be e6 05 b1 be 6d 87 45 bd 9e 27 90 be
       -0.19660275 -0.34574813 -0.048224855 -0.28155226
000210 fc 52 ae bc 95 16 a9 bd e1 6c 1a 3d fc ab ea bc
       -0.021279804 -0.0825626 0.03770149 -0.028646462
000220 78 fd 15 bd 20 21 4b be bc e0 6b be cd 95 2c be
       -0.03661868 -0.19836855 -0.23034948 -0.1685402
000230 77 c3 f9 bc c9 92 a5 3d 85 83 ed 3d 00 de 94 bd
       -0.030488713 0.08084638 0.11597351 -0.07268906
000240 b6 17 6c 3d 49 4e 9c bd 3c ee 42 bd 00 77 3d 3d
       0.0576398 -0.07632119 -0.04759048 0.046256065
000250 fa d2 63 bb 40 3c d3 3a f8 3a 77 bc cd bc 4d 3e
       -0.0034763203 0.0016115978 -0.015089743 0.20091553
000260 91 35 72 3e 09 af 22 3e 20 0d 72 bd 82 a6 c2 3c
       0.23653246 0.15887083 -0.05909455 0.023761038
000270 c6 01 ce bc b3 77 8e be da ed 04 bd 97 e7 ce bc
       -0.02514733 -0.27825698 -0.032453395 -0.025256915
000280 f5 6f 05 bf 5d 37 9a be 32 90 f5 bd 31 f3 23 be
       -0.5212396 -0.30120364 -0.11990394 -0.16010739
000290 58 cf 8c b9 4a e3 e5 bc 36 e4 d6 be 06 8d 2d be
       -0.00026857364 -0.028062481 -0.41970986 -0.16948327
0002a0 05 2a 44 bd a1 d1 39 bd 68 ea 73 bd 35 86 9d be
       -0.047891635 -0.045365933 -0.05954972 -0.30766454
0002b0 44 dd 46 be 80 27 7e bd c6 5d d7 bc fd fa 44 be
       -0.19420344 -0.06204939 -0.026289832 -0.1923637
0002c0 e9 80 9a be 5b 16 bf be 11 c4 f2 bd b1 37 71 be
       -0.30176476 -0.37321743 -0.11853803 -0.23556401
0002d0 5b 53 10 be e1 21 84 3c aa e9 f9 3e 11 c9 49 bd
       -0.14094298 0.016129436 0.48811084 -0.049264017
0002e0 6b 8e 08 be ce ff 59 3e 65 15 08 bf 7e 84 4a 3e
       -0.13335578 0.21288988 -0.53157645 0.19777104
0002f0 ef df f9 bd 6a 31 6c 3e ec 33 2d 3f d7 22 5c 3b
       -0.12200915 0.23065725 0.6765735 0.0033590102
000300 be 57 d7 bd d4 ed a1 be 58 61 04 bf ca d5 cc be
       -0.10514782 -0.3162676 -0.51711035 -0.40006858
000310 f6 c7 a8 3e d4 52 2c 3e a2 6f cc be 8f 7e 86 bd
       0.32965058 0.16828471 -0.3992892 -0.06567108
000320 53 34 f8 be e7 6d c2 be e7 a7 6a bd 00 f0 bf be
       -0.4847742 -0.37974474 -0.05728903 -0.37487793
000330 22 69 41 be d6 46 40 3e 30 79 9c be 6b 13 00 bd
       -0.18887761 0.18777022 -0.3056121 -0.03126852
000340 a7 c5 8e be 9e 16 47 be 8d 9d 2b bf 39 dc 48 bf
       -0.27885172 -0.19442222 -0.6703728 -0.78461033
000350 a0 09 2d 3e 95 eb 51 be 45 5a e7 3e 26 0e b5 bc
       0.16898203 -0.20500024 0.45186058 -0.022101473
000360 57 bf 0f 3f e0 25 cc 3e 96 7f c4 3e d1 6b 19 3d
       0.56151336 0.39872646 0.3837859 0.037456337
000370 0e ff 43 be 6e a1 3b 3d 61 55 b1 3e 60 0a c9 be
       -0.19140264 0.04580825 0.3463545 -0.39265728
000380 a4 34 37 3e ef 3a 0b be 31 06 0b 3f d3 60 98 bd
       0.17891175 -0.135967 0.5430632 -0.07440343
000390 de 33 fd bd 51 df 71 3d c4 5c 8e 3c 78 4e fd bd
       -0.123634085 0.05905086 0.017378218 -0.12368482
0003a0 bf 3f ce be d1 5f d5 be 44 57 bd 3d e8 cb a9 be
       -0.4028301 -0.41674665 0.0924516 -0.3316338
0003b0 a4 5c 4d 3e e5 85 47 3d c0 a4 0e 3e 7b 26 8d be
       0.20054871 0.048711676 0.13930035 -0.2756842
0003c0 23 35 a9 3d 08 fc b6 3c f8 2a 20 be 95 80 9f be
       0.08262088 0.022336975 -0.15641391 -0.31152788
0003d0 f1 ac 94 3e 09 45 cf 3d 78 b7 37 bf e7 5e 82 3e
       0.29038194 0.10120589 -0.71764326 0.2546303
0003e0 5f d0 b1 3b 71 77 74 3e d3 50 ee 3e d1 ae 99 3d
       0.005426451 0.23873688 0.4654604 0.07504047
0003f0 7b a3 76 3d c2 fa 7e 3d 1b b4 54 be 89 9e 5d bf
       0.0602145 0.06225086 -0.2077183 -0.8657003

neuralnet.0.bias f4 [200]
000000 66 fb 02 bf b6 ac db 3e 40 91 e0 bd bf ae cb 3a
       -0.51164854 0.42905205 -0.10965204 0.0015539749
000010 fa 8d 3d 3e 33 38 3c be c7 f5 89 bd 78 1c 1f 3f
       0.18511191 -0.18380813 -0.067363314 0.62152815
000020 b2 11 51 be 83 39 a6 be 7a b7 11 bf 35 33 5d be
       -0.20416906 -0.32465753 -0.5692059 -0.21601565
000030 7a 60 b1 be 60 80 2d be 1b ce ce bd 1b 53 59 bc
       -0.34643918 -0.16943502 -0.10097905 -0.013264443
000040 f8 6b 46 3d c3 56 8f be c6 50 76 be 13 42 58 3f
       0.04844281 -0.2799588 -0.2405425 0.8447582
000050 ef ed 3e bd 41 5f 62 bc 17 fc 5c 3e 76 01 8d be
       -0.04661363 -0.013816656 0.2158054 -0.27540177
000060 1d 95 43 3f 73 df 70 3f f4 36 32 3f 84 2e 7b be
       0.76399404 0.94090956 0.696151 -0.24529463
000070 88 70 c3 be 49 eb 27 3f 40 a6 8f be ce 07 6f be
       -0.38171792 0.6559339 -0.28056526 -0.23342821
000080 29 8d 21 bc 17 7a 15 3f 1b d6 23 be 2e 90 7f 3d
       -0.009860315 0.5838942 -0.15999644 0.06239336
000090 e2 84 99 be 75 f2 f5 3e 25 63 be be e7 23 0b 3f
       -0.29984194 0.48036543 -0.37185016 0.5435166
0000a0 90 f2 ac 3e 2c 73 d5 be 29 3e 54 be 11 98 18 bf
       0.3377881 -0.41689432 -0.20726837 -0.59607035
0000b0 11 ef d2 be d5 d8 db 3e 70 29 7e 3e 80 cf 1a 3f
       -0.41198018 0.42938867 0.24820495 0.6047287
0000c0 46 4f 3a 3f b9 7f be 3e e4 d4 80 bd 27 d7 57 3d
       0.7277721 0.3720682 -0.06290606 0.05269542
0000d0 9b 85 c4 3e a1 28 90 be 30 71 b8 be 32 91 4b 3e
       0.38383183 -0.28155997 -0.36023855 0.19879606
0000e0 4a b2 21 3e ad 73 87 3f 33 17 3b bd e5 9c 5f 3f
       0.15790668 1.0582176 -0.04567642 0.8734878
0000f0 f0 eb 8b be b8 3c a5 be 04 9a 2e 3f 12 36 c2 bd
       -0.27328444 -0.32272887 0.6820376 -0.09482969
000100 95 0f 1b 3e 5c 79 aa 3e a5 f4 56 be 93 44 36 3f
       0.15142663 0.33295715 -0.20991762 0.71198386
000110 26 c5 35 3f 59 ce 16 bf 26 aa 34 be 0f f0 aa be
       0.7100395 -0.5890861 -0.17643031 -0.33386275
000120 e6 81 ad 3e 86 dd d4 be cd 3e 18 3f 6e 1c d0 bc
       0.33888167 -0.4157526 0.59470826 -0.025404181
000130 99 7f 05 bf 36 f0 97 bd f5 a9 35 3d d4 ef bc bd
       -0.52147824 -0.074188635 0.044351537 -0.09225431
000140 85 26 25 bf 30 ed 84 3e b3 d0 81 3f 86 33 01 3f
       -0.645119 0.2596221 1.0141815 0.50469244
000150 78 f6 53 3d 4c 3a b1 be 23 dd b7 be f4 f5 a1 be
       0.051748723 -0.3461479 -0.359109 -0.3163296
000160 1b ec 2e 3e 87 c8 2f 3e 5a 89 f8 bd 02 b2 bb be
       0.17082255 0.17166339 -0.12135573 -0.36659247
000170 be e4 8e 3d d1 23 5e be 7d c8 68 3f 90 a0 de be
       0.06977223 -0.2169335 0.9093092 -0.43481874
000180 4c ec e5 3b 55 4d 1f be 32 79 87 be a3 8f dc bd
       0.007016694 -0.15556844 -0.26459652 -0.10769584
000190 c6 80 0b 3d e9 5b 91 be 68 92 16 3f 28 82 c9 3d
       0.034058355 -0.28390434 0.5881715 0.098392785
0001a0 f5 ed a5 be 20 38 b0 be 7a 3f 44 be 8a 02 0b be
       -0.3240811 -0.3441782 -0.1916484 -0.13575187
0001b0 25 74 4d be cf db 2b 3f ac 6d 75 3e f7 0b a0 be
       -0.20063837 0.67132276 0.23967618 -0.31259128
0001c0 09 c7 85 be 97 89 c9 3e 21 5d f3 be 87 96 f8 bd
       -0.26128414 0.39362785 -0.4753199 -0.12138086
0001d0 56 47 44 3e 2e 92 cf be 7a 39 51 3f 8f 87 84 be
       0.19167838 -0.40541214 0.8172833 -0.25884673
0001e0 08 bd 93 3e f8 b3 aa be 18 c9 bb bd 90 86 38 bf
       0.28855157 -0.3334043 -0.09169215 -0.72080326
0001f0 b5 ed b9 be 29 73 51 3e 78 c2 e1 be d9 6a 96 be
       -0.3631417 0.20454086 -0.4409368 -0.29378393
000200 7f 8e 03 3f ed 88 61 bf a7 89 bc be a9 8e 2e be
       0.51389307 -0.8809956 -0.3682377 -0.17046608
000210 cc d4 01 bf 99 c1 b5 be 4c 14 03 bf e4 97 c2 be
       -0.5071533 -0.35499266 -0.51202846 -0.38006508
000220 54 1c c4 be a3 71 56 be cb ef 08 bf d0 72 37 bf
       -0.38302863 -0.20941786 -0.53490895 -0.71659565
000230 a8 de 4d 3e 8b cc cb 3c 65 60 78 be e7 f0 1d bf
       0.20104468 0.024877807 -0.24255522 -0.6169571
000240 8f 98 07 3e 6b 34 57 3e 6b 31 0c bf 39 c9 93 be
       0.1324179 0.2101609 -0.54762906 -0.28864458
000250 4a 08 da be 0c 71 c5 3e 04 86 8e be b3 99 53 be
       -0.4258445 0.3856281 -0.2783662 -0.206641
000260 6f af 86 3f 3a 0f eb 3d ee 3c d3 3e 1f bd 48 3c
       1.0522288 0.114775136 0.41257423 0.012252121
000270 97 05 18 be d4 ec a9 be b8 08 37 bf 29 24 49 3e
       -0.14845882 -0.33188498 -0.7149768 0.196427
000280 ef aa 7d 3e b3 f1 8e be ac 63 a6 be 15 94 0c bf
       0.24772237 -0.27918777 -0.3249792 -0.54913455
000290 99 ca 71 3e 67 f3 1d bf d3 8e 1e bf 83 6b 91 be
       0.23612441 -0.6169953 -0.6193668 -0.28402337
0002a0 7a 5b 0e be 36 48 79 be 44 09 62 3f 1a 12 bb be
       -0.13902083 -0.24343953 0.8829539 -0.36537248
0002b0 e3 06 06 bf ce 92 98 3d 4e e4 21 bf b4 0e 84 3d
       -0.5235426 0.07449876 -0.6323899 0.06448117
0002c0 eb 6f 1b bf 9b e4 5c 3f 4f 24 bc 3d 91 8a 41 be
       -0.6071765 0.86286324 0.09186613 -0.18900515
0002d0 f0 48 0c 3e 4a 77 06 bf 2a 31 6f 3e 00 ee 7f 3f
       0.13699698 -0.5252577 0.23358598 0.99972534
0002e0 a0 19 65 3f d0 b8 d6 3c 78 37 52 3f b3 23 c4 be
       0.89492226 0.026211172 0.8211589 -0.38308486
0002f0 d5 28 ce be 65 78 85 be c4 ec b4 be 71 3d 1e 3d
       -0.40265527 -0.26068416 -0.35336888 0.038632814
000300 e9 42 01 bf 77 ca e4 be b5 e4 3e bd de 12 f6 bd
       -0.5049272 -0.44685718 -0.04660483 -0.120153174
000310 36 fe c3 be d1 9c 52 be 63 3c 86 3e 15 36 b3 be
       -0.38279885 -0.20567633 0.26217946 -0.350022

neuralnet.3.weight f4 [30, 200]
000000 9d 88 73 bc 34 6b a0 bd 47 6d 23 be 64 cd 40 be
       -0.014864114 -0.078329474 -0.15959655 -0.1882835
000010 2b b4 f4 bd 50 cd e6 bc 66 86 66 bd 10 6d af bd
       -0.11948427 -0.028174073 -0.056280516 -0.08565724
000020 e7 ca 94 bd 1e 9f 41 bd d4 b4 3e 3d c1 63 34 bd
       -0.07265263 -0.047270887 0.04655917 -0.044040445
000030 b0 2c a0 3c 86 e4 f5 bd 7e 1d e0 3b 3e 37 0b be
       0.019552559 -0.12006478 0.0068394532 -0.13595292
000040 ab dc bf bd c0 51 5a be 36 d8 b6 3c 85 b7 b2 bd
       -0.09368261 -0.21320248 0.022319894 -0.0872641
000050 80 09 a3 bc 04 7b 6e bd f7 6c 3d be 5f 8f 44 3d
       -0.01990199 -0.058222786 -0.18498598 0.04798829
000060 5e 6c 8e bd a0 d1 88 bd b2 0c 2e bc e2 9f 2b bb
       -0.06954263 -0.06680608 -0.010623144 -0.0026187827
000070 6b 87 e5 bd 7d 71 9a bc 61 91 0f be 24 da 28 be
       -0.112074696 -0.018852944 -0.14020301 -0.16489464
000080 b9 51 0d bd aa 4c 9c bc 82 06 e8 bd f2 f7 16 bd
       -0.034501765 -0.019079525 -0.11329366 -0.036857553
000090 ee 60 14 bd 1a 23 69 bc 58 b2 07 bd 3a c6 00 bd
       -0.03622525 -0.01422956 -0.033129066 -0.031439044
0000a0 3f 0c 32 bd 16 65 5a be 7b 43 e1 bd 0c 05 44 bd
       -0.04346871 -0.21327624 -0.10999199 -0.047856376
0000b0 5f 23 18 be d6 0f 7a bd a4 4b 63 bd 38 00 04 3d
       -0.14857243 -0.06105026 -0.05549206 0.03222677
0000c0 01 1f 53 bd b6 18 f1 bd b9 e6 ed bd de 60 2c bc
       -0.05154324 -0.11772291 -0.116162725 -0.010521142
0000d0 9d 61 d0 3d 1c bc 98 bc 68 2d 06 be 45 61 76 3c
       0.10174868 -0.018644385 -0.13103259 0.015037839
0000e0 90 8c f8 bd 78 b4 ec bd b9 9f fe bd ee b0 a3 bc
       -0.12136185 -0.11557859 -0.124328084 -0.019981828
0000f0 f5 74 2e bd 34 8b 3f be cd c8 e5 bd 17 3c 8f bd
       -0.042592008 -0.18705446 -0.1121994 -0.06993883
000100 4e 74 6c bd 72 2f f5 bc dc 55 b6 3c 52 5e d8 bc
       -0.057728104 -0.02992985 0.022257738 -0.026412163
000110 27 a5 fa 3c a4 c0 63 bc 5e b3 5e be ec 1a 87 bd
       0.030596329 -0.01390091 -0.2174811 -0.06596932
000120 d6 90 df 3b 5f 1c e5 bd b8 6c dd bd 25 68 1c be
       0.0068226857 -0.11187052 -0.10811752 -0.15274103
000130 60 74 71 bd 10 38 49 bd be 16 b4 bd 3e 39 28 be
       -0.058948874 -0.04912573 -0.087934 -0.16428086
000140 eb ee 94 bd 1a dc c1 bd 03 c0 d6 bc 99 8f 82 bd
       -0.072721325 -0.09465809 -0.026214605 -0.06375045
000150 38 0f c5 3b 92 74 06 be a7 0d 88 bc 40 17 1e bc
       0.006013777 -0.13130406 -0.016608072 -0.009649098
000160 14 3d d3 bd 7b bc 55 bc 6d b5 e1 bb 31 41 cc bd
       -0.10314384 -0.0130454255 -0.0068880827 -0.09973372
000170 32 a5 82 3c cd b9 81 bd cc fd 84 bd f2 d8 4a bd
       0.015947912 -0.06334267 -0.064937204 -0.0495233
000180 0e b8 c9 bd f1 9a 21 bd d9 65 69 bd 71 e7 15 be
       -0.09849559 -0.039454404 -0.056981895 -0.14639069
000190 69 63 0d 3d 8a 4c 56 3d c2 37 6f bb 72 c9 9e bd
       0.034518633 0.052319087 -0.003650174 -0.077532664
0001a0 ab f1 47 3d 53 94 7d bd dd 8d 9e bd a4 75 c9 bd
       0.048814457 -0.06190903 -0.07741902 -0.09836891
0001b0 b6 dd fb bd c9 ce e1 bd ec 9a b1 bd 37 d8 f0 3d
       -0.122981474 -0.11025769 -0.08672127 0.1175999
0001c0 f1 ad 8d bc 79 ac 85 bc f5 53 c1 bd 37 90 8b bd
       -0.017294856 -0.016317593 -0.09439842 -0.06814616
0001d0 f4 ac 17 be 00 f7 bf bd 13 c2 13 be 51 8e 06 be
       -0.1481207 -0.093732834 -0.14429502 -0.13140227
0001e0 3a 54 85 bd b5 87 59 3c fe 37 95 bc 47 38 17 3d
       -0.065102056 0.013276984 -0.018215176 0.036918905
0001f0 b6 1d bc 3c 47 67 cf bd 12 5b 18 bd 5a c6 31 be
       0.022963386 -0.101271205 -0.037196226 -0.17360821
000200 b6 c2 3e be e9 26 24 3b d4 fe dc 3d 76 58 0c 3d
       -0.18628964 0.0025047606 0.10790792 0.03426405
000210 66 d3 73 bd 59 99 a0 3c e5 7a 70 3c 9a 62 88 bd
       -0.059527777 0.019604372 0.014677738 -0.06659432
000220 02 48 93 bd 38 12 a9 be 6f 41 08 3d 5b 33 c6 bc
       -0.07191469 -0.33021712 0.033265527 -0.02419441
000230 7d 30 10 be 24 c7 1c be c0 bf a8 bd 7a f1 58 3c
       -0.14080997 -0.15310341 -0.082396984 0.013241166
000240 9b 21 d0 bd 2f d8 26 be db 3f d5 bd 59 d9 12 bc
       -0.1016266 -0.16293405 -0.1041257 -0.0089629525
000250 04 50 3f bd 0c 25 b3 3d d7 18 f8 bc 14 e2 32 3d
       -0.04670717 0.087473005 -0.030285282 0.043672636
000260 c2 c6 89 be f7 d4 53 bd f4 87 d5 bd 70 22 04 be
       -0.26909453 -0.05171677 -0.104263216 -0.12903762
000270 18 84 30 ba a8 04 d1 bc b5 98 92 bc 56 a5 f1 bd
       -0.00067335507 -0.025514916 -0.017895082 -0.117991135
000280 8b df a1 bd 9c cc 6c bd ec 49 cc bd 2f 51 a2 bd
       -0.079039656 -0.05781232 -0.09975037 -0.07925641
000290 ee 99 0a be 29 16 22 be 87 4d 58 bd ea d4 10 bd
       -0.13535282 -0.15828766 -0.05280831 -0.0353593
0002a0 5b 03 50 be 4e 55 71 3d 53 ec cb bd 93 60 38 3d
       -0.2031378 0.058919244 -0.09957185 0.045013975
0002b0 c2 17 5e be 42 4a f8 bc 1e d7 78 bd ca 8f 80 bd
       -0.2168875 -0.030308846 -0.060752027 -0.062774256
0002c0 bd 8e aa bd 2c 49 67 3b a0 a1 b1 bd 2e e4 22 3d
       -0.083280064 0.0035291417 -0.08673406 0.03976839
0002d0 7a 0a 7f 3d 0e 0c 87 bd 81 96 91 bd 4b e0 a3 bd
       0.06226585 -0.06594096 -0.071087845 -0.08001765
0002e0 c8 3c ca bd 41 f3 65 bc 4e 7e de bd d0 69 f5 bd
       -0.09874874 -0.014035047 -0.108639345 -0.11983073
0002f0 84 7d ef bd 1f 2e 20 bd c3 da a8 bc c5 47 59 3d
       -0.11693862 -0.039106485 -0.020612126 0.05304696
000300 5f 88 19 bd f5 69 ec bd 32 3b 02 3e ad 6f 80 3c
       -0.03748357 -0.11543647 0.12717894 0.015678251
000310 25 05 df bd 94 dd 82 bd 93 e0 ae bd 37 af 73 bb
       -0.10889653 -0.06389919 -0.08538928 -0.0037183294
000320 ba ea 39 be 63 a8 0b bf a0 a1 98 be 8e 71 25 3e
       -0.18155947 -0.5455381 -0.2981081 0.16156599
000330 96 ca eb 3e 94 f7 a7 3d a4 38 1e bf 2e ac aa be
       0.46052998 0.08201519 -0.61805177 -0.33334488
000340 17 ed ed be e2 07 0b bd f3 24 07 3d f1 94 01 3d
       -0.46469948 -0.033943065 0.032994222 0.031636182
000350 99 3f 75 be 87 78 98 3f 76 a2 5d bf 34 88 dd 3c
       -0.23950042 1.1911782 -0.8657602 0.027042486
000360 c7 e5 90 bf 24 b4 0e 3e a5 6c 8b be 2e 6f a4 be
       -1.1320122 0.13935906 -0.27231327 -0.32116073
000370 5a ee 5b 3e 24 49 22 bf 41 42 c4 bd bc f9 a1 bc
       0.21477643 -0.63392854 -0.095829494 -0.019772403
000380 f2 42 c8 be 37 4a ae be 52 27 32 bf 79 8b 00 bf
       -0.39113575 -0.34040996 -0.6959125 -0.5021282
000390 de 01 03 bf 8a ed d5 be 2f 8f 2f 3e 20 3c 20 3f
       -0.51174724 -0.4178279 0.17144464 0.62591743
0003a0 aa 5a c1 be 71 d9 c7 be d2 17 a9 3e fa 57 8e 3e
       -0.37764484 -0.39033082 0.33025986 0.27801496
0003b0 39 e1 2e 3f b9 5f 98 3d e8 5a 36 3e 5c 59 2f bf
       0.6831241 0.07440133 0.17808115 -0.68495727
0003c0 bc 0c 2b bf 6f 75 3f be 3b a3 04 bf 63 c8 8b bf
       -0.66816306 -0.18697141 -0.5181157 -1.0920528
0003d0 79 e3 1c 3f 33 14 dd 3e fb 74 a5 bd 32 c5 48 bf
       0.61284596 0.43179473 -0.08078953 -0.78425896
0003e0 d9 cb 44 3c fd b3 ad be 42 fa 06 be 89 44 16 bf
       0.012011492 -0.33926383 -0.13181403 -0.58698326
0003f0 7a 9a 95 3d c2 ed 44 3d 5a 78 72 bc 0c 2f e5 be
       0.07304855 0.048078306 -0.014799202 -0.44762456

neuralnet.3.bias f4 [30]
000000 25 b8 a2 be 83 45 20 bd 08 76 45 3e 6f 3d 7e bd
       -0.31781116 -0.03912879 0.19283307 -0.062070306
000010 7b 9b d6 3e 24 bd 83 3d 7a 4f 23 bd 68 14 ae 3d
       0.41915497 0.0643256 -0.039870717 0.08499986
000020 d1 73 d5 be 44 a6 be bd 4d 04 99 3e 27 c9 b6 bd
       -0.41689923 -0.093090564 0.29886094 -0.089250855
000030 cc 4b 86 be 4c 34 1c be 01 96 80 3e 55 5b b9 3c
       -0.26229703 -0.15254325 0.25114444 0.022626558
000040 dc 44 45 be 41 c7 d4 3d e7 b5 e9 bd 4a 86 05 3e
       -0.19264549 0.10389567 -0.11411648 0.13039508
000050 cc c1 2a 3d 5a 2a fd bd 9a df d4 3c e2 3f 9c bd
       0.041688725 -0.123615935 0.025985528 -0.07629372
000060 c6 91 f9 3d 05 7b 07 be 5d 39 c8 be 20 cf 55 3e
       0.12186007 -0.13230522 -0.39106265 0.20879793
000070 26 ea c3 3e 79 22 9b bd
       0.3826458 -0.075749345

neuralnet.6.weight f4 [4, 30]
000000 87 7b d7 bd c7 5d 65 bf b8 b3 19 be 8b 23 51 3f
       -0.10521608 -0.8959622 -0.15009964 0.8169486
000010 3d e5 96 3f 42 30 5c bf 7a 69 22 3f 2e f2 9c bf
       1.1788708 -0.86011136 0.63442194 -1.2261407
000020 d7 ef 9b be cc 72 e0 3e e3 cc 37 3f 0c 27 30 3f
       -0.3045642 0.43837583 0.7179701 0.6880958
000030 c8 ae 89 bf 6c d2 90 3e c6 6b 84 3e fd 95 54 3f
       -1.0756464 0.2828554 0.25863475 0.83041364
000040 2b 8b f8 be 8d b2 3d bf 8d ca 60 bf 92 8d 83 3e
       -0.48543677 -0.7410057 -0.8780907 0.25693947
000050 91 f3 ba be 9a 21 e6 3e 2f e8 5f 3f 49 cc 48 3f
       -0.3651395 0.4494751 0.8746366 0.78436714
000060 25 c6 0b bf 0d e2 2c bf 1a d2 4a bf 08 be 35 3e
       -0.5459922 -0.67532426 -0.7922684 0.17748272
000070 31 ce 2c bf 2a 7e 0f bf ca ea 34 3c 51 52 86 be
       -0.67502123 -0.56051886 0.011042306 -0.26234677
000080 8f f3 0e bf 25 cd 81 bf b6 f8 a8 3e d3 8a 81 bf
       -0.5584039 -1.014073 0.3300225 -1.0120491
000090 3f 61 64 bf 35 1a 65 bf c1 e3 42 3f 99 ff 56 bf
       -0.89210886 -0.89493114 0.76128775 -0.8398376
0000a0 a2 4f 17 bf ee 1a 29 3e 2b 56 21 3f 50 52 2c 3f
       -0.59105885 0.16514179 0.63022107 0.673131
0000b0 8e 8c 11 3f 75 09 99 be e6 07 b2 be b4 91 99 3f
       0.56855094 -0.29890028 -0.3477165 1.199759
0000c0 a4 f2 8b 3e 85 ac 46 bf 39 f1 7c 3f 30 d7 8d bf
       0.27333558 -0.77606994 0.98805577 -1.1081295
0000d0 ff b0 82 be cf 58 ad be 37 cc 95 3f 4b c2 71 be
       -0.25525662 -0.33856818 1.1702946 -0.23609273
0000e0 39 57 d7 be 0f d8 b9 3e a9 d7 d1 3e 7f 3f 3e bf
       -0.42058733 0.36297652 0.40984848 -0.7431564
0000f0 b0 34 39 3d f7 51 92 be 1e 76 73 3f c6 8f 9a bc
       0.045216262 -0.2857816 0.9510211 -0.018867385
000100 34 52 95 bf ed 29 9f 3e a7 aa 0e 3f cc e8 5a 3e
       -1.1665711 0.31086674 0.55729145 0.21377867
000110 f9 d7 c6 bd a5 3b a7 be a4 6a 6d bf 7c 13 2b bf
       -0.09709162 -0.32662693 -0.92740846 -0.66826606
000120 50 67 91 3e 9e fb 21 bf e6 ac 13 bf d5 73 0b bf
       0.28399134 -0.6327456 -0.576857 -0.5447362
000130 d1 5f 0f 3f d1 d1 30 bf c1 5a 23 3f 15 74 e2 3e
       0.5600558 -0.69070154 0.63810354 0.4422919
000140 a0 5d 86 be b1 c5 01 3f e4 9e bf be 76 16 cf 3b
       -0.26243305 0.5069228 -0.3742591 0.006319816
000150 2e f2 17 bf fc 3e 7a 3f 23 c4 2b 3f 76 08 21 bf
       -0.5935391 0.97752357 0.67096156 -0.62903535
000160 d4 9a 41 bf 01 3e 32 be 54 60 31 be 75 5c 7b 3f
       -0.75626874 -0.17406465 -0.17321903 0.98187953
000170 08 72 e8 be 10 2e 69 bf b9 b2 c3 be 3c ae 9f 3e
       -0.453995 -0.9108591 -0.38222292 0.31187618
000180 0a cc 6a bf b5 5c f3 3e 4f 3c 3f bf 75 87 e3 3e
       -0.9171759 0.47531667 -0.747014 0.44439283
000190 d0 0c 0c 3f a7 c9 79 bf f6 e6 80 bf e0 6e 5d bf
       0.5470705 -0.9757332 -1.0070484 -0.86497307
0001a0 26 09 68 bf 15 47 83 be ce b8 bf be cb 1a 03 bf
       -0.9063896 -0.2564017 -0.37445682 -0.5121276
0001b0 9f 0b 42 bf d5 cf b2 bf 4e fd 2d bf f5 e6 4a bf
       -0.7579898 -1.3969675 -0.6796464 -0.7925866
0001c0 86 21 18 be 53 4e 09 bf ce ca 6f be b5 86 bf bd
       -0.14856538 -0.5363514 -0.23417208 -0.09351865
0001d0 e6 af 65 be dd cf 9c bf 8b 39 24 3f fe 45 3f 3f
       -0.22430381 -1.2250935 0.64150304 0.74716175

neuralnet.6.bias f4 [4]
000000 db 6e 55 c0 e2 c3 6f be 86 1f aa bf 8a 64 97 40
       -3.334891 -0.23414567 -1.329087 4.731023
