src/players/saves/RLBasic1500.pth (torch_old, 16010 bytes, 6 tensors)

neuralnet.0.weight f4 [18, 182]
00000000: e59b d93f e2df 8f3f c1f5 053f ee3f 783f
00000010: ec5f 683f a206 583f df2c 723e ec40 a1bd
00000020: 0e29 0fbf c765 26be 563e 9ebd c776 48bf
00000030: f6fd cfbf aad1 18bf 8fde e2be be87 7ebf
00000040: f8d6 5cbf 291b 16bf 5a05 bbbf 1322 8cbf
00000050: a9bb a0bf 1059 7dbf 858d 69bf c3f2 67bf
00000060: 2485 a5bf 3092 9cbf 6879 9abf 2387 cebf
00000070: 27a9 0cbf c3ed 1bbf 5f82 47bf 88e7 1dbf
00000080: 3367 89bf 0963 65bf b73b 07bd bb43 bbbe
00000090: 2042 b7be 09eb 9f3e 2caf 093d 1064 513c
000000a0: 5d9b 5e3f 467e cdbd b8a1 19bf 7d15 303e
000000b0: 9f8a 38be 9655 18be 0d20 8a3e 844f c93e
000000c0: 29af 043e 36eb 403e d24f 1bbd a905 43be
000000d0: 50b9 a7be f01a d3be f75d 0fbf 2362 ebbd
000000e0: fe7b b1be 9a53 ce3d 221f 8abf c4f9 573d
000000f0: 5f89 3b3e 52f4 223f 1b47 06be 8b2d 6f3f
00000100: f257 c03d 0db1 2cbf 0341 b0be ed2c 8ebe
00000110: a449 b93e 8e3b 5bbe 4acb 11bf ebf1 db3e
00000120: 7dcc bd3e 1995 2bbe ddad bf3e b005 923d
00000130: 72c3 05be ba16 6e3e 7cb6 a63e 4e6d 153f
00000140: 7c03 913f aa27 443c 24ca f33e a13c febc
00000150: bf21 d4be 112b 883e 05b5 123e 85f8 203d
00000160: ca43 75bf 80c6 35ba 234a b73d bc29 803f
00000170: 831f 9f3d 37bd 4b3e 3326 90be 672e 09bf
00000180: 7274 fcbe 1e58 2b3f d841 083f ce10 333f
00000190: c877 a73f 22cf 1d3f 4fc5 683f e094 1d3e
000001a0: 3342 d6bd 1846 463f f688 1bbd b205 c13f
000001b0: 8e82 ee3e fbd8 92be 4195 4a3f 5deb 383d
000001c0: 1c56 923e 8fce 8b3e 03a3 0f3f 8847 e43e
000001d0: ce6e 523c 6278 2d3f d403 713f e2c5 9f3f
000001e0: 04c5 983d b117 6f3f 182c 243f 2ccf 843c
000001f0: fe5f b03d 4e92 98bd 8b2e a83e 6685 883e
00000200: 9c59 5abe cc52 9c3e 9fb7 ce3d 70e0 e93e
00000210: 5ffe 1cbf 9bb3 3cbe 5da0 0a3f b7c9 a63e
00000220: fc05 7f3f 917e 9f3e 9493 453f 5b42 f33e
00000230: b493 ce3d c47a d83d 9235 68be dded 8ebe
00000240: fd67 d8bd a79f f53c e6a3 2c3d b6e8 eabd
00000250: 257a b83e a572 41bd 1d8d a2bd 10d2 5d3f
00000260: 0882 8ebd 2f5b c03e c84f 933f 937d 233e
00000270: 246d 833e bf37 a1bd 4a7e 94bd 3765 933e
00000280: b6b6 55be 5031 4dbf baa3 b6bf 1734 4ac0
00000290: 9e8a 0dbf a1d9 9dbf 4b15 18bf fd4b 25bf
000002a0: 4de6 a2bf 2ec1 a1bf af9b 7e3d 6cd9 b8be
000002b0: 9a8b bcbf 04c5 19bf af28 50bf c675 5abf
000002c0: 7228 2340 5ecc bf3f 24de 323f a394 723f
000002d0: 50e7 5d3f 1260 e33f 0444 5340 b9ea b23f
000002e0: b8cd d13f 745b ab3f c586 ab3f 72d2 853f
000002f0: 7593 413d c883 6f3e 74da 8b3d 6734 073f
00000300: d161 81be 9110 4b3d afc1 8abe f636 0cbf
00000310: 12a2 d2be da5d 03bf 51b1 a4be 246f d7be
00000320: 415b 6cbf ca48 27bf 2270 d6be 823e 04bf
00000330: fb51 f4be ac78 fabe 53cc 10bf 3a28 0ebf
00000340: 26d2 55bf 136c 5ebf 9dff e3be 0cd8 29bf
00000350: e060 6ebf 7845 2dbf 5cb5 1bbf a3e4 e9be
00000360: 51c8 86be a448 ccbe 95a1 0bbf 7236 81be
00000370: d5f3 a7be 9274 443d f5e5 513f 6edc aebe
00000380: 45c0 e83d fb04 8a3e 128e d1bd 8416 923e
00000390: d811 823f 5975 453c be9e e13e c1e3 5f3d
000003a0: 0e19 343f 0bab ec3d 0525 4c3d 26db 0fbe
000003b0: 4fcc 04be edcf 83bc 4b8a 99bd 35e4 853e
000003c0: de6f ebbe 00d9 a2ba 22e0 6e3f 9330 f73e
000003d0: e06f 803d 9f4f 9d3f 772a ec3e 8db4 85be
000003e0: 02cb 413e 4d0f 9a3e 9a2d 3c3e 4f18 023f
000003f0: d7a5 3cbf a919 d53e 32ba 353f 9d35 b43d
1.70007 1.1240199 0.52328116 0.9697255 0.90771365 0.8438512 0.2364993 -0.07873711
-0.5592202 -0.16249762 -0.077267334 -0.7830624 -1.6249378 -0.5969492 -0.44310424 -0.99425876
-0.86265516 -0.58635193 -1.4611008 -1.0947899 -1.2557269 -0.98964024 -0.91231567 -0.906048
-1.2931256 -1.2232113 -1.20683 -1.613499 -0.54945606 -0.6090967 -0.77933306 -0.61681414
-1.0734619 -0.8960424 -0.033015933 -0.36575112 -0.35792637 0.31234005 0.033614323 0.012780204
0.86955816 -0.1003385 -0.6001239 0.17195697 -0.1802163 -0.14876398 0.26977578 0.39318478
0.12957443 0.18839726 -0.03791792 -0.19045128 -0.3275857 -0.4123149 -0.56002754 -0.114933275
-0.3466491 0.100745395 -1.0790751 0.05272843 0.18314122 0.63654053 -0.13113062 0.9342887
0.09391774 -0.6745766 -0.344246 -0.2776865 0.36188996 -0.21409437 -0.5695082 0.42958006
0.37070075 -0.16756095 0.37437335 0.07129991 -0.13062838 0.23250857 0.325611 0.5836991
1.1329188 0.011972347 0.4761516 -0.03103477 -0.41431996 0.26595357 0.14326866 0.039299507
-0.9580656 -0.0006934181 0.08949687 1.0012736 0.07769682 0.19896398 -0.28154144 -0.5358643
-0.4930759 0.6693133 0.5322547 0.69947517 1.3083429 0.61644185 0.9092607 0.15388823
-0.10461845 0.77450705 -0.037972413 1.5079863 0.4658398 -0.28681168 0.79133993 0.045146335
0.2858132 0.2730603 0.5610811 0.44585824 0.012843801 0.67761815 0.94146466 1.2482264
0.07459453 0.93395525 0.6412978 0.016212068 0.08612059 -0.074497804 0.3284801 0.26664275
-0.21323246 0.3053192 0.10093617 0.45679045 -0.6132564 -0.18427889 0.54150945 0.3257577
0.99618506 0.3115125 0.7717831 0.47511563 0.10086766 0.10570291 -0.22676685 -0.2791585
-0.10566709 0.029983355 0.042148493 -0.11470167 0.3603069 -0.047228474 -0.079370715 0.86648655
-0.06958395 0.37569568 1.1508722 0.15965872 0.25669205 -0.07871961 -0.0725065 0.28788158
-0.2087048 -0.8015337 -1.4268715 -3.1594293 -0.5528964 -1.233204 -0.5940749 -0.64569074
-1.2726532 -1.2637079 0.06216019 -0.3610338 -1.4730103 -0.60066247 -0.8131208 -0.8533596
2.5493436 1.4984243 0.6987021 0.9475805 0.8668108 1.7763693 3.3010263 1.3977882
1.6390905 1.3387284 1.3400503 1.0454848 0.047259767 0.23390114 0.06828776 0.52814335
-0.2526994 0.049576346 -0.27100894 -0.54771364 -0.41139275 -0.5131508 -0.32166532 -0.4207698
-0.9232674 -0.6534544 -0.41882426 -0.5165788 -0.47718796 -0.4892019 -0.56561774 -0.5553013
-0.83523786 -0.8688366 -0.44530955 -0.66345286 -0.9311657 -0.67684126 -0.6082361 -0.45682248
-0.26324704 -0.3989917 -0.5454343 -0.2523685 -0.32803217 0.047962733 0.8199151 -0.3415255
0.113647975 0.26956925 -0.10232176 0.28532803 1.0161695 0.012051904 0.44066423 0.054660562
0.7035073 0.11556061 0.049839992 -0.14048442 -0.12968563 -0.016090358 -0.074970804 0.2615067
-0.45983785 -0.001242429 0.9331075 0.48279247 0.062713385 1.2289923 0.46126148 -0.26114312
0.18925098 0.300898 0.1837677 0.5081834 -0.7369055 0.4162114 0.70987236 0.087992884

neuralnet.0.bias f4 [18]
00000000: 2bcc 4d40 3a60 9d40 add2 8940 c0dc 8140
00000010: 23b7 8440 f584 b13f 9b83 3740 a384 8940
00000020: f14c 7e40 2323 3c40 9490 8740 6cb1 3d3f
00000030: 0ab0 2540 699c 9540 baa1 0f40 d4d4 6640
00000040: 94d8 6dbf 6578 eb3e
3.2155864 4.9179964 4.3069673 4.058197 4.1473556 1.38687 2.8674076 4.297441
3.9734461 2.9396446 4.2363987 0.7409885 2.5888696 4.675343 2.244246 3.60674
-0.92908597 0.4599029

neuralnet.2.weight f4 [18, 18]
00000000: 8a25 4e3e 2eee b33f fd9d 903f c0f1 8d3f
00000010: 83cc 193f 2f66 5abf 30ce e4be 7766 333f
00000020: da70 503f 8580 473e e558 9f3f 2a95 a53e
00000030: 5d87 5bbd 0bdf 963f 5657 e33e 0ed4 4e3f
00000040: cfa1 7b40 dcc8 14c0 7179 0cbe e71e e13c
00000050: 07cd 89be bf55 a13a 171c aeba 06ae debd
00000060: 7485 3f3e b83b c63d 5a1e 95bd b543 b5bd
00000070: 689a 4dbe 61d8 fdbd 3a2a 2abe 0f81 e63c
00000080: 1427 5ebd 7465 5d3d a2f1 81bd 866a 10be
00000090: 9055 9abf 06f0 683f 0b68 113f b1bf a83f
000000a0: 94a3 42bf 873a 923f f5fd 16bf 356e ae3e
000000b0: 1a49 9b3d 134d 8bbf d427 a03f da1c 813f
000000c0: bd86 0abf 0dbf 78be 08ee a13e 8791 d9be
000000d0: e0ac 0240 def5 5fc0 44fd 33be 777b 58bd
000000e0: 0acc 37bd fbde a7be d902 c13c ef92 5dbe
000000f0: 5048 4fbe 6ef2 a5bc 4a74 143d aeb5 26be
00000100: 6991 dfbc 110f d83d 10ce e83d 61b8 8cbe
00000110: 02e3 76bd c578 dfbc 9aed eb3d 37ba 98be
00000120: 7263 d4bd e80c bdbd fd83 b5bd d7a5 10be
00000130: a807 0e3d ac23 233d 89b8 6ebc 74d0 243c
00000140: e9ea 24be 7750 a4bc e656 9cbe 40af 03be
00000150: a3a8 e33d 9dc2 7fbe 6f2b 58be 2a49 153e
00000160: df45 22be ecb0 4cbe 6abb 003f 7924 283f
00000170: 07e4 6c3e c196 c33e e320 6a3f 1377 843f
00000180: 4f79 f2be 9019 243f af8d 943d d5c3 cd3d
00000190: f379 b0bc 87a8 1d40 5c8a 62c0 e5b3 173f
000001a0: 3ec9 38be 03fb 1c3f 9f13 4a3e ffb8 823f
000001b0: fe37 143e 52b6 8c3f 1515 7b3f 3b1a 313f
000001c0: e8c5 313f 958f c2bf 3796 23bf aea7 2d3f
000001d0: ec83 103f ba6d 87be 14d8 693f a689 ccbe
000001e0: 1398 e03f 8d42 523f ea82 9d3d 90a6 e33e
000001f0: 6983 6640 6dd3 e7bf b040 febd c1ce 853f
00000200: c08f 063f 7ed3 a23d 7b2f 563f 8e6c 30c0
00000210: ca72 08bf c23a 2b3f 6222 173e 7cc8 13be
00000220: 8d1d 6fbd 8906 12bf b638 b03e 146a 8c3f
00000230: 172c 3fbf 6650 2b3e 1f2a 2a40 4d77 0240
00000240: eb84 be3d 2321 92bd a314 12be 4c24 d0bd
00000250: 319c 75be 5dd5 44be bb4a 64be 97a4 92bd
00000260: f52e afbe b8af 473c fa06 543d f5b4 dcbe
00000270: ab11 8cbe f2e0 1d3d 09fe 493d ca52 73bd
00000280: 2417 283e 1442 4c3e 1712 ee3b 8d71 60bd
00000290: 1192 ad3d 3dd2 8abe 906a 9bbe 7145 b1be
000002a0: 3626 f73c 6e8f 58be 6ebb 663c 2008 90bd
000002b0: ba4d 76be d728 943c ae2e d73d 5055 27be
000002c0: d361 7ebe 3b8a af3d f847 75be adaa 933d
000002d0: 1649 5fbe 334a 44be 5b06 68be bd6c 0c3e
000002e0: c9e2 49be 544d 15be 5a5c 1ebd 6fe9 36be
000002f0: a89e d3bd 2450 8f3d 8f07 143d 4717 173e
00000300: 5234 8c3d 7164 943d 9e44 b7bd 9a06 513d
00000310: 3b82 e53d 9924 64be 0a73 a8be 965e f9be
00000320: 7236 18bf 89cb c2be b37b 03bf 7738 53be
00000330: c8c6 a9be 4f38 7cbe 389b cabe 2f8c 93be
00000340: b457 f1be 43b7 d03e 670b 853e 3383 c6be
00000350: b640 1abf 1330 acbe ee84 9f3d 522d 653f
00000360: 3cd4 f7be 93f6 bebe 788f 93bd 7078 dcbe
00000370: fad6 e9bc f93d 18bf d58a 9fbf 9023 46be
00000380: e412 a8be 542e a3be b22e 92be 6258 b83e
00000390: 4e00 9e3e 6a5d b3bd 0637 21be 1af6 a83c
000003a0: 5d1d a3be 8d04 72be 5988 ae3d d367 67be
000003b0: 2f79 3bbe d5d3 7dbe cce3 c0bd 73bd 103e
000003c0: f704 82be ea80 9f3d 09af 23bd 0a14 0abe
000003d0: 70a2 6dbe ad3f 023e 7b31 cbbb dc33 71be
000003e0: 44df 51be 6d0c adbd 5320 24be d081 323d
000003f0: bb2a 4d3e adbb 823f 4849 c03c bed4 343d
0.20131508 1.4057062 1.1298214 1.1089401 0.60077685 -0.8531217 -0.4468856 0.70078224
0.814222 0.1948262 1.2449003 0.32340366 -0.05359589 1.1786817 0.4440257 0.8079232
3.931751 -2.3247595 -0.13718201 0.027480556 -0.26914236 0.001230888 -0.0013283518 -0.10873036
0.18703252 0.09679359 -0.0728118 -0.08850805 -0.20078433 -0.123947866 -0.1661767 0.028137712
-0.054236487 0.05405183 -0.06344916 -0.14103135 -1.2057362 0.90991247 0.5679938 1.31835
-0.7603085 1.1424111 -0.5898126 0.34068456 0.075823024 -1.0882896 1.2512155 1.008693
-0.54111844 -0.2429163 0.31626916 -0.4249384 2.0418015 -3.4993815 -0.17577082 -0.05285212
-0.04487232 -0.32787308 0.023560928 -0.21638082 -0.20242429 -0.020257201 0.036243714 -0.16280243
-0.027291017 0.10549749 0.11367428 -0.2748442 -0.060275085 -0.027279267 0.11519928 -0.2982957
-0.1037053 -0.09230977 -0.088630654 -0.14125763 0.03467527 0.03982894 -0.014570364 0.010059465
-0.16105236 -0.0200579 -0.30535048 -0.12859821 0.11116149 -0.24976583 -0.21110319 0.14578691
-0.15846966 -0.19989365 0.5028597 0.6568065 0.2313386 0.38200954 0.9145643 1.0348839
-0.47358176 0.64101505 0.072535865 0.100471176 -0.021542525 2.463411 -3.5396948 0.5925887
-0.18045518 0.61320513 0.19734047 1.0212706 0.14474484 1.099314 0.98079044 0.6918065
0.69442606 -1.5200068 -0.63901085 0.67833984 0.56451297 -0.26450902 0.91345334 -0.39948767
1.7546409 0.821328 0.076909855 0.44463015 3.6017706 -1.8111397 -0.12414682 1.0453721
0.52563095 0.07950495 0.836662 -2.7566257 -0.53300154 0.6688653 0.1475921 -0.14431947
-0.05837779 -0.5704122 0.34418267 1.0969872 -0.7467665 0.16729888 2.6588209 2.0385315
0.09302696 -0.071352266 -0.14265685 -0.10163173 -0.23985364 -0.19222017 -0.22294132 -0.07160299
-0.34215513 0.012187891 0.051764466 -0.4310681 -0.2735723 0.038544603 0.049314532 -0.059405126
0.16415077 0.19947082 0.00726534 -0.05479579 0.084751256 -0.27113524 -0.30354738 -0.34623292
0.030169588 -0.21148464 0.014082773 -0.070328 -0.24053088 0.01808588 0.1050695 -0.16341138
-0.24842004 0.08571287 -0.23953235 0.07210288 -0.21805224 -0.1916893 -0.22658674 0.13713355
-0.19715418 -0.1458028 -0.038662292 -0.17862485 -0.10332996 0.069977075 0.03614002 0.14754973
0.06845917 0.0724572 -0.089486346 0.051031686 0.1120648 -0.22279586 -0.32900268 -0.48704976
-0.59458077 -0.3804591 -0.51360625 -0.20627008 -0.3315947 -0.24630855 -0.39571548 -0.2881789
-0.47137225 0.40764818 0.25985262 -0.38771972 -0.6025499 -0.33630428 0.07789026 0.8952228
-0.4840411 -0.37297496 -0.07205099 -0.43060637 -0.028544892 -0.5946956 -1.2464243 -0.19349504
-0.32826912 -0.31871283 -0.2855125 0.3600493 0.30859607 -0.08758052 -0.15743646 0.020625163
-0.3185834 -0.23634548 0.085221 -0.225982 -0.18307947 -0.24787839 -0.09418449 0.14134769
-0.25394413 0.0778826 -0.03996185 -0.13484207 -0.23206496 0.12719603 -0.006200967 -0.23554939
-0.20495325 -0.08449636 -0.16027956 0.04358083 0.20035832 1.0213524 0.023472443 0.0441482

neuralnet.2.bias f4 [18]
00000000: 5f72 cc40 d1e6 e9bc 0b91 8d40 e555 f9be
00000010: 371f 6abe 947f 633f d305 ca40 8cbb bf40
00000020: 6418 89be 6787 7ebe ffe2 a73d 411a 50be
00000030: b32c 723e a106 14bd f4d8 b740 0b51 d73c
00000040: ab5e cf3e 5a8c 7840
6.3889613 -0.028552445 4.4239554 -0.48698345 -0.2286347 0.88866544 6.313211 5.991644
-0.2677642 -0.2485634 0.08197593 -0.20322515 0.23649864 -0.036139134 5.7452335 0.026283761
0.40501913 3.8835664

neuralnet.4.weight f4 [4, 18]
00000000: 929e 54bf 1810 b2bd 5abc e6bd bd2e 783e
00000010: a9b6 053e b022 51bf 7f29 51bf c448 d3bf
00000020: 9b67 2cbe 7174 d7bc 97a4 a83d 9e9c fabe
00000030: 3502 98bc f8bb 333e b23d d1bf 5e7a ac3b
00000040: fd09 3dbe 3cc4 d2be 10a7 a4bf c57c f23d
00000050: f5d4 2dbf 0ac8 c23d 6fff 023e e2d4 3d3e
00000060: a23b 9dbf 7bea 3cbf 95e4 23bc f6e0 103b
00000070: 318f 20bd f411 b7be 1aa3 0fbe d2c4 1cba
00000080: d0ac 01bf 0880 bfbd 2d28 b03f 62f6 b1bf
00000090: f985 97bf 8e89 363e e903 afbf 260c 623e
000000a0: 9ede c43d a5c9 edbf b50e 48bf 4484 38bf
000000b0: 6c80 2dbe 3dc1 6f3d b0b0 58be 0185 a8bc
000000c0: 6e24 eebe 1ddd a4bd fe16 6cbf d45d 42be
000000d0: db72 30bf da15 023f f0cd a0bf 635b 2abe
000000e0: c479 61bf 58a9 0e3b 58d7 a1bd fa87 933e
000000f0: 8b60 cdbf 4523 9bbf 5863 363d 6af0 4fbe
00000100: 8867 823d 9f81 4d3e e71c 3fbe 4167 9e3d
00000110: 6e8e 1bbf 86d6 923d aebf 3ebf 3c6b 393f
-0.8305446 -0.08694476 -0.11266394 0.24236579 0.1305796 -0.81693554 -0.81703943 -1.6506581
-0.16836397 -0.02630064 0.08234518 -0.48947614 -0.01855574 0.17552173 -1.6346953 0.0052636107
-0.18460841 -0.4116534 -1.2863483 0.11840204 -0.6790307 0.09510811 0.12792753 0.1853824
-1.2283823 -0.7379529 -0.010003229 0.0022106743 -0.039199058 -0.35755885 -0.14027062 -0.0005980256
-0.50654316 -0.09350592 1.3762261 -1.3903315 -1.183776 0.1782591 -1.3673068 0.22074947
0.09612773 -1.8577162 -0.7814744 -0.7207682 -0.1694352 0.058533896 -0.21161151 -0.020571234
-0.4651217 -0.080499865 -0.92222583 -0.18981105 -0.68925256 0.5081459 -1.2562847 -0.16636424
-0.88076425 0.0021768417 -0.07902402 0.2881468 -1.6045088 -1.2120138 0.044528335 -0.20306554
0.06367403 0.20068978 -0.18663369 0.07734538 -0.60764205 0.07169823 -0.7451123 0.7242925

neuralnet.4.bias f4 [4]
00000000: f7c7 81c0 940b 9cc0 bedc 26c0 76cc 83c0
-4.05566 -4.8764133 -2.607223 -4.1187086
