src/players/saves/RLBasic30000-2.pth (torch_old, 16010 bytes, 6 tensors)

neuralnet.0.weight f4 [18, 182]
000000 43 4e af bf e7 1f 01 c0 69 33 0b c0 c2 4d 5b bf
       -1.3695759 -2.0175722 -2.1750128 -0.85665524
000010 de d4 ce be 68 2e e5 bf c5 1e 27 bf a5 4e 1a c0
       -0.4039678 -1.7904787 -0.65281326 -2.41105
000020 81 52 aa bf f0 70 ee bf 84 cc 9a bf 0f be 40 c0
       -1.3306428 -1.8628216 -1.2093663 -3.0116003
000030 52 1a 1e 3f 86 4d 01 bf 74 c3 04 c0 94 35 27 bf
       0.6175891 -0.50508916 -2.0744295 -0.6531613
000040 19 61 91 be 00 e8 4f bf e3 e8 cf bf 77 d0 55 bf
       -0.28394392 -0.8121338 -1.6242946 -0.8352122
000050 88 3c fa bf 0f cb 42 c0 08 79 87 bd 1a 5d af bf
       -1.9549723 -3.0436437 -0.06614882 -1.3700287
000060 5d db eb bf 91 ee 0d c0 84 4d 12 c0 db 73 89 bf
       -1.8426319 -2.217686 -2.2859812 -1.0738481
000070 d6 6c 2c c0 30 51 af bf 2e f9 b0 bf ea ff 16 c0
       -2.6941428 -1.3696651 -1.3826044 -2.3593698
000080 8b 0b 5e c0 48 2f 29 c0 36 48 1f c0 4e 19 33 c0
       -3.4694545 -2.6435108 -2.4887824 -2.7984195
000090 af 6c 31 c0 08 ed 01 c0 43 fa 85 bf c7 87 95 bd
       -2.7722585 -2.0300922 -1.0466999 -0.07301288
0000a0 d5 28 9a c0 8c 61 a2 c0 e7 a2 91 c0 80 5d 82 c0
       -4.8174844 -5.0744076 -4.5511355 -4.0739136
0000b0 37 95 7c c0 c2 a3 90 c0 69 0f 7e c0 d9 f7 85 c0
       -3.9466074 -4.51999 -3.9696906 -4.186505
0000c0 85 1d 73 c0 29 b6 82 c0 9e f2 3b c0 6c b1 50 c0
       -3.7986767 -4.0847363 -2.9366832 -3.260829
0000d0 57 b7 3e c0 54 d4 38 c0 f9 ae 0a c0 95 d5 cd bf
       -2.9799402 -2.8879595 -2.1669295 -1.6080805
0000e0 e5 70 6a bf 38 e8 11 bf a2 3e ff bf f0 dc 49 bd
       -0.91578513 -0.5699496 -1.9940989 -0.049282968
0000f0 ad a0 e4 be 57 1d d9 bf 01 c0 d4 bf 07 99 f8 bf
       -0.44653836 -1.6962079 -1.6621095 -1.94217
000100 9e 75 ec bf b5 ce e6 bf 20 5e 15 c0 90 23 3a c0
       -1.8473394 -1.8031832 -2.33387 -2.9084206
000110 a7 c5 1e c0 f7 e1 3d c0 4e 87 4c c0 c5 24 4d c0
       -2.4808137 -2.9669168 -3.1957583 -3.2053692
000120 bb da 54 c0 f6 0c 70 c0 c4 d3 6b c0 46 c5 67 c0
       -3.3258502 -3.750791 -3.6848001 -3.6214156
000130 b2 55 81 c0 36 75 8e c0 00 48 8b c0 9e a7 7a c0
       -4.041711 -4.451808 -4.352539 -3.9164805
000140 ec 1f 59 c0 2c 4d fb bf cb 22 86 bf 37 d3 26 c0
       -3.3925734 -1.9632926 -1.0479368 -2.6066415
000150 4e 02 24 c0 24 b0 e4 bf 65 2b 16 c0 a1 fd bb bf
       -2.5626407 -1.7866254 -2.3463986 -1.4686776
000160 59 45 51 c0 38 8a 70 bc ce 07 36 bf 75 92 4f c0
       -3.2698576 -0.014681391 -0.7110566 -3.243314
000170 b7 b8 3e bf 68 94 d7 bf eb 6d 1b c0 93 38 a0 bf
       -0.745006 -1.6842165 -2.4285839 -1.2517265
000180 4c 24 18 bf 88 1f ba 3e d6 b3 05 bf 01 60 f3 bb
       -0.59430385 0.3635218 -0.5222753 -0.007427216
000190 66 b0 86 bf cb 01 35 bf a8 bd bb bf b8 12 12 bf
       -1.0522583 -0.7070586 -1.4667253 -0.5705981
0001a0 ea a0 cb bf e6 84 b7 bf 7c 37 1c c0 97 b9 b1 bf
       -1.5908482 -1.4337432 -2.4408865 -1.3884763
0001b0 53 bd d7 bf 2e 10 c6 bf ba d9 37 c0 c1 5d 77 bf
       -1.6854652 -1.5473688 -2.872664 -0.9662743
0001c0 c1 2b 33 c0 d1 21 c8 bf dd e0 74 c0 60 51 44 c0
       -2.7995455 -1.563532 -3.8262246 -3.0674667
0001d0 29 1a 00 c0 8f 81 ca bf 34 0b a0 bf 1a 41 25 bf
       -2.0015967 -1.5820788 -1.2503419 -0.6455246
0001e0 22 67 25 c0 c9 49 cb bc eb 3b 13 be 0f 58 85 bf
       -2.5844197 -0.024815457 -0.14378326 -1.0417498
0001f0 5b d7 9f bf c3 d6 b0 bf 3f 83 2b c0 33 ac 21 bf
       -1.2487596 -1.381554 -2.6798856 -0.6315338
000200 3b 07 03 c0 83 04 87 bf 62 61 cc bf 7d 5e d8 bf
       -2.0473163 -1.0548252 -1.5967219 -1.6903836
000210 64 0e c2 bf 00 f7 66 c0 1f 65 bd bf 04 c6 a9 3e
       -1.5160642 -3.6088257 -1.4796485 0.33158886
000220 7b be 8c bf 67 5a 63 c0 c5 c7 99 bf 40 22 02 c0
       -1.099563 -3.5523927 -1.201409 -2.0333405
000230 ec ae 21 bf ab 53 46 bf 74 17 38 c0 61 24 70 c0
       -0.63157535 -0.7747142 -2.8764315 -3.7522204
000240 61 b8 b5 bf 18 c3 cb bf 5e ca 78 bf f7 29 2c c0
       -1.4196893 -1.5918913 -0.9718379 -2.6900613
000250 12 7d 85 c0 6f 35 03 bd 7a cb 2b bd 6c e2 21 c0
       -4.1715174 -0.03203338 -0.041942097 -2.5294447
000260 b6 04 a2 3e 7e 32 ee bf 5b f8 a5 bf 1e e4 d6 bf
       0.3164422 -1.8609159 -1.2966417 -1.6788366
000270 6d 3f 26 c0 c6 fb a4 bf 83 19 19 bf 7e 62 16 bf
       -2.5976212 -1.2889335 -0.5980455 -0.5874404
000280 f0 f0 d6 be b5 21 f4 3f 26 ad f4 3f 09 df 22 bf
       -0.41980696 1.9072787 1.9115341 -0.63621575
000290 8b 3a 86 40 9d 16 65 40 fa 93 ea 41 97 d5 c4 40
       4.1946464 3.5795052 29.322254 6.151073
0002a0 46 89 26 c0 9a c3 99 be 81 7c 10 c0 e7 46 be 3c
       -2.6021285 -0.30032045 -2.257599 0.023227168
0002b0 57 19 40 be 1d 75 d4 bf 04 98 ba be 25 99 60 bf
       -0.18759666 -1.659824 -0.36444104 -0.8773368
0002c0 df d2 8a c0 f3 5b 7b c0 0c 65 79 c0 ef c6 7e c0
       -4.338241 -3.9274871 -3.8967924 -3.980892
0002d0 bf b0 68 c0 39 19 73 c0 e9 5b ab 3f 50 56 c1 3f
       -3.6357877 -3.7984145 1.3387424 1.5104465
0002e0 c0 f0 c2 3f a1 bb 15 40 ac 77 27 3f 68 79 9e 3f
       1.5229721 2.339577 0.6541698 1.23808
0002f0 32 e9 00 40 72 1f 15 40 82 38 cb 3e d9 f8 59 3f
       2.014233 2.3300443 0.3969155 0.85145336
000300 64 7b 3e 40 64 d7 1e 3f b3 1b c8 3f d5 85 d2 3f
       2.9762812 0.6204741 1.5633453 1.6447092
000310 b9 fa 96 3f 76 dc 19 40 48 6a 0b 40 bb 32 02 40
       1.1795264 2.4040809 2.178362 2.0343463
000320 c3 f5 09 40 6b f4 a6 3f a7 61 d7 3f 72 b1 b8 3e
       2.155625 1.304334 1.6826676 0.3607288
000330 3c 1e 41 40 65 4e ab 3f 7f 48 e2 3f 92 2a 84 3f
       3.0174704 1.3383299 1.7678374 1.0325491
000340 8c b4 80 3f 2b 2f 21 3f 6e f4 f1 3f 19 36 df 3f
       1.0055099 0.629626 1.8902719 1.7438384
000350 77 23 67 3f f8 55 48 40 4b 9b b0 3f a6 d6 25 40
       0.9028849 3.130247 1.3797392 2.591226
000360 08 ea 14 40 43 21 03 40 f2 30 10 40 51 3f e4 3f
       2.3267841 2.0489051 2.2529874 1.7831823
000370 77 b5 d3 3f 1c 7e b8 3c 3c 1b ff 41 6d 74 02 42
       1.6539754 0.022521071 31.888298 32.613697
000380 a0 67 fe 41 84 03 fa 41 01 4f 02 42 3b b6 ff 41
       31.800598 31.251717 32.577152 31.96398
000390 d6 06 00 42 47 98 ff 41 42 91 ff 41 5c 82 fd 41
       32.006676 31.949354 31.945927 31.688652
0003a0 de f2 00 42 6d dd 01 42 f8 07 f9 41 bc ae ff 41
       32.237175 32.466236 31.128891 31.96032
0003b0 e6 5b 00 42 c1 f4 fc 41 d5 c2 01 42 d5 91 e8 41
       32.089745 31.619509 32.440266 29.071207
0003c0 ee 8c f1 41 5e 67 01 3d 71 55 ae 41 66 ca c4 41
       30.193813 0.03159272 21.79172 24.598827
0003d0 1c 6e c9 41 be ff ce 41 4c f1 c8 41 91 6b c9 41
       25.178764 25.874874 25.11782 25.177523
0003e0 26 0e da 41 c7 fe e4 41 c9 b1 e4 41 2a 41 f3 41
       27.256908 28.624403 28.58681 30.406818
0003f0 3a c0 f1 41 39 07 fc 41 cc 82 f2 41 26 27 fe 41
       30.21886 31.503527 30.313866 31.769115

neuralnet.0.bias f4 [18]
000000 18 60 0a c1 29 d6 c0 c1 db f5 58 c1 0a db fb 40
       -8.64846 -24.10457 -13.560023 7.870488
000010 69 0f a4 be 8c 81 01 3f 44 aa 1d 41 e4 5a 25 41
       -0.32043007 0.505883 9.854069 10.33469
000020 51 2a e7 40 c4 58 f9 3f 1f f9 23 c1 35 13 18 41
       7.2239156 1.9480214 -10.248321 9.504689
000030 b7 08 58 40 46 d7 99 c0 40 df fb 3f 03 f8 1f bf
       3.375532 -4.8075285 1.9677505 -0.6248781
000040 23 13 68 41 97 d1 19 40
       14.504672 2.4034173

neuralnet.2.weight f4 [18, 18]
000000 cb 47 3c c0 87 f0 db be a4 75 70 bd 65 b7 d5 be
       -2.941882 -0.42956945 -0.05870594 -0.4174148
000010 92 fc 57 3f 1e a7 0f bf b4 76 84 bf c7 b0 f8 be
       0.84369767 -0.56114376 -1.0348725 -0.4857237
000020 bc 31 50 3e 95 07 d5 bb 00 50 2b 3f f9 3b a0 bf
       0.20331472 -0.006501148 0.66918945 -1.2518302
000030 4f 61 fe 3f a2 c2 70 3f 4b f8 9d bf f5 75 46 bd
       1.9873446 0.94046986 -1.2341398 -0.048452336
000040 96 3f 88 bf b8 be a1 3f 0d 32 2e bf c4 da b6 3d
       -1.0644405 1.2636328 -0.6804512 0.08928445
000050 c8 04 83 bf ac 70 df be 38 a2 f9 3c af 58 02 bf
       -1.0235834 -0.4364065 0.03047286 -0.5091657
000060 20 9b 1d bf c6 cb e1 be dc ae 12 bf b0 98 c7 be
       -0.61564827 -0.4410078 -0.57298064 -0.3898368
000070 3e c3 9c bf 06 ab 55 3c fa 01 3a bd 1d 09 12 bf
       -1.2247083 0.013041263 -0.04541204 -0.57045156
000080 9e 53 91 be 8c ca 25 bf 6a 9a fd be 51 cd 9e bf
       -0.28384107 -0.64762187 -0.4953187 -1.2406408
000090 f8 ea ec bd 16 a0 f4 bd 09 3c 27 be 66 3d 54 be
       -0.11568254 -0.119445965 -0.16331495 -0.20726547
0000a0 da 6a b9 be d2 b3 4c be df 1a 90 3c f5 d9 37 bd
       -0.36214334 -0.19990471 0.017590938 -0.044885594
0000b0 1f 4b 92 be 79 c1 e8 bc 4f 66 2a be fc c5 3c 3d
       -0.28572938 -0.028412567 -0.1664059 0.04608725
0000c0 cb dd 28 bd 99 69 b4 bd 99 13 17 be ff e9 f4 bc
       -0.041227143 -0.08809204 -0.1475357 -0.029896734
0000d0 01 a4 ff bc 68 ad dd 3b 32 94 9b 3f 66 db b6 bd
       -0.031206133 0.0067650564 1.2154601 -0.08928566
0000e0 ee 32 ab be 58 60 02 3d ff 5b e9 3e 61 68 62 be
       -0.33437294 0.03183016 0.45578 -0.2211013
0000f0 c2 91 60 c1 b5 ce 22 bf 67 79 87 3f 19 9e 97 3f
       -14.035585 -0.6359666 1.0583924 1.1845123
000100 64 cd 46 3f 87 5d 12 3f 63 09 31 bf 05 e3 d3 3f
       0.7765715 0.5717396 -0.6915495 1.6553656
000110 06 fa 82 3f de 80 6a c0 7e f7 3f c0 9c bc be bc
       1.0232551 -3.6641154 -2.9994807 -0.023283295
000120 22 01 86 be 9b a2 00 be 99 b7 81 be 3e e0 92 be
       -0.2617274 -0.12562029 -0.25335386 -0.28686708
000130 c4 61 58 be f9 87 b8 be 8f 49 8f be e7 d4 95 be
       -0.21131045 -0.3604124 -0.27985808 -0.29263994
000140 d1 50 a0 be a4 50 d0 bc b5 c1 d9 bd 83 f3 3a be
       -0.31311658 -0.025429077 -0.1063265 -0.18256955
000150 62 5a 97 bd b0 89 8c be 63 04 32 be 79 22 3c bd
       -0.07390286 -0.27448797 -0.17384486 -0.045931313
000160 44 2a 5f bd 3e 86 05 bd 9f 5e 48 c0 f3 60 53 c1
       -0.054483667 -0.032598726 -3.1307752 -13.211169
000170 95 38 5b bf 9f a5 be 3f ae 4e a1 3f 08 69 5d 40
       -0.8563321 1.4894294 1.2602136 3.4595356
000180 99 28 18 40 5d 12 1b c0 17 b7 54 c0 d0 a4 d3 c0
       2.377478 -2.4229958 -3.323675 -6.6138687
000190 8c ff 1c bf 6d 23 1d 40 4b 10 b1 c0 5c fe bf 3e
       -0.61327434 2.4552872 -5.533239 0.37498748
0001a0 71 79 d1 3e cd 8b 19 3e 91 43 5a 40 5e 9b 31 c2
       0.40912965 0.14994736 3.410374 -44.401726
0001b0 32 d8 2a c0 b2 a6 cb bf d1 a5 0d c0 a1 3c c5 bf
       -2.6694455 -1.5910246 -2.2132456 -1.5409127
0001c0 8c 17 b7 3e bb 57 45 3f 93 55 cd bf 97 f1 90 bf
       0.35760152 0.7708699 -1.604174 -1.1323727
0001d0 69 70 e4 bf bd ef b9 bf a5 a2 0b bf 27 a4 f9 be
       -1.7846805 -1.4526287 -0.5454505 -0.4875805
0001e0 bc 52 21 be a8 7a 86 3f 04 72 db bf d4 70 3a be
       -0.15754217 1.0506182 -1.714417 -0.18207103
0001f0 6b fe bd 3f c2 05 d9 bf 6a 25 98 be f5 f5 41 be
       1.4843267 -1.6954882 -0.29716045 -0.18941481
000200 55 5b 38 be 9f d9 1f bf 1b 13 df be b2 4d a7 be
       -0.1800359 -0.6244144 -0.43569264 -0.32676464
000210 a6 54 20 3d 06 e9 22 bd 1e 54 b9 be e2 71 bd be
       0.039143227 -0.03977301 -0.3619699 -0.37000948
000220 d4 7c 65 be 1d 40 64 3d 3a ef 2a be 2f 90 c3 bc
       -0.224109 0.055725206 -0.1669282 -0.023872463
000230 49 72 1c be 48 09 94 be a3 08 22 bc 39 a2 34 bd
       -0.15277971 -0.2891333 -0.0098897545 -0.04410002
000240 5c 5f 17 bf e3 42 01 c0 4f 14 3c 3f 29 98 c8 be
       -0.5912988 -2.0197074 0.7346849 -0.3917859
000250 88 8a 55 bd 83 74 13 bf ea 3b 49 bf 65 79 97 bf
       -0.052134067 -0.5759966 -0.78607047 -1.1833922
000260 0c 42 05 bf 8e fc 27 bf fb 93 55 3e c7 b7 15 c0
       -0.52053905 -0.6561974 0.20857231 -2.3393419
000270 8b 75 84 bf a8 f3 84 bf 01 fa 63 c0 6f bc 92 be
       -1.0348371 -1.0386858 -3.562134 -0.28659388
000280 f8 c5 86 bf 32 eb d1 c0 19 53 f4 3f 15 ea 2f 3e
       -1.0529165 -6.5599604 1.9087859 0.17179139
000290 65 25 d4 bd 59 8e e1 3e 9c 67 50 c1 c2 1a 40 3e
       -0.10358695 0.44053915 -13.025295 0.18760207
0002a0 1e 57 a9 be 89 d9 e5 c0 5e a6 9f bf 2a 14 0b bf
       -0.33074278 -7.1828046 -1.2472646 -0.5432764
0002b0 3e 3a 05 40 a5 85 a5 3e d1 b5 0d bf 1b a5 00 3f
       2.0816798 0.32328525 -0.55355555 0.5025193
0002c0 ea 05 13 3f 8b 95 e9 3f af e1 02 c1 89 8a d7 bd
       0.574309 1.8248762 -8.180099 -0.1052447
0002d0 e0 27 a1 3f ee 3e 80 be 0c 0c 2e bd 19 ba f3 3e
       1.2590294 -0.25048012 -0.042491958 0.4760292
0002e0 cf 45 6d 3f 1c e3 8b be 66 d3 08 3f b1 19 31 bf
       0.92684644 -0.27321708 0.5344757 -0.69179827
0002f0 dd 66 bd 3e 3f 75 31 3f a7 3b 42 3f 62 e1 3a c1
       0.3699254 0.6931953 0.7587227 -11.680025
000300 e9 70 55 3f a2 72 26 40 8d e1 94 3f d5 6c 7c 3e
       0.8337541 2.6007466 1.1631333 0.24650891
000310 35 95 16 c0 16 fd f9 bd a8 c0 c0 bb 0d 24 78 bf
       -2.3528569 -0.122064754 -0.0058823414 -0.9693001
000320 9d 4b 74 bf c5 42 2e bf c2 8d 1a be 7c 06 1c be
       -0.95427877 -0.6807063 -0.15093139 -0.15236849
000330 ff 58 15 bb a4 2c 30 be 90 ba 98 be e0 9f ad be
       -0.0022788642 -0.17204529 -0.29829836 -0.33911037
000340 ed 8e 40 bf 12 25 d1 bc da 8d 23 3e 35 7e 40 bf
       -0.7521809 -0.025530372 0.15972081 -0.75192577
000350 3a 20 05 be 46 05 eb be 98 dd d8 bd 5a 8a 81 bf
       -0.13000575 -0.4590246 -0.10589141 -1.0120347
000360 98 a9 1c bf cf fb 1b bf 2a 36 1d bd 63 07 c8 be
       -0.6119628 -0.60931104 -0.038381733 -0.39068136
000370 1c 8c d2 be f2 78 3a be c4 ab b7 bf a8 f3 c6 3e
       -0.4112252 -0.182102 -1.4349294 0.3885777
000380 ce ce 84 3c 75 6a a3 be 6d 0f 14 bf 92 e4 c6 bf
       0.016211893 -0.31917158 -0.5783604 -1.5538504
000390 7f 8f af bf 03 5c 0b 3e cc 28 1a c0 a5 79 a2 bf
       -1.3715667 0.13609318 -2.40874 -1.2693373
0003a0 1d a0 67 be 8c 6e 9b c0 01 9c ab 40 94 6a 6d c0
       -0.22619672 -4.8572445 5.3627934 -3.70963
0003b0 e8 83 e3 3f 5b 16 9c bf 52 2c ee 3f 07 6e 78 3f
       1.777463 -1.2194322 1.8607275 0.9704289
0003c0 91 fb a1 be f2 74 29 c0 66 c1 1e c0 ec e1 72 bf
       -0.31637242 -2.6477628 -2.480554 -0.9487598
0003d0 1d 30 a7 c0 f8 27 0f bf ee 9a c0 c0 25 17 8b bf
       -5.224623 -0.5592036 -6.0189123 -1.0866438
0003e0 24 b1 d0 40 60 ef 36 be af a5 4b 3f 76 cc 7b c0
       6.5216236 -0.17864752 0.7954969 -3.9343543
0003f0 26 e1 28 be 89 cf 68 3d 5b e7 da be cb 43 03 bf
       -0.16492137 0.056838546 -0.42754635 -0.5127532

neuralnet.2.bias f4 [18]
000000 91 0a 50 c0 62 60 9a be d9 94 dc be f3 04 6e c1
       -3.250645 -0.3015166 -0.43082312 -14.876208
000010 95 dd a8 bc 9c a7 f6 41 a8 b9 c1 40 4a 49 95 be
       -0.020613471 30.83184 6.053913 -0.29157478
000020 8d ae 25 40 3a c4 91 c1 6b b7 90 c1 53 67 70 bf
       2.5887787 -18.220814 -18.08956 -0.9390766
000030 d1 a7 3b 40 37 13 34 42 e1 ff 47 bf 84 c2 b7 be
       2.9321177 45.018764 -0.78124815 -0.3589059
000040 66 98 3b 42 d4 9a 80 c1
       46.898827 -16.0756

neuralnet.4.weight f4 [4, 18]
000000 80 eb 5d 3f 1a 60 1b 3d f2 13 91 bd c6 8b 74 40
       0.8668747 0.037933446 -0.070838824 3.821031
000010 08 b3 02 be 72 2e 34 bf 02 48 71 be 2c fa bf 3d
       -0.12763608 -0.7038337 -0.23562625 0.093738884
000020 c5 7d 3b bf 22 7e 52 40 c2 7a e6 3c 1c e1 72 3e
       -0.73238784 3.2889485 0.028134707 0.23718685
000030 71 20 a5 bf cd 13 41 bf 1e 40 62 bd 05 c4 ce 3d
       -1.2900525 -0.7542084 -0.05523693 0.100959815
000040 c9 15 06 c0 05 9f 3c 40 0d e0 08 3f 16 27 6b be
       -2.0950797 2.9472058 0.53466874 -0.22964129
000050 1c 90 6d bd 15 51 2c bf 1d 17 88 3d 79 71 d3 be
       -0.05799876 -0.6731122 0.066450335 -0.4129751
000060 7f 1b f4 3d 54 ca b1 be 62 07 1d be 4a 94 65 40
       0.11919307 -0.34724677 -0.15334848 3.5871758
000070 c1 86 5e 40 14 d9 95 be e5 1c 2e bf 07 d1 5c bf
       3.4769747 -0.2926718 -0.6801284 -0.8625645
000080 80 6d 65 be 9f 43 aa bc ef da f0 bf 3c 80 3c 40
       -0.22405052 -0.020784197 -1.8816813 2.9453268
000090 51 65 9b 3f 26 ea 01 3f 6a 51 97 bd 51 fa 3a 40
       1.2140294 0.5074791 -0.073885754 2.921528
0000a0 b9 86 6b 3e 76 81 12 bf fb 0a 02 bf d0 30 40 bd
       0.23000611 -0.5722879 -0.50798005 -0.04692155
0000b0 d4 bd b4 3c 16 04 53 40 54 6e 3e 40 8b 01 03 3c
       0.022063173 3.2971244 2.975484 0.007995973
0000c0 2b d6 e4 3a ea 1d 94 bf 2c 90 16 3f 5e 04 5a 3c
       0.0017458847 -1.1571629 0.5881374 0.013306705
0000d0 c3 db c6 bf c3 03 63 40 e1 85 be 3f b3 b6 21 bf
       -1.5535816 3.5471046 1.4884607 -0.631694
0000e0 a4 6d 4e 3d 6e d1 7d 40 ce 01 a1 3d bb 92 23 be
       0.05039753 3.9659076 0.07861672 -0.15973942
0000f0 1b 30 a6 3f a4 45 06 be a4 a2 60 bd d7 1e c1 3e
       1.2983431 -0.13112503 -0.054842606 0.3771884
000100 04 f3 67 40 11 47 21 3f 04 57 c0 3d 6b 43 6d bf
       3.6242075 0.62999064 0.09391597 -0.92680997
000110 45 50 c5 be 3c dc 49 bd bb 1c 0d c0 75 1a 6e 40
       -0.38537803 -0.049282297 -2.2048786 3.7203648

neuralnet.4.bias f4 [4]
000000 dc 75 a7 c1 6a 65 b3 c1 7e 1d 64 c2 62 94 b4 c1
       -20.932549 -22.424519 -57.0288 -22.572453
