src/players/saves/RLBasic5-4.pth (torch_old, 16010 bytes, 6 tensors)

neuralnet.0.weight f4 [18, 182]
0.3544188 0.04284058 -0.0351337 0.064227395 -0.020145414 0.04919231 0.22636354 0.1736306
0.15621209 0.0024132838 0.20744587 -0.12966564 0.15511388 -0.15700066 0.03980297 0.074796066
0.0009214031 0.13789581 -0.1297128 0.14944968 0.13694774 0.116264045 0.17003089 0.18090154
0.03563919 0.12586023 -0.12502776 0.0013059959 0.073967524 0.104319744 0.20825408 0.042267907
0.21668886 0.074898295 -0.01370195 0.010086034 -0.048476063 0.01740217 0.10123646 0.03651072
0.08084311 0.17948502 0.09663331 0.16920039 0.11743139 0.07266558 0.029908111 0.18096463
0.15462476 0.020991335 0.027109804 0.22064155 0.15260607 0.16483125 -0.046599265 0.056331716
-0.020597853 0.12983143 -0.16203266 0.018717133 0.41172948 0.066556916 0.07838687 0.34304994
0.21738997 0.033662345 0.13515209 0.0448548 0.17394827 0.074853085 0.1516568 0.060870253
-0.13895026 0.14010642 0.1604614 -0.10713444 0.107206196 0.0867728 0.08553598 0.082503706
-0.0138335135 0.078773856 0.03622087 -0.0024947044 0.09260018 -0.11959719 0.12983939 0.16230777
-0.03455129 0.071249336 0.5058855 0.10378042 0.21282293 0.36762783 0.3133701 0.04375674
0.00037726448 0.11053391 0.103385314 0.3365782 0.16858038 0.17489192 0.016345961 -0.026468465
-0.057746727 0.043318823 0.07659368 -0.16959728 -0.119123034 -0.01297857 -0.1323497 0.22057003
0.22066674 -0.16489983 0.0050940844 0.0010861423 0.024446558 0.01512207 -0.03897031 -0.022125298
-0.016978052 0.09748454 -0.069114536 0.31819353 -0.029469218 0.036431793 -0.17579879 0.029479746
-0.2482919 -0.10830553 -0.027514376 -0.11227594 -0.037089437 0.00046774183 -0.028823791 -0.0733643
-0.056434248 -0.13714924 0.110956565 -0.12994939 -0.05734624 -0.030781072 -0.11346822 -0.015300871
-0.16319466 -0.12941955 -0.15638994 0.028135667 -0.15200934 -0.030574884 0.76411486 -0.19671664
0.05283776 0.08914485 -0.16298318 -0.2423443 0.15378448 0.048917104 0.12879844 -0.1025523
0.7391418 0.75248843 0.82143253 0.6286609 0.51012456 0.6876152 0.8784715 0.4811269
0.44912562 0.5917609 0.5445536 0.6295158 0.82383186 0.36217383 0.73116314 0.6735634
0.46584138 0.5890861 0.58231807 0.5320767 0.46846256 0.42568114 0.1822256 0.14969467
-0.06839652 0.090646066 0.020094704 -0.03318808 0.14089702 0.21321405 0.115253516 0.038470082
0.0081427 -0.04324021 0.09144858 -0.202411 0.17415227 -0.04227745 -0.12558374 0.0932247
-0.16542532 0.04721115 0.07008523 0.021967841 -0.056047205 -0.03447015 -0.046137977 0.065106705
-0.008307723 -0.015348304 0.078457266 0.0019797988 0.19417407 -0.021008732 0.13988946 0.014724827
0.015839538 -0.0053923125 0.006707441 -0.0141601525 0.097781524 -0.06919391 0.01959781 0.21642755
0.12496167 0.014921054 -0.07800345 0.052537005 0.010909566 0.110314555 -0.043226507 -0.01494997
-0.058854647 0.051552087 0.13934432 0.11671727 -0.12302767 -0.057982624 -0.028773524 0.19374523
-0.12294008 -0.010791734 0.1098315 0.11966146 -0.17872731 -0.0033480418 0.23931941 0.061144494
0.04274651 0.0031120896 -0.061091725 -0.07949654 0.032985732 0.013659518 -0.09000378 0.13576004
00000000: 6276 b53e 9b79 2f3d 5be8 0fbd a789 833d
00000010: ff07 a5bc e07d 493d d8cb 673e 38cc 313e
00000020: 10f6 1f3e 2f28 1e3b b16c 543e 12c7 04be
00000030: 2cd6 1e3e c8c4 20be 7008 233d ae2e 993d
00000040: 518a 713a 8f34 0d3e 6fd3 04be 5609 193e
00000050: 073c 0c3e d81b ee3d 941c 2e3e 413e 393e
00000060: 66fa 113d 81e1 003e 4707 00be f32d ab3a
00000070: 497c 973d 97a5 d53d 8f40 553e 1d21 2d3d
00000080: afe3 5d3e 4764 993d 257e 60bc e53f 253c
00000090: d68e 46bd ff8e 8e3c 1055 cf3d 448c 153d
000000a0: 1391 a53d ecca 373e afe7 c53d de42 2d3e
000000b0: de7f f03d b1d1 943d db01 f53c cb4e 393e
000000c0: f455 1e3e 05f6 ab3c 6115 de3c dcef 613e
000000d0: c444 1c3e 86c9 283e dfde 3ebd 16bc 663d
000000e0: d4bc a8bc 88f2 043e e4eb 25be ac54 993c
000000f0: 35ce d23e fe4e 883d 4c89 a03d 3ea4 af3e
00000100: 7a9b 5e3e 87e1 093d 4f65 0a3e abb9 373d
00000110: 7f1f 323e 934c 993d ec4b 1b3e 1653 793d
00000120: fa48 0ebe 0f78 0f3e fe4f 243e 4d69 dbbd
00000130: ec8e db3d f0b5 b13d 7d2d af3d b4f7 a83d
00000140: f6a5 62bc 3054 a13d 565c 143d 327e 23bb
00000150: 2aa5 bd3d 5fef f4bd 9ef4 043e 0234 263e
00000160: a785 0dbd 2ceb 913d b681 013f d48a d43d
00000170: 41ee 593e b739 bc3e 0c72 a03e 443a 333d
00000180: 95cb c539 9a5f e23d aebb d33d fa53 ac3e
00000190: 56a0 2c3e de16 333e f7e7 853c 65d4 d8bc
000001a0: d587 6cbd 146f 313d 26dd 9c3d e9aa 2dbe
000001b0: c7f6 f3bd 11a4 54bc ae86 07be 1cdd 613e
000001c0: 76f6 613e 80db 28be 47ec a63b e35c 8e3a
000001d0: 2644 c83c 8fc2 773c 559f 1fbd 1d40 b5bc
000001e0: 8e15 8bbc f9a5 c73d ec8b 8dbd 43ea a23e
000001f0: 6e69 f1bc 8139 153d 9904 34be 827f f13c
00000200: 3b40 7ebe 4acf ddbd d465 e1bc eef0 e5bd
00000210: 18eb 17bd 3f3b f539 df1f ecbc 0640 96bd
00000220: 9927 67bd da70 0cbe 323d e33d 7411 05be
00000230: e4e3 6abd 9628 fcbc 0762 e8bd 81b0 7abc
00000240: 801c 27be 8f86 04be af24 20be c57c e63c
00000250: 56a8 1bbe 2e78 fabc 089d 433f 1670 49be
00000260: 686c 583d 9391 b63d 10e5 26be 1b29 78be
00000270: ae79 1d3e 4d5d 483d bde3 033e f106 d2bd
00000280: 6638 3d3f 15a3 403f 6749 523f ecef 203f
00000290: 8697 023f 8d07 303f 82e3 603f 4456 f63e
000002a0: cbf3 e53e a47d 173f dd67 0b3f f327 213f
000002b0: a5e6 523f d96e b93e 822d 3b3f a76e 2c3f
000002c0: c382 ee3e 59ce 163f cc12 153f 2e36 083f
000002d0: 53da ef3e e1f2 d93e 5999 3a3e 8f49 193e
000002e0: 7a13 8cbd a5a4 b93d a69d a43c 39f0 07bd
000002f0: 4f47 103e c954 5a3e 090a ec3d ce92 1d3d
00000300: f668 053c a51c 31bd 6549 bb3d d444 4fbe
00000310: f954 323e 1f2b 2dbd 0699 00be 97ec be3d
00000320: 4165 29be 7b60 413d d888 8f3d e7f5 b33c
00000330: c191 65bd 9230 0dbd 2dfb 3cbd aa56 853d
00000340: 1e1d 08bc 7477 7bbc 34ae a03d 83bf 013b
00000350: 91d5 463e 811a acbc 2f3f 0f3e 6740 713c
00000360: ebc1 813c ffb1 b0bb 18ca db3b fcff 67bc
00000370: ae41 c83d 89b5 8dbd 968b a03c 2f9f 5d3e
00000380: e7eb ff3d 7077 743c 46c0 9fbd 0b31 573d
00000390: 09be 323c 99ec e13d 470e 31bd b8f0 74bc
000003a0: 9211 71bd 4828 533d 47b0 0e3e 7709 ef3d
000003b0: eef5 fbbd 307f 6dbd 74b6 ebbc 2665 463e
000003c0: 02c8 fbbd d0cf 30bc 56ef e03d 1111 f53d
000003d0: 4b04 37be d26a 5bbb 2610 753e a672 7a3d
000003e0: f716 2f3d 33f4 4b3b 513b 7abd 15cf a2bd
000003f0: 0c1c 073d 2ccc 5f3c e753 b8bd ae04 0b3e

neuralnet.0.bias f4 [18]
1.3666836 0.8895246 0.6431593 1.3384686 1.2914801 1.0044833 1.1760602 1.3234394
1.2260807 1.44038 1.2846371 1.2811197 1.3440049 1.3513088 1.4187683 1.281011
1.2632785 1.3849205
00000000: 7def ae3f e2b7 633f 16a6 243f f052 ab3f
00000010: 384f a53f e992 803f 2489 963f 7666 a93f
00000020: 36f0 9c3f 5f5e b83f fd6e a43f bbfb a33f
00000030: 5a08 ac3f b0f7 ac3f 339a b53f 2bf8 a33f
00000040: 1cb3 a13f 1345 b13f

neuralnet.2.weight f4 [18, 18]
0.14434868 0.15418382 0.141643 -0.03140159 6.748927e-05 -0.065531775 0.21187864 -0.11437096
-0.10317776 0.19177234 0.18684345 -0.07549889 0.067338735 0.023200942 -0.25175783 -0.18237908
-0.12990548 -0.14026567 -0.075897336 -0.12321932 0.21535186 0.22187407 0.1354901 0.0047643334
-0.1476181 -0.045729667 0.14154594 -0.19922778 -0.072869375 0.17952503 -0.20166099 -0.088616565
-0.19945294 0.22422664 -0.16825621 0.057167158 -0.07276741 -0.006015986 -0.16740622 -0.13676694
0.18040355 -0.1566983 0.1452957 -0.2305028 -0.03175001 -0.17508431 -0.113362044 0.06814416
-0.18757483 0.055210277 -0.15696594 0.1334864 0.0013568997 -0.014566541 -0.08967998 -0.17910293
0.079866156 0.04246979 0.10320118 0.25963047 -0.16056712 -0.09422704 -0.25681525 0.046907235
-0.029075827 0.21013635 0.18360962 -0.14554828 0.0941699 0.031014254 -0.062100776 -0.2545358
1.3264862 0.9285449 0.68633336 1.2728051 1.4094496 0.9349398 1.4037501 1.4547731
1.0007226 1.3460658 1.394578 1.1953781 1.2707347 1.1181175 1.303841 1.311593
1.2297566 1.3379534 1.239897 0.59360665 0.44138888 1.2766373 1.3291639 0.98279047
1.2205435 1.4207538 1.3836052 1.213515 1.3064152 1.3755312 1.375212 1.3801163
1.4176797 1.453364 1.2264631 1.3253536 -0.11869949 -0.08101085 0.15178646 -0.2533505
-0.112619296 -0.09835023 0.056267474 -0.07752738 -0.18303289 0.13227502 0.14946744 -0.09835355
-0.1677064 -0.19169182 -0.02989258 -0.049207576 0.1356108 -0.049305156 0.83628684 0.89562315
0.59779495 1.0341432 1.0155002 1.131108 0.689081 0.9071452 0.7709978 1.0466942
0.7297925 0.91855377 1.1338966 0.89159787 1.0697557 1.0442263 0.89382493 0.88867146
-0.22450274 -0.051473677 -0.09165048 0.059855156 -0.062136374 -0.19734032 -0.32089233 -0.12402474
-0.28855735 0.056664277 0.15479764 0.16070588 0.19921298 0.0014503844 -0.05656751 0.049756423
0.15217808 -0.266991 -0.21006945 0.20803757 -0.047288008 -0.042912047 -0.013184519 -0.1756461
0.09759444 -0.025160665 -0.006289464 0.16288681 0.03790918 -0.22484615 -0.15448959 0.07264243
0.10549385 0.19456352 0.23480824 -0.22301245 1.1676892 0.8580677 0.6207077 0.9539063
1.1328522 1.0630487 1.1165652 1.2930386 1.0136111 0.9161564 1.118111 1.1842483
1.2431083 0.95453125 0.97112954 1.2911645 1.0135862 1.2609311 0.10672827 -0.11405195
0.14458354 0.013083629 0.21100987 -0.20858541 0.1068673 -0.10359316 -0.25377873 -0.042856313
0.07664878 0.035104256 -0.2267302 -0.24270436 -0.0060402015 0.0063746753 -0.077557705 -0.17012489
-0.111192346 0.057320137 0.092235774 -0.1938139 -0.13543892 -0.16861157 0.12587294 -0.24039795
-0.05849475 0.04965607 0.043836303 -0.07231865 0.15396155 0.052396666 -0.14078507 0.15646054
0.15835044 -0.030450609 -0.2800971 -0.20011324 0.13331543 -0.16245347 0.13438435 0.1599204
0.09541562 0.16699488 0.01659641 -0.10708092 0.07619821 0.122520596 -0.23937733 -0.14787644
-0.13804436 -0.18614858 -0.26316 0.06518644 -0.22526897 0.022056088 0.20666926 -0.14149988
00000000: 24d0 133e 5de2 1d3e dd0a 113e f49e 00bd
00000010: 0789 8d38 8635 86bd b7f6 583e 523b eabd
00000020: dd4e d3bd f85f 443e e453 3f3e 299f 9abd
00000030: e4e8 893d e70f be3c 67e6 80be 95c1 3abe
00000040: f105 05be cea1 0fbe 1070 9bbd 695a fcbd
00000050: 3385 5c3e f532 633e ebbd 0a3e 201e 9c3b
00000060: 3329 17be 084f 3bbd 6bf1 103e 5e02 4cbe
00000070: 8a3c 95bd 69d5 373e 3880 4ebe 9a7c b5bd
00000080: 643d 4cbe ab9b 653e 5b4b 2cbe 1c28 6a3d
00000090: 1407 95bd c021 c5bb 896c 2bbe a20c 0cbe
000000a0: b5bb 383e 8575 20be 65c8 143e ed08 6cbe
000000b0: 4c0c 02bd 4d49 33be 5c2a e8bd 2a8f 8b3d
000000c0: 9e13 40be 2c24 623d aebb 20be a9b0 083e
000000d0: 00da b13a 80a8 6ebc 23aa b7bd c266 37be
000000e0: de90 a33d cdf4 2d3d 245b d33d 49ee 843e
000000f0: b56b 24be 1bfa c0bd 4a7d 83be cd21 403d
00000100: 6e30 eebc fc2d 573e 2904 3c3e 9c0a 15be
00000110: 26dc c03d 9b11 fe3c 625d 7ebd 8452 82be
00000120: 4dca a93f 1eb5 6d3f 8bb3 2f3f 47eb a23f
00000130: d868 b43f 3758 6f3f 15ae b33f 0136 ba3f
00000140: ae17 803f e24b ac3f 8881 b23f 2602 993f
00000150: 6fa7 a23f 791e 8f3f 43e4 a63f 48e2 a73f
00000160: aa68 9d3f 0f42 ab3f f2b4 9e3f 9bf6 173f
00000170: b9fd e13e da68 a33f 0b22 aa3f 2898 7b3f
00000180: c53a 9c3f 43db b53f fa19 b13f 7654 9b3f
00000190: 9d38 a73f 6811 b03f f206 b03f a7a7 b03f
000001a0: 8776 b53f d507 ba3f befc 9c3f 30a5 a93f
000001b0: b818 f3bd 04e9 a5bd e96d 1b3e 28b7 81be
000001c0: f2a4 e6bd d86b c9bd b978 663d adc6 9ebd
000001d0: f96c 3bbe 1a73 073e fe0d 193e 966d c9bd
000001e0: 3abb 2bbe dc4a 44be 49e1 f4bc e28d 49bd
000001f0: 8fdd 0a3e 34f4 49bd e516 563f 8f47 653f
00000200: 1709 193f ce5e 843f e9fb 813f 26c8 903f
00000210: 9d67 303f ab3a 683f 1d60 453f 13fa 853f
00000220: aed3 3a3f 5726 6b3f 8623 913f c23f 643f
00000230: c1ed 883f 35a9 853f b6d1 643f f97f 633f
00000240: 0ce4 65be 10d6 52bd 3fb3 bbbd ae2a 753d
00000250: b682 7ebd 9513 4abe 004c a4be af00 febd
00000260: cabd 93be cd18 683d 4683 1e3e 1590 243e
00000270: 7dfe 4b3e d31a be3a 55b3 67bd 64cd 4b3d
00000280: 92d4 1b3e 0bb3 88be 721c 57be cd07 553e
00000290: 12b1 41bd 8bc4 2fbd e103 58bc 92dc 33be
000002a0: 98df c73d bd1d cebc d917 cebb cdcb 263e
000002b0: a846 1b3d 123e 66be 8532 1ebe 8ec5 943d
000002c0: 290d d83d a93b 473e 9271 703e 605d 64be
000002d0: d776 953f 53aa 5b3f b3e6 1e3f 3433 743f
000002e0: 4d01 913f fb11 883f 9ceb 8e3f 4a82 a53f
000002f0: 02be 813f 3a89 6a3f 431e 8f3f 7395 973f
00000300: 2c1e 9f3f 295c 743f f29b 783f e144 a53f
00000310: 31bd 813f 3166 a13f 5a94 da3d 1294 e9bd
00000320: b50d 143e b85c 563c f912 583e 6a97 55be
00000330: 3edd da3d a728 d4bd 49ef 81be 1a8a 2fbd
00000340: 09fa 9c3d 7bc9 0f3d f62b 68be 7e87 78be
00000350: e2ec c5bb a7e2 d03b 93d6 9ebd 3835 2ebe
00000360: d0b8 e3bd 85c8 6a3d 1ce6 bc3d 2777 46be
00000370: 80b0 0abe 83a8 2cbe d6e4 003e e12a 76be
00000380: 3198 6fbd 2a64 4b3d b28d 333d cd1b 94bd
00000390: 19a8 1d3e e39d 563d f629 10be 3137 203e
000003a0: 9e26 223e 8e73 f9bc e368 8fbe 7cea 4cbe
000003b0: d783 083e 345a 26be 0d9c 093e 2cc2 233e
000003c0: 4469 c33d b500 2b3e 32f5 873c 3e4d dbbd
000003d0: cf0d 9c3d 14ec fa3d 551f 75be ec6c 17be
000003e0: 805b 0dbe bc9d 3ebe e8bc 86be 7880 853d
000003f0: e9ac 66be f8ae b43c 1ba1 533e 58e5 10be

neuralnet.2.bias f4 [18]
-0.21974316 -0.08071102 -0.12381629 -0.1716576 1.2788001 1.1959001 -0.089752674 0.71704745
-0.22593305 -0.12046269 0.84441346 0.035227306 -0.0752025 -0.22238672 -0.23028375 -0.21182832
0.1191742 0.019241288
00000000: 5a04 61be d24b a5bd 6593 fdbd 03c7 2fbe
00000010: b9af a33f 4113 993f 40d0 b7bd 6c90 373f
00000020: fe5a 67be 25b5 f6bd 7b2b 583f 824a 103d
00000030: c503 9abd 58b9 63be 81cf 6bbe 86e9 58be
00000040: 9a11 f43d e89f 9d3c

neuralnet.4.weight f4 [4, 18]
0.03121765 0.05129595 -0.16228852 0.063894674 -0.67643666 -0.54599196 0.18720327 -0.48871773
0.2635819 -0.28249738 -0.45564246 -0.16234623 0.18292779 0.0062288227 0.08082272 0.095843896
-0.116285995 0.024692 0.120607 -0.012579858 0.19921194 0.06560609 -0.71703285 -0.7532639
0.034135297 -0.5432626 -0.06817693 -0.2800521 -0.6434882 0.024113616 0.012398429 -0.21930182
0.16640843 0.04103683 -0.1637368 0.086034276 -0.10112937 0.12288137 -0.11491268 0.15152873
-0.9083534 -0.77606285 -0.00023315847 -0.37195557 0.18027362 -0.21172646 -0.62733763 0.17393447
0.07414217 -0.22071993 -0.07392937 0.17601337 0.0552638 -0.01461284 0.003928139 -0.23100138
0.068136916 -0.26481244 -0.64034873 -0.63416165 -0.016437436 -0.75735784 -0.19945386 0.06676216
-0.63280463 0.09116676 0.027285561 -0.22981137 -0.112593845 0.11129685 0.05594024 0.13786457
00000000: 28bc ff3c b41b 523d f62e 26be 36db 823d
00000010: f42a 2dbf 21c6 0bbf 37b2 3f3e 3639 fabe
00000020: 35f4 863e 7fa3 90be f849 e9be 173e 26be
00000030: 6c51 3b3e 271b cc3b 6286 a53d ce49 c43d
00000040: 5a27 eebd e146 ca3c ce00 f73d c01b 4ebc
00000050: 37fe 4b3e 7c5c 863d 778f 37bf e7d5 40bf
00000060: 74d1 0b3d 4213 0bbf 59a0 8bbd fd62 8fbe
00000070: a5bb 24bf eb89 c53c c822 4b3c a890 60be
00000080: f966 2a3e 3c16 283d 9faa 27be bd32 b03d
00000090: ea1c cfbd 3aa9 fb3d 5757 ebbd 592a 1b3e
000000a0: d989 68bf 0eac 46bf 007c 74b9 f670 bebe
000000b0: a699 383e d2ce 58be 3399 20bf e11b 323e
000000c0: dad7 973d 6804 62be 4868 97bd d93c 343e
000000d0: 4b5c 623d b16a 6fbc 9eb7 803b a08b 6cbe
000000e0: 5e8b 8b3d 7f95 87be e5ed 23bf 6b58 22bf
000000f0: cda7 86bc 34e2 41bf a23d 4cbe 99ba 883d
00000100: 7cff 21bf a3b5 ba3d f885 df3c ac53 6bbe
00000110: 9a97 e6bd 9aef e33d 9821 653d 5f2c 0d3e

neuralnet.4.bias f4 [4]
-0.42010066 -0.24514358 -0.31274813 -0.5562208
00000000: 6f17 d7be eb06 7bbe 8620 a0be 7d64 0ebf
