src/players/saves/RLBasic5-1.pth (torch_old, 16010 bytes, 6 tensors)

neuralnet.0.weight f4 [18, 182]
0	0x3e7ee206	0.24890909
1	0x3d183a14	0.037164763
2	0x3e016661	0.1263671
3	0x3d888d73	0.06667604
4	0xbe4570a1	-0.19281246
5	0xbdd09e20	-0.1018641
6	0x3de9e01f	0.11419701
7	0x3e71389f	0.23556755
8	0xbd50923e	-0.050920717
9	0xbe775149	-0.24152102
10	0x3a54a12e	0.0008111176
11	0xbe0b1752	-0.13583115
12	0xbd20ea9a	-0.039286233
13	0x3c9efe9a	0.019408513
14	0xbdcbfa1f	-0.09959816
15	0x3b333e9e	0.0027350555
16	0xbe1b1ed8	-0.15148485
17	0xbcbeab24	-0.023274966
18	0xbcba716c	-0.022759162
19	0xbe39104c	-0.18072623
20	0xbe110eb8	-0.14165771
21	0xbcea625b	-0.028611353
22	0xbd8d3b2d	-0.068960525
23	0x3d5da412	0.054111548
24	0x3c634fb1	0.01387398
25	0xbe4f9fd7	-0.20275818
26	0xbd700e5f	-0.058607455
27	0xbd817488	-0.06321055
28	0x3c80cfa2	0.015724007
29	0xbc983943	-0.018581992
30	0xbdca37fb	-0.09873959
31	0xbdd1d15b	-0.102450095
32	0xbdd49315	-0.10379616
33	0xbdf0731f	-0.117407076
34	0xbc993142	-0.018700246
35	0x3cb24ed3	0.021766102
36	0xbc71c30f	-0.014755978
37	0x3d64433b	0.05572818
38	0x3d5baec5	0.05363347
39	0x3c2851c0	0.010273397
40	0x3cb11155	0.02161471
41	0x3b9c9dab	0.0047795377
42	0x3d39e3ed	0.045383383
43	0x3dac2012	0.084045544
44	0x3d908664	0.07056883
45	0x3d985015	0.074371494
46	0xbde5a9b6	-0.112140104
47	0x3def6754	0.1168963
48	0xbdb14e27	-0.086574845
49	0x3ce14146	0.027496945
50	0xbdb08dfa	-0.0862083
51	0xbdbba452	-0.09162201
52	0x3c46147d	0.012089846
53	0x3e423b79	0.18968
54	0x3bb55cde	0.0055347523
55	0x3e0bf50b	0.13667695
56	0xbdbdd521	-0.09269167
57	0x3d9739ea	0.07384093
58	0x3dbfe874	0.09370509
59	0xbc0e7848	-0.0086956695
60	0x3e47105d	0.19439836
61	0x3e5fb27d	0.21845432
62	0x3d85efb7	0.065398626
63	0x3d836c84	0.06417182
64	0x3e261118	0.16217458
65	0x3e0ea442	0.13929847
66	0xbd34754d	-0.04405718
67	0x3df94ea4	0.12173203
68	0x3d8e88b1	0.069596656
69	0x3db509d8	0.08839768
70	0x3e66514e	0.22491953
71	0xbd2513fc	-0.04030226
72	0xbd3ed820	-0.04659283
73	0x3c51184f	0.012762143
74	0xbd379e65	-0.04482879
75	0x3b7e3dfd	0.0038794272
76	0xbd85828f	-0.06519043
77	0x3d2d52d5	0.042315323
78	0xbbd32de1	-0.006444678
79	0x3d7caea7	0.06169
80	0x3d02e6e5	0.03195848
81	0x3d2e1b74	0.04250665
82	0x3de54b9c	0.11196062
83	0x3d85ee1c	0.065395564
84	0x3cca8147	0.024719847
85	0xbae03400	-0.0017105341
86	0xbb68c4e4	-0.0035517747
87	0xbcc1a893	-0.023639953
88	0xbd8056bb	-0.062665425
89	0xbc5952cc	-0.013264369
90	0x3eb2e2eb	0.3493875
91	0xbdda1a75	-0.106495775
92	0x3db1d1d7	0.08682602
93	0x3dcb08f7	0.09913819
94	0x3e66b37f	0.2252941
95	0x3c247094	0.010036606
96	0x3de0f74d	0.10984669
97	0x3d074d92	0.03303296
98	0x3e680e24	0.22661644
99	0x3c8083b9	0.01568781
100	0xbd8a0e5a	-0.067410186
101	0x3d1a283f	0.037636038
102	0x3daecebd	0.08535526
103	0x3e017e51	0.12645842
104	0xbcfd06b9	-0.030886995
105	0xbe2e0e34	-0.16997606
106	0xbd3fef88	-0.046859294
107	0xbd7cbccd	-0.061703492
108	0xbd20180c	-0.039085433
109	0xbdadc78b	-0.084853254
110	0xbdae3748	-0.08506638
111	0x3c25119a	0.010074997
112	0xbe0f7be6	-0.14012107
113	0xbd88ceb8	-0.066800535
114	0x3cf4884a	0.029850144
115	0x3d77f902	0.060540207
116	0x3e312983	0.17300992
117	0xbcbf175a	-0.023326565
118	0x3d2b674a	0.04184655
119	0x3e16626b	0.14685981
120	0xbc4bf0ae	-0.012447519
121	0x3e0a70f4	0.1351965
122	0xbd55329a	-0.05205021
123	0x3e9388ce	0.2881531
124	0xbc9646a6	-0.018344235
125	0x3df6bb62	0.12047459
126	0x3e22fb68	0.15916216
127	0xbc19d3da	-0.009388888
128	0x3e00e92a	0.12588945
129	0xbdb3b75a	-0.08775206
130	0xbe46a878	-0.19400203
131	0xbd84aea1	-0.0647862
132	0x3d228e83	0.03968669
133	0xbd7c8d65	-0.06165828
134	0xbc414238	-0.011795573
135	0xbde9d3e7	-0.1141737
136	0x3dcf04db	0.10108348
137	0x3e34e435	0.17665179
138	0x3dbfc0b7	0.09362929
139	0x3ca2cfb3	0.01987443
140	0x3e25c7f0	0.16189551
141	0x3ba85d55	0.005138079
142	0x3ca9fb01	0.02074957
143	0x3c8e96bb	0.017405858
144	0x3d73e402	0.059543617
145	0x3d209ad0	0.03921014
146	0x3dd2f5e6	0.10300808
147	0xbc3b6209	-0.011436948
148	0x3d878c9d	0.06618617
149	0xbd01e70a	-0.031714477
150	0x3e569e34	0.20958787
151	0x3d2297c9	0.039695535
152	0x3e14b121	0.14520694
153	0xbd526daf	-0.051374134
154	0xbdd7eb15	-0.10542885
155	0xbd466eea	-0.04844562
156	0x3ceb7b5c	0.028745346
157	0x3e4fdd63	0.20299296
158	0xbd85e8cb	-0.06538542
159	0x3d188320	0.037234426
160	0x3f22ada0	0.6354618
161	0x3e868d3a	0.26279622
162	0x3e9cc228	0.3061688
163	0x3e23e722	0.16006139
164	0x3db93d49	0.09044892
165	0x3e2fb120	0.17157412
166	0x3e99e6f7	0.30059025
167	0x3ef31f4c	0.47484815
168	0x3c9e7b41	0.019345881
169	0x3e64730e	0.22309515
170	0x3ef880b6	0.485357
171	0x3e2ee17f	0.17078207
172	0x3e0fa6de	0.14028499
173	0x3e631e41	0.2217951
174	0x3ef28634	0.47368014
175	0x3e4ce7c3	0.20010285
176	0x3e965cc0	0.29367638
177	0x3e82ace7	0.2552254
178	0x3ed4af98	0.41540217
179	0x3ed1f0b7	0.41003963
180	0x3ec1f517	0.378823
181	0x3e586797	0.21133266
182	0x3dd10242	0.10205509
183	0x3c83886c	0.016056262
184	0x3e003fba	0.1252431
185	0x3df576c2	0.11985542
186	0xbe3d03f2	-0.18458536
187	0x3c674928	0.014116563
188	0x3d5ba859	0.053627346
189	0x3e96e697	0.294728
190	0xbd9dbd8e	-0.0770217
191	0xbe6eaacc	-0.23307341
192	0x3beda46c	0.0072522666
193	0xbe28467d	-0.16433139
194	0xbd465460	-0.04842031
195	0xbc77d01a	-0.015125299
196	0xbddcba43	-0.10777714
197	0x3e0c23f0	0.13685584
198	0xbdc278c3	-0.0949569
199	0xbe149764	-0.14510876
200	0x3d887268	0.06662446
201	0xbe479f19	-0.19494285
202	0xbd2cb47d	-0.042164315
203	0xbd93be98	-0.07214087
204	0x3d1c867d	0.038214196
205	0x3e1cd483	0.15315442
206	0xbb8315e3	-0.004000412
207	0xbe654a35	-0.22391589
208	0xbd100663	-0.03516234
209	0xbe1b256a	-0.15150991
210	0xbe0adb23	-0.13560157
211	0xbca4f3c8	-0.020135775
212	0xbce7e688	-0.028308168
213	0xbe2f3032	-0.17108229
214	0xbe4215eb	-0.18953674
215	0xbe84d8bd	-0.25946608
216	0xbde458f4	-0.11149779
217	0xbe0adaa1	-0.13559963
218	0xbd45770b	-0.04820923
219	0x3c3ed3e5	0.011647199
220	0xbc6d75fa	-0.01449346
221	0xbd807d43	-0.06273892
222	0x3c6bb603	0.014386657
223	0x3d914a93	0.07094302
224	0xbcb223b2	-0.021745536
225	0x3dc449ec	0.09584412
226	0xbd0f325d	-0.03496014
227	0x3c8a95f4	0.016917206
228	0xbdaff5f2	-0.08591832
229	0x3e4cb313	0.19990186
230	0x3cb7c802	0.022434238
231	0xbc94e00f	-0.018173246
232	0xbb124152	-0.0022316766
233	0x3de14dce	0.11001168
234	0x3cb07d77	0.021544201
235	0x3e18ad38	0.14909828
236	0x3d83d77b	0.06437584
237	0x3db8abef	0.09017169
238	0xbce19225	-0.027535507
239	0x3e091bd9	0.1338953
240	0x3d26cf4c	0.040725037
241	0x3caec13c	0.021332376
242	0x3ebf769d	0.37395182
243	0x3d80dc5c	0.0629203
244	0x3d98abad	0.074546196
245	0x3e5b784d	0.2143261
246	0x3db1e920	0.08687043
247	0x3dae0684	0.084973365
248	0xbd21570f	-0.039389666
249	0x3de8ad74	0.113612086
250	0x3e0118f7	0.1260718
251	0x3dd3c460	0.1034019
252	0x3df383c2	0.11890365
253	0xbddde28c	-0.10834226
254	0x3c85c3b3	0.016328668
255	0x3db7dec6	0.089780375

neuralnet.0.bias f4 [18]
0	0x3f499cd0	0.787549
1	0x3f8eab3b	1.1146005
2	0x3fa1ccb4	1.2640595
3	0xbe1c6200	-0.15271759
4	0x3e61bc8d	0.22044583
5	0x3f5ef6fc	0.8709562
6	0x3f7e0b9a	0.9923645
7	0x3f9667da	1.1750443
8	0xbdc32149	-0.09527833
9	0x3f93e70f	1.1554888
10	0x3f9c7e1e	1.2225988
11	0x3f99ada6	1.2006118
12	0xbd87f082	-0.0663767
13	0x3f82f127	1.0229844
14	0x3f397efb	0.7245938
15	0x3fa9a1d8	1.3252516
16	0x3fa73b0e	1.3064897
17	0x3fa59bfb	1.2938226

neuralnet.2.weight f4 [18, 18]
0	0x3f2d396a	0.6766573
1	0x3f4832e3	0.78202647
2	0x3f19613a	0.5991398
3	0x3e84664a	0.2585929
4	0x3ef2978b	0.47381243
5	0x3eb111e5	0.34583965
6	0x3f21f3fa	0.63262904
7	0x3f191fbf	0.59814066
8	0x3d584a11	0.05280501
9	0x3f306044	0.6889689
10	0x3f0b7c65	0.54486686
11	0x3ed2e296	0.41188496
12	0x3d65dbd5	0.05611785
13	0x3f016163	0.50539225
14	0x3f07c67d	0.53037244
15	0x3eca2938	0.39484572
16	0x3f49fd54	0.78902173
17	0x3f5445f1	0.8291922
18	0x3eeb58fa	0.4596632
19	0x3f235c55	0.6381276
20	0x3f509fd5	0.81493884
21	0xbe4dc2e7	-0.2009388
22	0x3e6cb469	0.23115696
23	0x3ee7c6ab	0.4526876
24	0x3f2bf5a4	0.6717169
25	0x3f3b2749	0.7310682
26	0x3d6e4ff2	0.05818171
27	0x3f45b114	0.77223325
28	0x3eedbdf6	0.4643399
29	0x3ef18069	0.47168282
30	0xbde37844	-0.11106923
31	0x3f1759d6	0.59121454
32	0x3f2ae7ed	0.6676014
33	0x3f28231c	0.6567857
34	0x3edcb8a0	0.43109608
35	0x3f226434	0.6343415
36	0x3f54cb54	0.83122754
37	0x3f823f97	1.0175656
38	0x3f99e20d	1.202211
39	0xbdfb119f	-0.1225922
40	0x3ddf2b81	0.108969696
41	0x3f7925d2	0.97323334
42	0x3f98c254	1.1934304
43	0x3f856e4a	1.0424283
44	0x3e215f90	0.1575911
45	0x3f7bedba	0.98409617
46	0x3f5a8b69	0.85368973
47	0x3f683844	0.90710855
48	0xbd3ac9d1	-0.045602623
49	0x3f6e6a69	0.9313112
50	0x3f3d389c	0.73914504
51	0x3f9223a6	1.1417129
52	0x3f9bc77c	1.2170253
53	0x3f6abdc7	0.9169583
54	0x3f0fc3fc	0.56158423
55	0x3f6dacbe	0.9284171
56	0x3f582d3d	0.8444403
57	0x3d9ce54a	0.07660921
58	0x3dfc8bb2	0.12331332
59	0x3f03caac	0.5148113
60	0x3f6d635c	0.92729735
61	0x3f55f050	0.8356981
62	0x3dcd100b	0.100128256
63	0x3f4636bc	0.7742727
64	0x3f1ed29c	0.62040114
65	0x3f2a0da5	0.6642707
66	0xbe066c98	-0.13127363
67	0x3f6dab4e	0.92839515
68	0x3f344f40	0.70433426
69	0x3f83f679	1.0309592
70	0x3f7f0a8f	0.99625486
71	0x3f659f0f	0.8969583
72	0xbe698229	-0.22803558
73	0x3e48a37b	0.19593613
74	0xbdcb5300	-0.0992794
75	0x3e0b00a5	0.13574465
76	0x3e619e55	0.22033055
77	0xbda0dfd4	-0.07855192
78	0x3debe072	0.11517419
79	0xb9336c00	-0.00017111003
80	0xbe288476	-0.1645678
81	0xbdb7975a	-0.08964415
82	0xbdf65d32	-0.12029494
83	0x3e0e2411	0.13880946
84	0x3e3f9877	0.18710504
85	0xbe290fd7	-0.16509949
86	0xbe612ca0	-0.2198968
87	0xbe4a0cc4	-0.19731432
88	0xbccbc990	-0.024876386
89	0xbe110368	-0.14161456
90	0x3f4dd5f6	0.80404603
91	0x3f682622	0.90683186
92	0x3fac5604	1.346375
93	0xbde85166	-0.113436505
94	0x3e9584b2	0.292028
95	0x3f150013	0.5820324
96	0x3f5330aa	0.8249613
97	0x3f79d742	0.9759408
98	0xbde9d3ca	-0.11417349
99	0x3f7b607f	0.98194116
100	0x3fab3338	1.3375006
101	0x3f9e792f	1.2380732
102	0xbde4c2a6	-0.11169939
103	0x3f667fdb	0.9003884
104	0x3f4bc576	0.79598176
105	0x3fb11a95	1.3836237
106	0x3fa0b874	1.2556291
107	0x3f9d6d27	1.2298936
108	0x3d32145a	0.04347644
109	0x3e61ac40	0.22038364
110	0xbe23c9c5	-0.15994938
111	0x3e2f23a5	0.17103441
112	0xbe47ed3e	-0.19524094
113	0xbe50fd69	-0.20409168
114	0xbe2ede19	-0.17076911
115	0xbd8063dc	-0.06269047
116	0x3dad58c0	0.08464193
117	0xbe50005d	-0.20312639
118	0x3e542332	0.20716551
119	0xbe26c5dd	-0.16286416
120	0x3bb29c5e	0.0054507693
121	0xbdbd71ce	-0.09250222
122	0xbe41d04c	-0.18927115
123	0xbe3fe6e5	-0.18740423
124	0xbd3653e5	-0.0445136
125	0xbdb02afa	-0.08601947
126	0x3f399421	0.7249165
127	0x3f49a706	0.7877048
128	0x3f8cecdf	1.1009787
129	0x3c9afb88	0.018918768
130	0x3e8107d9	0.252013
131	0x3f5c2044	0.85986733
132	0x3f3e22ab	0.7427165
133	0x3f70c17f	0.9404525
134	0xbdf43981	-0.119250305
135	0x3f6bfa91	0.9217921
136	0x3f5682d8	0.837934
137	0x3f62211c	0.8833177
138	0xbdefb494	-0.117043644
139	0x3f39d1ae	0.7258557
140	0x3f368285	0.71292907
141	0x3f492b05	0.7858127
142	0x3f8af46b	1.085584
143	0x3f5fdfe6	0.87451017
144	0x3d5e6af9	0.054301236
145	0x3e1838a3	0.14865355
146	0xbdf9cb4e	-0.121969804
147	0xbc04f63a	-0.008115346
148	0xbe911c44	-0.28341877
149	0x3e3d4e07	0.18486796
150	0xbd640631	-0.055669967
151	0xbe2101b1	-0.15723301
152	0xbddbb4c4	-0.10727838
153	0x3d8c5197	0.068514995
154	0x3e15eb6e	0.1464059
155	0xbe80dd99	-0.25169066
156	0x3dd2ad99	0.102870174
157	0xbdd1c1e3	-0.10242059
158	0x3d1ec371	0.038760606
159	0x3e39cf4a	0.18145481
160	0xbe5c4c69	-0.21513523
161	0xbd820074	-0.06347743
162	0x3f6861f6	0.90774477
163	0x3f8bbadc	1.09164
164	0x3f884526	1.0646102
165	0x3d7caaf6	0.06168648
166	0x3e7bf934	0.24606782
167	0x3f6823a2	0.9067937
168	0x3f84a745	1.0363547
169	0x3f87cd3e	1.060951
170	0x3e6799fc	0.22617334
171	0x3f87a5f3	1.0597519
172	0x3f9987f0	1.199461
173	0x3f8644bc	1.0489726
174	0xbccdd288	-0.025124803
175	0x3f636105	0.88819915
176	0x3f08b4e1	0.53401
177	0x3f80daef	1.0066813
178	0x3f87f69c	1.0622134
179	0x3f7e627a	0.99369013
180	0x3f3ae421	0.7300435
181	0x3f39f3fe	0.7263793
182	0x3f8939cc	1.0720763
183	0xbe00bc21	-0.12571765
184	0x3e25deba	0.16198245
185	0x3f032712	0.5123149
186	0x3f392474	0.7232125
187	0x3f5eee11	0.8708201
188	0x3dcee89e	0.10102962
189	0x3f70692e	0.9391049
190	0x3f7bd2ec	0.98368716
191	0x3f2bc389	0.6709524
192	0xbe04ae85	-0.12957199
193	0x3f329898	0.6976409
194	0x3f260245	0.64847213
195	0x3f81aeae	1.0131433
196	0x3f64749f	0.8924045
197	0x3f244b36	0.6417726
198	0x3d9abf0e	0.07555972
199	0x3e011261	0.12604667
200	0xbce0b648	-0.027430668
201	0xbe5fb251	-0.21845366
202	0xbe46555a	-0.19368497
203	0xbe256a2e	-0.16153786
204	0x3db6cf34	0.089262396
205	0xbe433dc0	-0.19066525
206	0x3e09af6d	0.13445826
207	0x3e037114	0.12836105
208	0x3de2ef9b	0.11080857
209	0xbc704f7f	-0.014667391
210	0x3e5262e6	0.2054554
211	0xbe2ea319	-0.17054404
212	0x3d2b0573	0.041753244
213	0xbd2ae641	-0.041723493
214	0xbe88c0be	-0.2670955
215	0x3df8b28a	0.121434286
216	0x3e6ade0d	0.22936268
217	0xbdfe8106	-0.12426953
218	0xbcc884d5	-0.024477402
219	0xbe2c0602	-0.16799167
220	0x3cd51ef8	0.026015744
221	0xbe11b734	-0.14230043
222	0x3e4c91e7	0.19977532
223	0x3e1f3f3a	0.15551463
224	0x3da0cd03	0.07851603
225	0xbe04b51a	-0.1295971
226	0x3e077d75	0.13231452
227	0xbe0107dc	-0.12600654
228	0xbe76b067	-0.2409073
229	0x3c9973e0	0.018732011
230	0xbe59d061	-0.21270896
231	0xbd2b08eb	-0.04175655
232	0x3da199ec	0.078906864
233	0xbe96cc07	-0.29452536
234	0x3f10a77b	0.56505555
235	0x3f8106d3	1.0080208
236	0x3f9ac737	1.2092046
237	0x3e1c1d45	0.1524554
238	0x3d8636b2	0.06553401
239	0x3f450e05	0.7697452
240	0x3f35d2b3	0.71024626
241	0x3f93e4f7	1.155425
242	0x3dbba0da	0.091615394
243	0x3f6d62ca	0.92728865
244	0x3f87b39f	1.0601691
245	0x3f753c87	0.9579548
246	0x3e8408be	0.2578792
247	0x3f332bb2	0.6998855
248	0x3f2ae356	0.6675314
249	0x3f6bb1c2	0.9206811
250	0x3f587b1a	0.8456284
251	0x3f9d4abe	1.2288435
252	0x3f66058d	0.8985222
253	0x3f400404	0.7500613
254	0x3f5b349f	0.8562717
255	0xbce019c1	-0.02735603

neuralnet.2.bias f4 [18]
0	0x3f256073	0.64600295
1	0x3f2b7f49	0.66991097
2	0x3f9153f9	1.1353751
3	0x3f2aac02	0.66668713
4	0xbd01a4e8	-0.031651407
5	0x3f9aeae3	1.2102932
6	0xbce7b992	-0.028286729
7	0x3f2e20ea	0.6801897
8	0x3dc961ff	0.098331444
9	0x3f63cd2f	0.8898496
10	0x3f4348af	0.7628278
11	0xbd5ff536	-0.05467721
12	0xbe1a5d86	-0.15074739
13	0x3f4ffc60	0.8124447
14	0x3f1501be	0.58205783
15	0x3ebb9c9a	0.36642915
16	0x3f2509c5	0.6446803
17	0xbdef991d	-0.11699126

neuralnet.4.weight f4 [4, 18]
0	0xbe998ccd	-0.29990235
1	0xbf17c25c	-0.59280944
2	0xbf2a9233	-0.6662933
3	0xbe955fd8	-0.29174685
4	0xbe39ea26	-0.18155727
5	0xbf2ee447	-0.68317074
6	0xbe2e1c43	-0.17002968
7	0xbf0b1abd	-0.54337674
8	0x3db1ae0f	0.08675777
9	0xbf2bdaa4	-0.67130494
10	0xbf259933	-0.6468689
11	0xbe6d9f8b	-0.23205392
12	0xbd7fbb7c	-0.06243466
13	0xbf267a55	-0.65030414
14	0xbf01150d	-0.50422746
15	0xbe872be8	-0.26400685
16	0xbf14ac8a	-0.58075774
17	0x3c70e765	0.014703606
18	0xbeb64f14	-0.35607207
19	0xbe8f1c8d	-0.2795147
20	0xbf282fe4	-0.65698075
21	0xbf111419	-0.5667129
22	0xbca23bd8	-0.019803926
23	0xbf4aab6c	-0.7916782
24	0xbd0e6dc6	-0.034772657
25	0xbf1536cc	-0.5828674
26	0xbe650a3f	-0.2236719
27	0xbf318876	-0.6934885
28	0xbebb9885	-0.366398
29	0x3de64e16	0.112453625
30	0xbda3d31d	-0.07999251
31	0xbf330b89	-0.69939476
32	0xbec47dd0	-0.38377237
33	0xbe9c786f	-0.30560634
34	0xbf1e7faf	-0.6191358
35	0xbdc0b8b5	-0.0941023
36	0xbf1928ec	-0.59828067
37	0xbee7493c	-0.4517306
38	0xbeef2052	-0.46704346
39	0xbf35f68d	-0.7107933
40	0x3d8b9d5a	0.06817122
41	0xbf48e8a7	-0.7848
42	0x3e33ebbb	0.17570393
43	0xbed2287b	-0.4104651
44	0xbd775780	-0.06038618
45	0xbf4c4331	-0.79790026
46	0xbf0de4f9	-0.5542751
47	0x3e175c86	0.14781389
48	0xbca0f2aa	-0.019646961
49	0xbed184a8	-0.4092152
50	0xbf1e6bf9	-0.61883503
51	0xbf0b16d2	-0.54331696
52	0xbf0d010d	-0.5507973
53	0x3d0ee242	0.034883745
54	0xbf1c5ec5	-0.61082107
55	0xbf032ade	-0.51237285
56	0xbf111118	-0.5666671
57	0xbeed18a9	-0.46307877
58	0xbdd87fb8	-0.105712354
59	0xbf022593	-0.50838584
60	0x3e4a23ff	0.19740294
61	0xbefd882c	-0.49517953
62	0xbd39c42d	-0.045353103
63	0xbe9c02c8	-0.30470872
64	0xbf0cc387	-0.5498585
65	0xbe051b72	-0.12998751
66	0x3e479591	0.19490649
67	0xbf07c7a3	-0.53038996
68	0xbe8f273c	-0.2795962
69	0xbf000d8a	-0.5002066
70	0xbdf51b2c	-0.11968073
71	0x38a52f89	7.876667e-05

neuralnet.4.bias f4 [4]
0	0xbf00adb9	-0.5026508
1	0xbef6a6b4	-0.4817406
2	0xbee0f117	-0.43933937
3	0xbea6ffbf	-0.32616994
