src/players/saves/RLBasic10.pth (torch, 6991 bytes, 4 tensors)

gc.weight f4 [4, 8]
000000 20 3d 77 bc de 3c 4f 3e e3 56 52 be b5 75 48 be
       -0.015090257 0.20238063 -0.20540957 -0.19576152
000010 dd ba f0 3d 64 fe a6 3e 00 f1 14 bc 95 8e 77 3e
       0.11754391 0.3261596 -0.009090662 0.24175484
000020 ac 46 90 be 38 99 93 3d 91 ac af be cd 71 66 be
       -0.28178918 0.072069585 -0.34311345 -0.22504349
000030 92 aa a7 3e a9 32 08 be 34 0c 80 be 4e 66 2d bc
       0.32747322 -0.13300575 -0.2500931 -0.010583473
000040 c8 be 2d bd ca bb 19 3e 09 c1 99 3e 2f 36 3e bd
       -0.04241827 0.15013042 0.30030087 -0.046438392
000050 a3 45 b8 be 42 9a ff 3d b8 94 32 bd b8 d9 93 be
       -0.3599063 0.12480594 -0.04359886 -0.28877044
000060 a8 9c ac 3d 11 b2 77 3d be 83 71 3e 1e a5 3d 3e
       0.08428317 0.06047255 0.23585412 0.18520018
000070 46 20 20 be 4f de 4c be a5 46 09 be 04 5c 92 bb
       -0.15637311 -0.20006679 -0.13405855 -0.0044665355

gc.bias f4 [8]
000000 b0 43 19 bd 57 cc 04 3d f4 21 6e be 16 b4 75 3e
       -0.037418067 0.032421436 -0.2325514 0.23994479
000010 ca 99 86 3e 69 6a aa be ce 2f 2d be 0b ca af 3e
       0.26289207 -0.3328431 -0.16912767 0.34333834

ln.weight f4 [4, 320]
000000 8a ca 22 3d 6c f2 e2 bc 7e 1e 42 bd 5c ba e7 bc
       0.039743938 -0.027703486 -0.04739236 -0.028287105
000010 b4 eb 4c 3c 9e 42 2b bd 68 ed 02 bc 2c 6b c7 bc
       0.012507368 -0.041811578 -0.007991172 -0.024343096
000020 90 f0 c2 3b 77 86 21 bc 42 86 21 bd cc d8 bc 3c
       0.0059490874 -0.009858719 -0.03943468 0.023052596
000030 c9 8f fe bc d0 99 c8 bb 16 b1 a8 bc 44 84 53 3c
       -0.031074421 -0.0061218515 -0.020592254 0.012909953
000040 48 b1 8c bc 96 e1 5e 3c 9c 8a f4 3c 6c 35 96 ba
       -0.017174378 0.013603589 0.02985125 -0.0011460013
000050 bd 21 35 bd 82 46 a1 bc 60 95 c5 3b ea a1 02 bd
       -0.04422163 -0.019686941 0.00602977 -0.031892695
000060 ce 46 2f 3d dd 51 23 3c 6c da 17 3d b8 62 57 3d
       0.042792134 0.009968248 0.037073538 0.05258438
000070 9e 24 9a 3c c0 b3 12 3b 24 a2 4d 3d 37 e2 60 bd
       0.018816289 0.0022384971 0.050203457 -0.054903235
000080 94 96 27 bd 28 14 91 3c 1c 6a b5 bc 9f d2 5d 3d
       -0.040915087 0.017709807 -0.022145323 0.054155942
000090 f2 c1 3b ba 94 e3 28 bd f8 10 4a 3d ac 8b ee bc
       -0.0007162384 -0.04123266 0.04933259 -0.029119335
0000a0 f4 65 b2 bc a7 b8 d2 3c a8 8f 77 3c 48 72 90 bc
       -0.02177713 0.025722815 0.015109934 -0.017632619
0000b0 f1 68 11 bd 12 93 85 bc 24 c9 bc 3c 47 e4 d1 3c
       -0.03550047 -0.01630548 0.02304513 0.025621546
0000c0 20 43 20 bc cf a4 81 bb 30 39 38 bd 2b 7a a6 3c
       -0.009781629 -0.0039564143 -0.044976413 0.020321926
0000d0 df 3e 27 3d 3e df 2b 3d 14 ac 2b bc 01 60 37 bd
       0.040831443 0.041960947 -0.010478038 -0.04476929
0000e0 9a 69 4e 3d 47 a6 e2 bc 50 3d 68 3c 1c ee 63 3c
       0.05039368 -0.027667178 0.014174774 0.01391175
0000f0 5a 4d 0e 3c 71 48 ec bc 00 9d 5f bb 5f a1 4f bd
       0.008685434 -0.028843137 -0.003412068 -0.050691005
000100 fc 95 ed bc ce dd 5c bc a0 e8 ae 3c dc ac 0d 3d
       -0.029002182 -0.013480617 0.021351159 0.03458868
000110 0e 9c 15 3d bc 9b 83 bd e1 40 f0 bc 97 c4 33 3c
       0.03652578 -0.06426188 -0.029327812 0.010972164
000120 dc 6c bc bc d6 a5 63 bd 5c d5 3b 3d 76 9f 7a 3d
       -0.023001127 -0.055578075 0.045857772 0.06118723
000130 17 83 8c bb f7 2e e2 bb cd 23 16 bd 8b 23 38 3d
       -0.004288088 -0.0069025713 -0.036655236 0.04495577
000140 28 cc a9 3c 76 9b 19 3d e7 79 e3 bc 05 5a 92 bb
       0.020727232 0.037501775 -0.027768089 -0.0044662976
000150 0a 92 8b 3c da 60 48 bd 40 f2 1d bb 7f 78 94 bc
       0.01703741 -0.04892049 -0.002410069 -0.018123863
000160 12 80 4d bd 79 81 07 3d 78 9c a9 bc cd 35 3b 3d
       -0.050170965 0.03308246 -0.020704493 0.045705605
000170 ad a7 fb 3c 4a 59 00 bd f5 b9 4a bd 60 6d bb ba
       0.030719602 -0.031335153 -0.04949375 -0.0014299564
000180 e8 8a 4c 3d 73 cb 3f bc 9c 85 e8 3c ca 5f 2e 3d
       0.04993716 -0.011706221 0.028384022 0.04257182
000190 56 95 60 bd 0b 7d bb 3b a8 e0 a1 3b 8d 18 9a 3c
       -0.054829918 0.0057216934 0.004940111 0.018810535
0001a0 6d 89 5c bd 47 ed 25 bc 1c 73 2d bc 6f a2 41 3d
       -0.053841997 -0.010127372 -0.010586526 0.04727405
0001b0 61 be 03 bd fc a4 5d 3d 90 43 09 bd 6a e1 9b 3b
       -0.03216398 0.05411242 -0.0335117 0.004757096
0001c0 b8 dd 18 3c 12 e5 21 bd b2 d1 57 3d 72 dd 01 3c
       0.009330206 -0.0395251 0.052690215 0.007926332
0001d0 a5 cf a1 3b b0 3e 37 3d 0f fc 4e bd c0 6d 7c bb
       0.0049380832 0.044737518 -0.05053335 -0.0038517565
0001e0 94 70 24 bc c4 c9 39 bc 08 76 46 3d 18 30 dc bc
       -0.010036606 -0.011339609 0.048452407 -0.026878402
0001f0 7b e2 4c bc 3f 41 9c bb 78 bd c8 3c f5 ed 17 bd
       -0.012505169 -0.00476852 0.024504408 -0.037092168
000200 00 00 03 3b a8 c1 b1 3b 14 1a 1b bc fc 1f 64 3a
       0.0019989014 0.005424697 -0.009466667 0.0008702276
000210 f6 e6 6b 3c 11 f8 e8 bc a8 89 1a 3d 50 7c 0c 3d
       0.014398327 -0.0284386 0.037728935 0.03429824
000220 e6 29 2a 3d 96 69 0c 3b 03 a2 5a bd 80 a1 2a bd
       0.041543864 0.0021425239 -0.053377163 -0.041657925
000230 f4 13 55 3d 24 08 08 3c ea 2b 03 bd 1c ce b3 3b
       0.052020982 0.008302722 -0.0320243 0.0054872166
000240 80 0f 7e bb 37 ec 1f 3d 48 23 e6 3c 7c f5 7e 3b
       -0.0038766563 0.03904363 0.028092995 0.0038903644
000250 19 91 49 bc b0 7c 55 3c ea 7c be bc 5d 37 9e bc
       -0.01230266 0.013030216 -0.023252923 -0.019313509
000260 a6 31 c3 bc 15 2c 28 bd 74 d1 44 bc ee eb bd bc
       -0.023827385 -0.041057665 -0.012012828 -0.02318379
000270 da 70 21 bd 1b 3b c4 3c 49 29 4f bd 97 e8 1f bd
       -0.039414264 0.023953965 -0.050576482 -0.039040174
000280 90 90 cb 3c 8d 0e 2d 3d 5c 89 42 3d d4 81 80 3d
       0.024849206 0.042250205 0.047494277 0.06274763
000290 16 08 7f ba 52 b5 56 3c 7b 3d 3c bd 77 0c 3d bd
       -0.0009728683 0.013104754 -0.04595707 -0.046154466
0002a0 68 57 1b bc cc 36 e3 3b a6 e7 b3 bc 4b a9 1c 3b
       -0.0094812885 0.0069340225 -0.021961045 0.0023904617
0002b0 5e be 34 bd 12 e2 11 bd a2 0f 0e bd d8 16 7a 3c
       -0.04412686 -0.035615988 -0.034682877 0.015264235
0002c0 fa fe f9 bc 03 9b f2 3c 3c f8 5d 3d 19 f6 83 3c
       -0.03051709 0.029614931 0.054191813 0.01610856
0002d0 1e bd b8 bb a9 c1 00 bc 98 09 3d 3d 05 e7 47 bd
       -0.005637779 -0.007858672 0.046151727 -0.0488043
0002e0 b8 73 91 bb da 0d 92 bc 36 e6 37 3d cb 21 e0 3c
       -0.0044388436 -0.01782887 0.04489728 0.027359864
0002f0 0c 55 a5 3c a2 3a 01 3d 2a 2e a8 bc 03 bd 5f bd
       0.020182155 0.031550057 -0.020529825 -0.054623615
000300 b0 f5 57 3d de e7 80 ba d0 6d 71 3c 90 26 41 3c
       0.05272454 -0.0009834727 0.014735654 0.011788979
000310 58 95 8f 3c 09 40 03 bd e8 0e e4 bb 9d 2c a4 3c
       0.017527267 -0.03204349 -0.006959785 0.020040805
000320 62 57 07 bd a1 25 e5 3c ba db 16 3d 74 19 83 3d
       -0.03304232 0.027972044 0.03683064 0.06401339
000330 01 bc b5 3c 39 1b 5d bd d2 bf f1 bc df 00 2e bd
       0.022184374 -0.05398104 -0.029510412 -0.0424813
000340 e6 1f a5 bc a8 9a 78 3c 18 2b 3c 3d 40 e8 36 3d
       -0.020156812 0.015173592 0.045939535 0.044655085
000350 79 43 36 bc e4 dc be bc 18 bd 2d bc c7 90 df bc
       -0.011124485 -0.023298688 -0.0106041655 -0.027290715
000360 0a a2 10 3d 89 2f b0 bc c4 57 18 bc f2 cf 37 3d
       0.035310782 -0.021507042 -0.009298269 0.044876046
000370 03 78 20 bd 90 9f 27 bd d7 6b d1 bc dd 87 f3 3b
       -0.039176952 -0.040923655 -0.025564117 0.0074319676
000380 38 c3 e2 3c 1c 76 2c 3d c2 c8 64 3d 1c 3e df bc
       0.027680978 0.042104825 0.05585552 -0.027251296
000390 6c 90 2f bd e3 6a 6a bd 05 ac d4 bc 23 84 e5 bc
       -0.04286234 -0.05723084 -0.025960932 -0.02801711
0003a0 6c 15 4b bc c0 e0 dd 3c a8 6a a9 3b e8 0c 37 bd
       -0.012395244 0.027084708 0.005170185 -0.044690043
0003b0 19 0c 5b 3c a1 85 51 3c 6c 1b b8 3c ef b5 6d bd
       0.0133695835 0.012788207 0.022474013 -0.058034834
0003c0 b8 23 28 bc c1 96 1f bd aa 07 8e bc 1c ff 2c bc
       -0.010262422 -0.03896213 -0.017337639 -0.01055887
0003d0 fb 94 44 bd 8a df 9a bb e3 55 1d bd ac 5e 42 3d
       -0.04799364 -0.004726355 -0.038411986 0.047453567
0003e0 24 f1 10 3d a7 ed 04 3d 2c f8 be bc 33 ce 12 bd
       0.03538622 0.032453205 -0.023311697 -0.03584118
0003f0 27 17 fb bc 65 15 69 3d 30 7a de 3b fd c3 e0 bc
       -0.030650688 0.05690517 0.006789468 -0.027437204

ln.bias f4 [4]
000000 f6 4c d9 3c 13 68 98 bb 1e fe e4 3c ff 8b 01 bd
       0.026525956 -0.0046510785 0.027953204 -0.03162765
