src/players/saves/RLBasic10.pth (torch, 173407 bytes, 6 tensors)

neuralnet.0.weight f4 [200, 182]
-0.07844464 0.020659214 -0.033541325 0.020439865 0.016800893 -0.008499296 -0.048775528 -0.03167441
0.0418904 0.05216257 0.063013285 -0.060711846 0.03463261 0.0018554949 -0.014557236 -0.0751357
0.048627295 0.04379609 -0.037984066 0.002232076 0.045640998 -0.07198868 0.012528216 0.062270217
-0.040673405 0.024843894 -0.08053433 -0.0024852315 0.07318785 0.0587919 -0.023781164 -0.041618522
-0.039435763 -0.07990874 -0.07033105 0.028826332 -0.07296372 -0.03821563 -0.028893473 0.0128823295
-0.07476762 -0.015234859 0.02510197 -0.0016842501 0.0434146 -0.046884317 0.032825503 -0.024888923
0.05120002 -0.07188523 -0.05395263 -0.027109519 -0.08083671 -0.05599728 -0.054948278 -0.040612187
-0.04063969 -0.08300672 -0.06308118 0.0037444308 0.045224372 0.028570486 0.07541479 0.031038754
-0.031460106 -0.06277236 -0.059615288 0.03678979 0.025256675 0.07591038 0.0042263465 0.030505376
-0.04993517 -0.0642479 0.085124835 0.05840125 0.043815408 -0.056991186 0.049759723 -0.04647469
-0.051602863 -0.079479665 0.06493848 0.07735037 -0.00843149 -0.023565741 -0.045134302 0.042560514
-0.07814534 0.057656527 -0.015440779 0.03541177 -0.006089273 0.051392008 -0.0092742955 -0.02515128
0.014625561 -0.08463015 -0.07325622 0.041990384 0.0742564 -0.07551622 0.0142664835 0.012061362
-0.021954583 0.0272036 -0.04903941 0.08650541 0.045777865 -0.05249396 0.037547566 -0.030281411
-0.07123734 0.0064126295 0.039726466 0.012550236 0.02827186 0.031787805 -0.008330044 -0.005316154
0.030556133 0.05477063 0.062687464 0.05932682 0.015696062 0.026537789 -0.055572454 -0.044926003
0.07953424 0.0056382096 0.007976482 0.009786971 -0.039906703 0.040281788 0.015004035 -0.067233264
-0.040706802 -0.03961339 0.06227303 -0.040725198 0.06098548 0.010875705 0.021808028 0.023266112
0.04092811 -0.01821042 -0.032783806 -0.04649285 0.03902036 0.05992715 -0.028092198 0.020296086
-0.052589476 -0.038960133 0.046047352 -0.053910803 -0.074183606 0.0151562635 -0.022499949 0.0050404635
0.06277587 -0.017617617 0.05967805 0.042342093 -0.04173025 0.028828293 0.010308964 -0.0001263658
-0.06725436 0.0716135 -0.031153444 0.024648054 0.0137443915 -0.0012826563 -0.05809703 -0.022313364
-0.05278722 -0.048028003 0.045148723 -0.021313205 0.0068509066 0.05333757 -0.062269438 -0.059670754
0.07046229 0.03942123 0.012041246 -0.043809183 -0.07649722 0.05850936 -0.034035154 -0.0027564494
0.0048989737 0.016017623 0.045403257 0.007129341 -0.018833214 0.026968779 0.04415548 0.02999926
0.022603983 0.05319464 0.001193636 0.034404844 0.01783605 0.027040517 -0.0029477533 0.06465522
-0.00328065 -0.057544407 0.045964174 -0.057236526 -0.07794841 0.03929911 0.066361696 -0.055590343
-0.016680386 0.007483989 -0.025532186 -0.049366906 0.052293465 -0.020506978 0.041140758 -0.014950589
-0.038011912 -0.01626009 0.0776047 0.01905901 0.029915031 -0.043282684 0.061236657 0.06466334
0.036592096 0.021763736 -0.0006252453 0.029025888 -0.026273184 0.055771634 0.053198833 -0.05842448
0.07097553 -0.002016209 -0.083660334 -0.026664844 0.007636846 -0.033438366 0.07575933 0.03134475
0.002569235 -0.012741971 0.0022963346 0.029476475 -0.0058965627 0.029481083 0.07307019 0.04129611
00000000: 95a7 a0bd 833d a93c a162 09bd 8171 a73c
00000010: 07a2 893c a240 0bbc d9c8 47bd 07bd 01bd
00000020: 4595 2b3d 6ba8 553d 1c0d 813d fcac 78bd
00000030: ecda 0d3d 1434 f33a 7981 6ebc bfe0 99bd
00000040: 6a2d 473d 8763 333d 2e95 1bbd 0548 123b
00000050: 0ef2 3a3d cd6e 93bd 2543 4d3c 0e0f 7f3d
00000060: 2899 26bd 6c85 cb3c 2fef a4bd 44df 22bb
00000070: 83e3 953d c6cf 703d b7d0 c2bc 2f78 2abd
00000080: 6587 21bd 32a7 a3bd ba09 90bd 3325 ec3c
00000090: 016e 95bd fe87 1cbd 01b2 ecbc 6810 533c
000000a0: c41f 99bd a19b 79bc a6a2 cd3c 0ec2 dcba
000000b0: 82d3 313d c509 40bd 0974 063d dbe3 cbbc
000000c0: 1db7 513d 9038 93bd 6ffd 5cbd c814 debc
000000d0: b88d a5bd 675d 65bd 7211 61bd f758 26bd
000000e0: ce75 26bd 6dff a9bd b530 81bd 2065 753b
000000f0: 313d 393d a70c ea3c 1273 9a3d fc44 fe3c
00000100: 50dc 00bd cc8e 80bd 292f 74bd e4b0 163d
00000110: 16e7 ce3c e776 9b3d 2a7d 8a3b 69e6 f93c
00000120: d288 4cbd 6794 83bd ee55 ae3d 2636 6f3d
00000130: c977 333d 976f 69bd dad0 4b3d 3f5c 3ebd
00000140: 865d 53bd 3cc6 a2bd 77fe 843d df69 9e3d
00000150: 3b24 0abc f10c c1bc bfde 38bd ef53 2e3d
00000160: aa0a a0bd 4029 6c3d 52fb 7cbc ef0b 113d
00000170: 8688 c7bb 6d80 523d 37f3 17bc 0f0a cebc
00000180: 0da0 6f3c 9252 adbd 5b07 96bd 1cfe 2b3d
00000190: bd13 983d 3fa8 9abd f8bd 693c 059d 453c
000001a0: 19da b3bc 16da de3c 8cdd 48bd c029 b13d
000001b0: 9281 3b3d e803 57bd 7acb 193d b910 f8bc
000001c0: e2e4 91bd 0921 d23b 38b8 223d 819f 4d3c
000001d0: 639a e73c ee33 023d bd7a 08bc 2233 aebb
000001e0: db50 fa3c 2b57 603d 4962 803d ae00 733d
000001f0: 0795 803c c765 d93c f19f 63bd 5404 38bd
00000200: d9e2 a23d bbc0 b83b caaf 023c 8859 203c
00000210: 3675 23bd 84fe 243d 7cd3 753c 98b1 89bd
00000220: 2dbc 26bd a641 22bd 0112 7f3d 77cf 26bd
00000230: e9cb 793d 0330 323c c0a6 b23c 9398 be3c
00000240: 3ca4 273d 052e 95bc 5048 06bd 496f 3ebd
00000250: d0d3 1f3d 2c76 753d 9c21 e6bc fa43 a63c
00000260: 1068 57bd a994 1fbd 269c 3c3d 93d1 5cbd
00000270: 93ed 97bd fa51 783c d051 b8bc 792a a53b
00000280: a390 803d d252 90bc f970 743d e76e 2d3d
00000290: 57ed 2abd 5029 ec3c eee6 283c 1081 04b9
000002a0: a7bc 89bd 19aa 923d 8235 ffbc b7ea c93c
000002b0: 2830 613c ce1e a8ba 27f7 6dbd 84ca b6bc
000002c0: 6937 58bd 03b9 44bd deed 383d 0899 aebc
000002d0: 927d e03b 7f78 5a3d 3d0e 7fbd 5269 74bd
000002e0: 884e 903d 2878 213d a548 453c 4271 33bd
000002f0: 93aa 9cbd 83a7 6f3d 7268 0bbd 8ca5 34bb
00000300: 9287 a03b 6437 833c c4f8 393d 3f9d e93b
00000310: 1d48 9abc a1ed dc3c 60dc 343d 02c1 f53c
00000320: fd2b b93c 9fe2 593d c773 9c3a 18ec 0c3d
00000330: e81c 923c 1384 dd3c 182f 41bb f569 843d
00000340: 2c00 57bb afb3 6bbd ee44 3c3d d970 6abd
00000350: 6aa3 9fbd 1bf8 203d a4e8 873d b3b2 63bd
00000360: 4ea5 88bc 403c f53b e028 d1bc f434 4abd
00000370: ac31 563d 40fe a7bc 3683 283d 51f3 74bc
00000380: 61b2 1bbd e133 85bc 37ef 9e3d a421 9c3c
00000390: 5e10 f53c 2f49 31bd 4ad3 7a3d 376e 843d
000003a0: 98e1 153d dd49 b23c 80e7 23ba b3c7 ed3c
000003b0: dc3a d7bc cc70 643d 05e7 593d 824e 6fbd
000003c0: 9e5b 913d 6022 04bb 1c56 abbd 3b70 dabc
000003d0: 823e fa3b abf6 08bd b527 9b3d 5a63 003d
000003e0: 9c60 283b b3c3 50bc 1a7e 163b a678 f13c
000003f0: f437 c1bb 5082 f13c d3a5 953d 1c26 293d

neuralnet.0.bias f4 [200]
0.058244474 0.0426803 0.0053530307 0.04439819 -0.042196713 0.015078239 0.010644294 0.032763995
0.019853411 -0.042258002 0.052829858 -0.022961799 -0.025818063 -0.036060575 0.046489414 -0.060104158
0.017811734 -0.00034797587 -0.03203805 0.03439396 0.062671565 -0.055992756 0.08336282 -0.004714832
0.04388339 -0.0051799016 0.028433962 -0.028802594 0.00542886 0.033014182 0.034335233 -0.04980807
0.036233846 0.05434635 -0.055809125 0.028555699 0.02129061 -0.0038579358 -0.005451095 -0.056203943
-0.03651856 0.031328406 0.0076090205 0.045744807 -0.03820502 0.0744493 -0.013331292 0.013014091
0.008308789 0.043264687 -0.060922984 -0.079612136 0.07014347 -0.052235004 0.010770558 0.055032633
-0.0087483125 0.045434844 -0.047602408 0.071491085 0.016439464 0.0716295 0.069483966 0.043836735
0.0753826 0.011280635 -0.035863247 0.022357523 0.06419907 0.08251172 -0.019252716 -0.07889656
-0.011102279 0.07822038 -0.08427391 0.040720254 0.003425591 0.02955002 0.018737849 0.00636917
-0.039101403 0.04590637 -0.040925138 0.034888033 0.051520508 0.069365546 0.011233974 0.03465522
0.020510616 0.012784196 -0.024824088 0.023413124 0.0058445456 -0.03904165 -0.020700743 0.033851918
0.0640274 0.05151477 -0.0122544225 -0.022605505 -0.019192418 -0.03121817 0.07746914 0.056567784
0.07441352 0.05646637 0.042362984 0.03958086 0.04930054 0.028074939 0.067578435 -0.047789697
0.015704425 0.02262216 -0.014417959 -0.073521435 -0.015986234 0.018964399 -0.029539252 0.058106307
-0.08933885 -0.04891175 -0.0010259589 0.03488928 0.05114341 0.047429875 -0.027469011 0.0075166966
0.08491269 -0.060550008 0.040080983 -0.07111325 -0.07379307 0.0072506294 -0.020566296 0.036117468
-0.016977439 0.029470768 0.05624412 -0.05331026 0.04703925 0.014956192 -0.050366852 -0.0055246186
-0.06197306 -0.059262235 -0.03031157 0.029814275 0.013472839 0.023853336 -0.059819426 -0.026268216
0.055922285 -0.068436675 0.007274679 -0.076210156 0.074053966 -0.0413554 -0.07374789 -0.033185083
0.0106796045 -0.052197598 -0.04067732 0.014262969 0.023468422 -0.047678117 0.05549275 -0.07614163
0.018396856 -0.026371503 -0.008549435 -0.031950645 -3.4393044e-05 0.047893118 -0.06261973 -0.023688905
0.040150113 -0.06594615 0.061112843 -0.037747834 -0.02756803 0.064285874 0.05398005 0.052809715
0.02965827 0.04843606 -0.043477938 -0.048136093 0.0036246474 0.040057182 -0.02942181 -0.0057190596
0.0277935 -0.021162817 0.028365212 -0.015907431 0.02090833 -0.030427564 0.07386793 -0.044244606
00000000: c291 6e3d 8ad1 2e3d 7a68 af3b e0da 353d
00000010: 76d6 2cbd b80a 773c 6865 2e3c 8a33 063d
00000020: 9fa3 a23c ba16 2dbd 1f64 583d 621a bcbc
00000030: 6780 d3bc 41b4 13bd af6b 3e3d c72f 76bd
00000040: eae9 913c 8870 b6b9 553a 03bd aee0 0c3d
00000050: f359 803d a958 65bd 20ba aa3d e17e 9abb
00000060: 12bf 333d 2abc a9bb 57ee e83c 6bf3 ebbc
00000070: 94e4 b13b e139 073d 1aa3 0c3d 8c03 4cbd
00000080: f169 143d 479a 5e3d 1c98 64bd a4ed e93c
00000090: a569 ae3c 6cd5 7cbb 199f b2bb 1b36 66bd
000000a0: 7c94 15bd 3752 003d 1755 f93b e85e 3b3d
000000b0: de7c 1cbd e078 983d 7e6b 5abc 0e39 553c
000000c0: 9621 083c 5036 313d 618a 79bd b00b a3bd
000000d0: 61a7 8f3d 5ff4 55bd ff76 303c e669 613d
000000e0: 1555 0fbc e319 3a3d befa 42bd eb69 923d
000000f0: 0eac 863c 7db2 923d 9c4d 8e3d 268e 333d
00000100: 3162 9a3d 6ad2 383c 57e5 12bd 2027 b73c
00000110: cd7a 833d e8fb a83d dfb7 9dbc 8594 a1bd
00000120: 55e6 35bc 0232 a03d cd97 acbd 48ca 263d
00000130: e17f 603b e212 f23c 1e80 993c 78b4 d03b
00000140: cb28 20bd 5108 3c3d 1ea1 27bd c1e6 0e3d
00000150: 2b07 533d 860f 8e3d b40e 383c a2f2 0d3d
00000160: e105 a83c ce74 513c e35b cbbc e1cc bf3c
00000170: 9a83 bf3b 23ea 1fbd 9b94 a9bc 4fa8 0a3d
00000180: cc20 833d 2701 533d c6c6 48bc 2e2f b9bc
00000190: 6b39 9dbc 3fbd ffbc 24a8 9e3d 9fb3 673d
000001a0: 1e66 983d 4849 673d cf84 2d3d 8a1f 223d
000001b0: 5def 493d 6afd e53c 9066 8a3d 21bf 43bd
000001c0: 91a6 803c 1c52 b93c 4e39 6cbc 6892 96bd
000001d0: 90f5 82bc 3a5b 9b3c 4dfc f1bc e100 6e3d
000001e0: 49f7 b6bd b057 48bd 7879 86ba 10e8 0e3d
000001f0: c17b 513d d445 423d b106 e1bc 9f4e f63b
00000200: b4e6 ad3d 4903 78bd f52b 243d d3a3 91bd
00000210: d220 97bd b096 ed3b a67a a8bc e9ef 133d
00000220: 4514 8bbc ae6c f13c 3c60 663d dc5b 5abd
00000230: 3bac 403d d10a 753c 794d 4ebd dc07 b5bb
00000240: 77d7 7dbd f5bc 72bd f84f f8bc 113d f43c
00000250: 2fbd 5c3c 1268 c33c 3705 75bd 7130 d7bc
00000260: c40e 653d 8728 8cbd 6e60 ee3b 1214 9cbd
00000270: 9ba9 973d 4864 29bd 2209 97bd 15ed 07bd
00000280: 82f9 2e3c 26cd 55bd 439d 26bd 3aaf 693c
00000290: d940 c03c 214a 43bd 5e4c 633d 25f0 9bbd
000002a0: 01b5 963c 0d09 d8bc ee12 0cbc aede 02bd
000002b0: 4041 10b8 932b 443d c63e 80bd 3c0f c2bc
000002c0: 7274 243d c60e 87bd 7651 7a3d 799d 1abd
000002d0: 59d6 e1bc 50a8 833d 2f1a 5d3d 004f 583d
000002e0: e6f5 f23c e464 463d ec15 32bd 5a2a 45bd
000002f0: 7e8b 6d3b 0013 243d 0206 f1bc f366 bbbb
00000300: 32af e33c a55d adbc 295e e83c 4d50 82bc
00000310: f247 ab3c 3a43 f9bc 1248 973d d539 35bd

neuralnet.3.weight f4 [30, 200]
-0.00826836 0.040544797 0.042700145 0.064957805 0.03630459 -0.036261518 0.046583768 -0.02124061
0.025872774 0.0027540133 -0.007778542 0.007395698 -0.028840471 0.06683542 -0.059185524 -0.005578739
-0.008078378 -0.04431879 -0.06590001 -0.06874942 -0.0018771123 -0.040117994 -0.050093736 -0.015291222
0.0019096418 0.031115038 -0.001275037 0.059155583 0.05437352 -0.062967345 0.039939843 0.07541149
-0.06074431 0.06267421 0.07381153 -0.07309073 0.028449606 0.07001141 0.04025981 0.04655137
0.049880106 -0.04676766 -0.009925852 -0.04452156 0.05630278 -0.015046345 -0.015413009 -0.049751543
0.023192083 -0.024009353 0.038840834 -0.0393572 0.02480805 0.030056756 -0.04048669 0.022900835
0.048352852 -0.076409414 -0.03290821 -0.04289982 -0.06409405 -0.016647764 0.08102448 -0.01609004
0.062767185 0.013810876 -0.016569387 -0.027314417 0.024548268 0.04317752 0.022749592 0.021093966
-0.05751001 -0.03776925 -0.059709806 0.0035260844 -0.050543714 -0.04628676 -0.013718092 0.008347057
-0.0749687 0.03169738 0.058261823 0.007577195 -0.036726896 -0.04249753 -0.053404093 -0.053363666
-0.032207664 -0.021322729 -0.0016255918 0.0601873 0.031755727 0.038922388 0.025360446 0.013970641
-0.014288479 0.014425035 -0.050642878 -0.07380077 0.0352785 -0.05593724 0.04250345 0.07906364
0.036534153 -0.069293685 0.023393698 -0.07136177 0.0468803 0.038147684 0.020598624 -0.07967369
-0.048894633 -0.008864986 -0.03443675 -0.0656818 0.03487891 0.0011783319 0.037446935 0.012428889
0.011816624 -0.021917906 -0.060930226 -0.026143434 -0.020015793 0.03669722 -0.01200218 0.028652135
-0.04066265 -0.051720142 -0.04578621 0.010107278 0.03838069 -0.02030519 0.034340974 0.027089635
-0.031997792 -0.016873863 0.0021485216 -0.054604255 -0.0116104735 0.028233198 0.03690529 0.0024609885
0.028943516 -0.06420339 -0.06466863 0.003090825 -0.025855098 -0.046970595 0.03594087 -0.007230849
-0.034058224 -0.0034579944 -0.020407494 0.001537018 0.053706378 0.024644464 -0.023003044 0.0053721233
-0.046546295 -0.060282297 -0.01578459 0.058727156 0.057292465 -0.072707415 -0.00096705445 -0.06814044
-0.06606837 -0.0058811693 0.050479587 0.0485843 0.046369426 -0.009867698 0.022539908 0.05706381
0.04692749 0.061306894 0.048845015 -0.020324951 0.029730987 -0.06859641 0.044851087 0.038821194
0.037627116 -0.009651417 0.010298024 0.008615216 -0.05683208 0.04551582 -0.011656939 0.028750332
-0.015990173 -0.046386942 -0.056096934 0.015156701 -0.08251298 0.0030737722 0.03533261 0.056159604
-0.012981447 0.04801092 -0.011007977 -0.0103703905 -0.035485286 -0.018026644 0.037993852 0.04463837
-0.042274952 0.029939732 0.054053746 0.0393558 0.025377043 0.006226695 0.05244888 0.0053788875
-0.026725195 0.02033024 0.0015086867 0.0030963132 0.0296584 -0.030117484 -0.02643254 0.034513798
-0.067932226 -0.009068285 -0.018355452 0.043701995 0.08638253 0.011344342 0.047961984 0.013968549
-0.0024891554 0.05685386 -0.0034117752 -0.041977603 -0.01936235 -0.0668072 -0.00093968655 -0.0154585065
-0.032220516 -0.019455561 -0.079767525 0.027034188 0.08185949 0.01627927 0.04945821 -0.061022256
0.01033865 -0.017147979 0.045942754 0.027180118 0.044499125 -0.036793843 -0.042230476 -0.053747807
00000000: 0478 07bc 4d12 263d 59e6 2e3d 9908 853d
00000010: 1fb4 143d f586 14bd 9fce 3e3d ca00 aebc
00000020: 24f3 d33c ad7c 343b 24e3 febb 9d57 f23b
00000030: da42 ecbc 02e1 883d 856c 72bd dbcd b6bb
00000040: 2c5b 04bc 9f87 35bd 96f6 86bd 7fcc 8cbd
00000050: 7009 f6ba c452 24bd 172f 4dbd 0988 7abc
00000060: f24c fa3a f7e4 fe3c 241f a7ba 204d 723d
00000070: c5b6 5e3d 06f5 80bd f697 233d 5771 9a3d
00000080: 07cf 78bd 565b 803d 802a 973d 98b0 95bd
00000090: 260f e93c 2462 8f3d 78e7 243d a6ac 3e3d
000000a0: 154f 4c3d 728f 3fbd 0aa0 22bc 3d5c 36bd
000000b0: be9d 663d f284 76bc d886 7cbc 46c8 4bbd
000000c0: 53fd bd3c 43af c4bc 9117 1f3d 0435 21bd
000000d0: 403a cb3c 9639 f63c 5fd5 25bd 889a bb3c
000000e0: a40d 463d 8a7c 9cbd c2ca 06bd b9b7 2fbd
000000f0: be43 83bd e460 88bc 2af0 a53d 42cf 83bc
00000100: 158c 803d 0347 623c 86bc 87bc 7cc2 dfbc
00000110: 7319 c93c e9da 303d 5a5d ba3c 41cd ac3c
00000120: 9e8f 6bbd eeb3 1abd 4592 74bd e115 673b
00000130: ed06 4fbd 3097 3dbd d9c1 60bc 18c2 083c
00000140: 3189 99bd 1dd5 013d f3a3 6e3d 1e4a f83b
00000150: f16e 16bd e411 2ebd 40be 5abd dc93 5abd
00000160: 2fec 03bd 01ad aebc cf11 d5ba f586 763d
00000170: 4b12 023d 156d 1f3d b6c0 cf3c 1ee5 643c
00000180: 3a1a 6abc fb56 6c3c e86e 4fbd dc24 97bd
00000190: 3080 103d 731e 65bd 1918 2e3d 1eec a13d
000001a0: d6a4 153d d9e9 8dbd 24a4 bf3c 1f26 92bd
000001b0: 8f05 403d bf40 1c3d 72be a83c f62b a3bd
000001c0: bd45 48bd 723e 11bc 8d0d 0dbd 2e84 86bd
000001d0: 30dd 0e3d 4272 9a3a f561 193d 8aa2 4b3c
000001e0: 839a 413c 2e8d b3bc f991 79bd c12a d6bc
000001f0: 29f8 a3bc d34f 163d cba4 44bc e2b7 ea3c
00000200: e18d 26bd 80d8 53bd 528a 3bbd ff98 253c
00000210: 1235 1d3d 1257 a6bc 1fa9 0c3d 15eb dd3c
00000220: 1e10 03bd 0e3b 8abc 36ce 0c3b b6a8 5fbd
00000230: db39 3ebc 4f49 e73c 002a 173d 8948 213b
00000240: f41a ed3c 117d 83bd fd70 84bd 708f 4a3b
00000250: 12ce d3bc 3d64 40bd bc36 133d c2f0 ecbb
00000260: a380 0bbd 859f 62bb 9e2d a7bc c475 c93a
00000270: 38fb 5b3d 30e3 c93c e170 bcbc a308 b03b
00000280: 54a7 3ebd 92ea 76bd af4e 81bc e38b 703d
00000290: 81ab 6a3d a0e7 94bd ed81 7dba 378d 8bbd
000002a0: db4e 87bd d3b6 c0bb afc3 4e3d 5500 473d
000002b0: deed 3d3d 20ac 21bc 9da5 b83c bebb 693d
000002c0: 0a37 403d f01c 7b3d b611 483d 8380 a6bc
000002d0: 668e f33c 467c 8cbd c6b5 373d f902 1f3d
000002e0: e41e 1a3d fa20 1ebc 0bb9 283c d626 0d3c
000002f0: c1c8 68bd cc6e 3a3d bffc 3ebc d185 eb3c
00000300: d3fd 82bc 3c00 3ebd e6c5 65bd d053 783c
00000310: 91fc a8bd 5771 493b edb8 103d 9d07 663d
00000320: 23b0 54bc 19a7 443d cd5a 34bc 92e8 29bc
00000330: 0559 11bd 9dac 93bc 719f 1b3d b9d6 363d
00000340: 8028 2dbd 2b44 f53c 7667 5d3d 8c33 213d
00000350: 84e3 cf3c 4e09 cc3b a3d4 563d 6141 b03b
00000360: ccee dabc 9a8b a63c 20bf c53a 84eb 4a3b
00000370: 2cf6 f23c f1b8 f6bc 0e89 d8bc 575e 0d3d
00000380: 0d20 8bbd 2593 14bc 2c5e 96bc dd00 333d
00000390: 53e9 b03d 9edd 393c c973 443d 57dc 643c
000003a0: 1921 23bb 98df 683d 1798 5fbb b5f0 2bbd
000003b0: cb9d 9ebc 37d2 88bd 4c55 76ba ad45 7dbc
000003c0: a9f9 03bd 4561 9fbc 285d a3bd cd76 dd3c
000003d0: f3a5 a73d 1b5c 853c b194 4a3d 79f2 79bd
000003e0: 7163 293c eb79 8cbc 782e 3c3d d7a8 de3c
000003f0: b744 363d 24b5 16bd ddf9 2cbd a926 5cbd

neuralnet.3.bias f4 [30]
-0.0237385 -0.00063977484 0.048953295 -0.03119297 -0.024699377 0.028974876 -0.014164772 0.050108783
-0.00858909 0.005102369 0.04745272 0.044896863 0.04774727 -0.011292048 -0.02459197 -0.01830129
-0.07280209 0.0012068998 -0.028732533 -0.041187722 -0.01709529 0.005495819 0.010243462 -0.015473926
0.08673179 -0.020543825 0.0053569498 -0.05806091 0.045684967 -0.07633292
00000000: 3e77 c2bc 90b6 27ba 4083 483d 6688 ffbc
00000010: 5956 cabc b85c ed3c 5c13 68bc de3e 4d3d
00000020: 41b9 0cbc c631 a73b c95d 423d c6e5 373d
00000030: a492 433d 4802 39bc 1975 c9bc 96ec 95bc
00000040: 4319 95bd d630 9e3a 7d60 ebbc 75b4 28bd
00000050: 6c0b 8cbc 4516 b43b 32d4 273c 5a86 7dbc
00000060: 70a0 b13d 864b a8bc 5a89 af3b 47d1 6dbd
00000070: 2920 3b3d 6f54 9cbd

neuralnet.6.weight f4 [4, 30]
-0.05367155 0.022682756 0.032589942 -0.15977612 0.037766628 0.04297983 0.09187831 0.11746865
0.160732 -0.06137711 -0.08860249 0.10268133 -0.08481971 -0.18075787 -0.085542224 0.17485207
0.053905223 -0.025081417 0.024739541 0.019364443 0.11008749 0.080403246 0.15896535 -0.08011363
0.04521052 -0.17759894 -0.11835829 0.0017305142 0.10539621 0.013129863 0.0092902975 -0.14489152
0.17186432 -0.054674193 0.10137058 -0.18316267 -0.08914656 0.105026826 -0.06265403 -0.11762276
0.20051228 0.17122746 0.054741427 0.14365631 -0.16667596 -0.067736655 0.12464073 0.1704149
-0.09641468 -0.035379246 -0.049529806 0.09476602 -0.15361466 -0.15232383 -0.17871428 0.060776085
0.013543684 -0.064040236 -0.037110955 0.06422017 -0.06499513 -0.116366245 0.047167573 -0.06851386
-0.046501845 -0.058771424 0.009668251 0.11799155 -0.06583488 0.039245818 0.029735327 0.14420755
-0.092975706 -0.1105635 0.13425978 0.016085468 -0.06591019 0.12677526 -0.068307824 0.012376711
-0.05609112 -0.17503095 -0.14600052 -0.07076683 -0.17656305 -0.16238324 -0.12147805 0.14419945
0.0784521 -0.13932495 0.1556775 -0.056933455 -0.112000465 0.044311795 -0.025495138 0.1605482
0.015288437 0.13512823 -0.11466574 0.076573096 -0.06190192 -0.05856921 0.0021892446 -0.14286809
0.14827198 -0.04182139 0.10093973 -0.1019497 0.121440545 0.0710191 0.05848522 -0.09557579
-0.011452011 -0.040796246 0.011567643 0.0010174292 0.04015465 0.18612137 -0.092173755 0.14891258
00000000: b3d6 5bbd 30d1 b93c 087d 053d 5a9c 23be
00000010: 2eb1 1a3d 9e0b 303d b22a bc3d 6793 f03d
00000020: ee96 243e 9166 7bbd 3975 b5bd 974a d23d
00000030: f5b5 adbd 9718 39be c330 afbd 6c0c 333e
00000040: b9cb 5c3d 8b77 cdbc 94aa ca3c 2ea2 9e3c
00000050: 8d75 e13d 75aa a43d d0c7 223e 9d12 a4bd
00000060: ab2e 393d 7fdc 35be d565 f2bd 6cd2 e23a
00000070: f8d9 d73d a31e 573c 5536 183c 715e 14be
00000080: 33fd 2f3e 0cf2 5fbd 619b cf3d ff8e 3bbe
00000090: 7992 b6bd 4e18 d73d c250 80bd 34e4 f0bd
000000a0: 1753 4d3e 4056 2f3e 8c38 603d a41a 133e
000000b0: 1aad 2abe 84b9 8abd a443 ff3d 3e81 2e3e
000000c0: 0f75 c5bd d4e9 10bd c4df 4abd b014 c23d
000000d0: 294d 1dbe c7fa 1bbe e000 37be 58f0 783d
000000e0: 54e6 5d3c 8727 83bd a801 18bd dd85 833d
000000f0: 2b1c 85bd 6d51 eebd c932 413d ff50 8cbd
00000100: b878 3ebd 4eba 70bd 9567 1e3c 8ea5 f13d
00000110: 70d4 86bd 39c0 203d 8097 f33c 25ab 133e
00000120: 0c6a bebd 1e6f e2bd 657b 093e acc5 833c
00000130: ecfb 86bd 60d1 013e f9e4 8bbd b0c7 4a3c
00000140: cdbf 65bd 503b 33be 2981 15be 33ee 90bd
00000150: f2cc 34be cb47 26be 7cc9 f8bd 05a9 133e
00000160: 7fab a03d 33ab 0ebe ec69 1f3e 0e33 69bd
00000170: 8060 e5bd 4980 353d 2edb d0bc bf66 243e
00000180: 5a7c 7a3c 0e5f 0a3e dfd5 eabd 5bd2 9c3d
00000190: de8c 7dbd 45e6 6fbd 6e79 0f3b 034c 12be
000001a0: 9cd4 173e e84c 2bbd 7db9 ce3d 01cb d0bd
000001b0: d2b5 f83d 7672 913d 338e 6f3d 3dbd c3bd
000001c0: 37a1 3bbc f719 27bd 3686 3d3c 425b 853a
000001d0: 3479 243d 9a96 3e3e 98c5 bcbd 8a7c 183e

neuralnet.6.bias f4 [4]
0.059383404 -0.013469977 -0.118380964 -0.13867903
00000000: 033c 733d 2eb1 5cbc b871 f2bd e001 0ebe
