src/players/saves/RLBasic30000-4.pth (torch_old, 16010 bytes, 6 tensors)

neuralnet.0.weight f4 [18, 182]
1.109626 5.4031057 4.9582195 2.9981475 1.7685435 1.5790408 1.5615546 0.30513087
2.1681967 1.7428851 2.8408568 -0.022947684 1.0498546 -0.51350814 3.2185621 0.4574201
1.9388254 2.1354191 1.6667848 1.477563 1.6863317 0.7205054 1.7966002 0.5703288
0.4166344 1.0529706 2.7823439 3.2249362 3.8942099 1.644862 2.9680445 -0.24467659
0.26829004 2.8729444 1.381882 1.6502749 4.4155517 3.402871 1.8004 0.06371531
1.5727444 1.3900208 2.1658797 1.4171046 2.019401 3.2752624 1.3477927 3.648871
1.4051605 3.5519493 2.2332196 4.795656 4.4379587 2.9544537 2.1243966 3.0462408
3.385587 4.440877 0.117360756 -0.042858593 1.2829525 3.569009 0.24307202 0.80490255
3.1675723 0.5508916 0.6489395 1.5894806 1.0179273 1.4644389 1.234985 3.0503876
2.4629538 1.75643 3.230825 3.0253916 1.7783158 3.1562617 2.6330454 1.8228601
3.3018808 2.5671408 1.669199 3.8509982 4.9284735 2.907869 2.6118371 3.5990365
2.426575 0.042398103 2.0352385 2.9344084 1.4454142 1.5915021 1.7047352 2.6360755
0.22923571 1.3152 2.4662654 -1.1268164 1.5228939 5.1358237 0.9882488 0.83710206
1.2927977 2.2633333 0.9354593 3.0472066 3.2249022 1.8373349 1.07483 2.7167118
1.7860429 4.439494 1.1204578 3.3647006 3.0002298 2.6766093 2.2390873 1.4169763
-2.3308296 -2.2515645 -4.4836197 -6.0437756 -4.206383 -5.1588883 -6.613482 -7.0342817
-7.303808 -8.2747135 -6.92616 -8.459996 -9.935565 -8.881565 -11.14828 -10.052754
-9.884108 -9.452511 -10.428551 -10.598611 -9.546123 -10.384427 -10.748765 -9.8172455
-9.85932 -9.181445 -8.796518 -8.892946 -9.233999 -0.028618712 -13.772277 -7.656746
-7.313689 -8.34145 -6.862772 -3.7478652 -4.0366426 -1.3811547 -2.0613723 -3.664486
0.5870896 -0.017113 0.9767187 1.1336662 1.1051685 -0.5151323 1.1197712 0.37269813
-0.6474282 -0.56670964 1.6209513 1.9117373 -10.255378 1.5445944 -23.03848 4.4982004
1.3377441 1.2588128 1.1017159 -0.17628898 1.0837415 -15.031388 0.3451784 0.41738036
-0.20429899 -0.7734801 -0.96081644 -1.352544 -0.6976078 0.86767316 -1.4170163 -1.2523223
-3.6842482 -1.5560251 0.04302461 -1.7125568 -2.0414364 -2.4376304 -1.3081466 -1.5032569
-2.4413042 -0.32745194 -2.0204988 -2.511951 -1.3985173 -2.0087738 0.21073021 -2.2272406
-2.028608 -3.6306143 -1.1812444 -2.01349 -1.5761749 -1.4909105 -1.7422678 -0.4762712
-1.1705621 -3.1758804 -2.752526 -1.9451569 -2.0239835 0.05841911 -1.2579278 -1.3325125
-0.75000554 -1.0186077 -0.938223 -0.23065871 -2.335756 0.4596933 -1.5458441 -1.3600574
-1.7946066 -3.04092 -0.6376939 -1.8509796 -0.5855048 0.82616395 0.51000476 -0.90577203
-1.403352 0.069968835 -1.1380293 -3.8770025 -1.5015565 -1.3832637 -1.4585979 -0.24181159
-0.3694407 -0.12800595 -1.9220264 0.12240322 0.45314467 1.1230776 -0.982595 -0.6977394
00000000: 3a08 8e3f 3ee6 ac40 bca9 9e40 a6e1 3f40
00000010: a25f e23f 021e ca3f 05e1 c73f 1d3a 9c3e
00000020: bcc3 0a40 dc16 df3f 99d0 3540 c8fc bbbc
00000030: a361 863f 4575 03bf ecfc 4d40 f832 ea3e
00000040: 6e2b f83f b5aa 0840 3459 d53f c920 bd3f
00000050: b8d9 d73f 0b73 383f fff6 e53f 1101 123f
00000060: 1b51 d53e bec7 863f ec11 3240 5b65 4e40
00000070: bc3a 7940 d78a d23f 71f4 3d40 808c 7abe
00000080: 505d 893e 52de 3740 82e1 b03f 353c d33f
00000090: 334c 8d40 a3c8 5940 8273 e63f 2c7d 823d
000000a0: b04f c93f 34ec b13f c69d 0a40 af63 b53f
000000b0: de3d 0140 e69d 5140 7984 ac3f 1a87 6940
000000c0: 4ddc b33f 2353 6340 12ed 0e40 0476 9940
000000d0: c203 8e40 c515 3d40 1df6 0740 9cf5 4240
000000e0: 75ad 5840 aa1b 8e40 d65a f03d 7e8c 2fbd
000000f0: ca37 a43f a56a 6440 dfe7 783e 180e 4e3f
00000100: 81b9 4a40 3b07 0d3f e620 263f 1a74 cb3f
00000110: 714b 823f bc72 bb3f fd13 9e3f 8d39 4340
00000120: 09a1 1d40 b3d2 e03f d6c5 4e40 04a0 4140
00000130: da9f e33f 3100 4a40 d183 2840 7b53 e93f
00000140: 0452 5340 094c 2440 50a8 d53f c176 7640
00000150: 0eb6 9d40 871a 3a40 5728 2740 9d56 6640
00000160: 014d 1b40 a2a9 2d3d 5941 0240 59cd 3b40
00000170: 5503 b93f 57b6 cb3f c334 da3f 76b5 2840
00000180: c4bc 6a3e 7958 a83f 4bd7 1d40 853b 90bf
00000190: 30ee c23f ab58 a440 e0fd 7c3f 524c 563f
000001a0: 657a a53f 74da 1040 437a 6f3f 6f05 4340
000001b0: cc64 4e40 ca2d eb3f 0894 893f 9bde 2d40
000001c0: 0e9d e43f 5610 8e40 296b 8f3f 4157 5740
000001d0: c403 4040 914d 2b40 354d 0f40 7b5f b53f
000001e0: 502c 15c0 a219 10c0 d079 8fc0 9c66 c1c0
000001f0: b19a 86c0 9d15 a5c0 a5a1 d3c0 d618 e1c0
00000200: ccb8 e9c0 3a65 04c1 1aa3 ddc0 255c 07c1
00000210: 13f8 1ec1 e41a 0ec1 5b5f 32c1 15d8 20c1
00000220: 4e25 1ec1 7c3d 17c1 58db 26c1 e993 29c1
00000230: ebbc 18c1 9d26 26c1 f1fa 2bc1 7013 1dc1
00000240: c6bf 1dc1 33e7 12c1 8abe 0cc1 8249 0ec1
00000250: 76be 13c1 ca71 eabc 3f5b 5cc1 1004 f5c0
00000260: be09 eac0 9476 05c1 d49b dbc0 06dd 6fc0
00000270: 2d2c 81c0 adc9 b0bf 86ed 03c0 f086 6ac0
00000280: 814b 163f 9030 8cbc 3d0a 7a3f f91b 913f
00000290: 2976 8d3f b6df 03bf aa54 8f3f 4ad2 be3e
000002a0: dbbd 25bf e213 11bf 557b cf3f cfb3 f43f
000002b0: 0716 24c1 45b5 c53f cf4e b8c1 42f1 8f40
000002c0: 333b ab3f c720 a13f 0705 8d3f 1985 34be
000002d0: 0bb8 8a3f 9180 70c1 39bb b03e e1b2 d53e
000002e0: c133 51be cb02 46bf 11f8 75bf 2920 adbf
000002f0: 6d96 32bf d41f 5e3f ca60 b5bf 194c a0bf
00000300: b9ca 6bc0 d52b c7bf 933a 303d 1035 dbbf
00000310: e5a6 02c0 2302 1cc0 5971 a7bf b96a c0bf
00000320: 543e 1cc0 c8a7 a7be da4f 01c0 cec3 20c0
00000330: 9d02 b3bf c08f 00c0 a9c9 573e 1c8b 0ec0
00000340: b7d4 01c0 fc5b 68c0 0433 97bf 05dd 00c0
00000350: 19c0 c9bf 28d6 bebf a202 dfbf d2d9 f3be
00000360: fbd4 95bf a041 4bc0 6329 30c0 e7fa f8bf
00000370: f288 01c0 e048 6f3d c703 a1bf c58f aabf
00000380: 5d00 40bf bd61 82bf 622f 70bf cc31 6cbe
00000390: 077d 15c0 ec5c eb3e 38de c5bf 5c16 aebf
000003a0: abb5 e5bf 6f9e 42c0 e83f 23bf e6ec ecbf
000003b0: a4e3 15bf 7b7f 533f ac8f 023f ade0 67bf
000003c0: 0aa1 b3bf d24b 8f3d f2aa 91bf cf20 78c0
000003d0: 0133 c0bf c90e b1bf 56b3 babf 759d 77be
000003e0: 5527 bdbe fe13 03be f604 f6bf 8aae fa3d
000003f0: 9402 e83e 02c1 8f3f 598b 7bbf 0d9f 32bf

neuralnet.0.bias f4 [18]
-4.30068 6.1616664 -2.1984084 5.5290794 -5.7309227 4.7139697 19.581062 -15.559238
-11.193848 0.85484314 7.236426 -4.749873 -17.633104 9.044596 -9.680516 -1.5101528
-11.020609 -19.082035
00000000: 2c9f 89c0 5f2c c540 b9b2 0cc0 38ee b040
00000010: b863 b7c0 d7d8 9640 04a6 9c41 a4f2 78c1
00000020: 001a 33c1 00d7 5a3f cd90 e740 f6fe 97c0
00000030: 9910 8dc1 aab6 1041 65e3 1ac1 b04c c1bf
00000040: 6a54 30c1 02a8 98c1

neuralnet.2.weight f4 [18, 18]
-0.5378524 -7.571722 1.6568649 -5.2100253 1.2302399 1.1566721 0.6029859 -1.9699644
0.012677306 -2.867768 -2.5415869 0.2125644 0.09599144 -1.8149631 1.1804781 -8.698483
0.1665082 0.9949942 -0.2720759 -0.006771854 -0.1910628 -0.058784477 -0.23821428 -0.20774034
-0.33733016 -0.32567787 -0.06565811 -0.025799934 -0.08615792 -0.124217466 -0.21887743 -0.10655562
-0.11925426 -0.0031208168 -0.09987381 -0.038532622 0.54260916 1.3722621 -2.0395138 0.2425312
1.5139849 0.15768805 -0.08391366 -0.2558296 0.60109186 -1.083321 -1.1558696 -0.22648455
-0.005494875 -0.95332575 0.7344013 2.698633 -0.030943299 0.19314523 0.22256787 0.116258726
-1.2238824 -0.34223068 -1.4940916 -0.734678 -0.4652846 -0.50603795 -0.81141436 -0.9668989
-0.16969895 -0.52464217 0.48234606 -0.6465381 -1.8724638 -0.4790126 -0.18210587 -0.04241778
0.54129964 1.4408085 3.5172222 -5.775382 1.5878981 0.963974 2.0126173 -1.0527505
0.78995514 -1.1619335 -9.739683 4.4918694 -0.5343161 -2.2965167 3.5504012 2.8203025
2.498053 1.4717317 -1.529732 -0.1005421 -0.54988563 -0.56688124 -2.1951206 -1.634428
-0.48162895 -0.22931178 -2.8624258 -0.72344947 -0.83273834 -1.9746441 0.003250866 -1.6654729
0.22648385 -0.94043136 -0.19239102 -0.020858163 -0.19220789 -0.008826402 -0.16485943 -0.1886338
-0.04062625 -0.11931168 -0.31892747 0.012579051 -0.121187896 -0.021430124 0.053809755 -0.11347924
-0.018552825 0.0031657799 -0.20628275 -0.21877567 0.004647375 -0.0121588325 -0.6253994 0.22512002
-1.105531 0.09933412 0.52333456 -0.41234446 -0.67009366 -0.5224372 -0.75552016 0.84145015
-0.9000076 -0.64225143 0.6340497 -0.98786896 0.089834556 0.51202863 -0.36123592 -0.47274372
-0.116372935 1.4727134 3.4689958 -3.1314104 -1.1811594 0.2743121 0.7225446 0.3001676
0.9518068 0.508394 -3.0544002 3.6342633 -0.8615659 0.017120361 0.34382755 0.51227415
0.61620533 0.73478985 -0.0050050057 -0.2634171 -0.13676667 0.13538142 -0.08280052 -0.123827145
-0.1558844 0.0066085695 -0.09646481 -0.18893063 -0.20716679 0.03378407 -0.13397482 0.08140735
-0.15810394 -0.26206475 -0.07951956 -0.16002154 0.53108037 -1.9896011 -2.4027712 -2.1787126
-0.26542136 -0.5989013 -0.5440309 -0.05268029 -0.7268492 -0.19342285 -2.0466 -14.71825
-0.4084728 -1.6191689 -3.7296822 -1.0927936 -0.10073921 -0.87445706 0.66388243 0.0379832
-4.1050954 0.62668157 0.19793949 0.034662217 -1.7519572 -0.5764022 -0.8553161 0.47308117
0.22825526 -0.4671197 0.3878953 0.020482367 -0.042167503 -0.6639024 -0.29923868 -0.07509761
0.26231268 0.74525666 -0.84885335 -0.17485096 1.7503127 -0.01095139 0.030083308 -0.43268153
-0.5536734 -0.6307135 -3.5574942 -0.21796373 0.021271203 -0.60483557 0.00768359 1.9487097
-0.48413143 1.5293394 -8.937375 -2.8412223 1.1887909 -9.54992 0.1090445 -4.394374
1.8694218 -1.3322927 -1.6149318 -0.91948974 -1.1059805 -27.987343 -4.7408614 -3.5605555
-1.0157349 -2.5682285 -3.006824 -2.2640994 -3.1549356 -3.9344387 -6.199347 -6.8042684
00000000: b2b0 09bf 8c4b f2c0 2614 d43f 87b8 a6c0
00000010: 8078 9d3f d50d 943f 495d 1a3f cb27 fcbf
00000020: 7ab4 4f3c 8389 37c0 5ca9 22c0 7baa 593e
00000030: 2997 c43d b650 e8bf e819 973f fd2c 0bc1
00000040: 2081 2a3e f1b7 7e3f 884d 8bbe 6ee6 ddbb
00000050: f7a5 43be fec7 70bd 72ee 73be e2b9 54be
00000060: 8ab6 acbe 40bf a6be c277 86bd 625a d3bc
00000070: 9073 b0bd ba65 febd 6821 60be d539 dabd
00000080: 943b f4bd 9e86 4cbb a48a ccbd 62d4 1dbd
00000090: 6fe8 0a3f 49a6 af3f 6587 02c0 195a 783e
000000a0: 42ca c13f fa78 213e edda abbd 19fc 82be
000000b0: 28e1 193f 43aa 8abf 89f3 93bf 91eb 67be
000000c0: 5a0e b4bb 280d 74bf b901 3c3f 67b6 2c40
000000d0: cd7c fdbc ddc7 453e d5e8 633e 0e19 ee3d
000000e0: 2ea8 9cbf dc38 afbe 653e bfbf db13 3cbf
000000f0: c839 eebe b48b 01bf dab8 4fbf b086 77bf
00000100: 90c5 2dbe f34e 06bf 10f6 f63e 8583 25bf
00000110: e5ac efbf 2441 f5be f679 3abe 44be 2dbd
00000120: 9d92 0a3f 6a6c b83f 2b1a 6140 eecf b8c0
00000130: 3f40 cb3f 00c7 763f b9ce 0040 87c0 86bf
00000140: 803a 4a3f 3dba 94bf bed5 1bc1 65bd 8f40
00000150: f1c8 08bf 21fa 12c0 c639 6340 d67f 3440
00000160: 1ae0 1f40 b461 bc3f 42ce c3bf 04e9 cdbd
00000170: 4ec5 0cbf 211f 11bf db7c 0cc0 f034 d1bf
00000180: 1298 f6be b5d0 6abe fc31 37c0 fc33 39bf
00000190: 572e 55bf 23c1 fcbf 7b0c 553b 372e d5bf
000001a0: 62eb 673e 1cc0 70bf 2702 45be bdde aabc
000001b0: 25d2 44be 9d9c 10bc e9d0 28be 3829 41be
000001c0: b667 26bd af59 f4bd 764a a3be 5d18 4e3c
000001d0: 5c31 f8bd 3a8e afbc 9e67 5c3d ce67 e8bd
000001e0: 18fc 97bc f978 4f3b c93b 53be bb06 60be
000001f0: 0249 983b d735 47bc 2d1a 20bf dd85 663e
00000200: 0a82 8dbf b06f cb3d 41f9 053f d01e d3be
00000210: 428b 2bbf 72be 05bf c569 41bf 4769 573f
00000220: e666 66bf 976a 24bf 1551 223f fbe4 7cbf
00000230: 2efb b73d 4f14 033f eaf3 b8be 770b f2be
00000240: ef54 eebd df81 bc3f 0704 5e40 0769 48c0
00000250: 3b30 97bf a372 8c3e aff8 383f 91af 993e
00000260: 9ca9 733f 1c26 023f 4b7b 43c0 c597 6840
00000270: 958f 5cbf 0040 8c3c 2a0a b03e 6624 033f
00000280: a2bf 1d3f 301b 3c3f 0801 a4bb 9bde 86be
00000290: 900c 0cbe 6da1 0a3e 5293 a9bd 1699 fdbd
000002a0: 29a0 1fbe b38c d83b 588f c5bd 0877 41be
000002b0: 8823 54be 2a61 0a3d b230 09be e6b8 a63d
000002c0: 00e6 21be 5a2d 86be 27db a2bd b0dc 23be
000002d0: e2f4 073f 40ab febf 01c7 19c0 0770 0bc0
000002e0: 4fe5 87be 9851 19bf 9c45 0bbf 4ac7 57bd
000002f0: ca12 3abf a410 46be 7ffb 02c0 f47d 6bc1
00000300: 5923 d1be ed40 cfbf 1db3 6ec0 a9e0 8bbf
00000310: 5c50 cebd 6bdc 5fbf 33f4 293f 4694 1b3d
00000320: f15c 83c0 346e 203f a6b0 4a3e f8f9 0d3d
00000330: 2240 e0bf 188f 13bf fff5 5abf b237 f23e
00000340: bfbb 693e 502a efbe 369a c63e a3ca a73c
00000350: d5b7 2cbd 82f5 29bf d035 99be c7cc 99bd
00000360: d94d 863e 24c9 3e3f 744e 59bf 210c 33be
00000370: 3f0a e03f 756d 33bc 4571 f63c 6f88 ddbe
00000380: 8abd 0dbf 7176 21bf fcad 63c0 e231 5fbe
00000390: f240 ae3c 81d6 1abf a0c6 fb3b 526f f93f
000003a0: 13e0 f7be 65c1 c33f 7dff 0ec1 96d6 35c0
000003b0: 4d2a 983f 79cc 18c1 b952 df3d b69e 8cc0
000003c0: 3749 ef3f 9188 aabf 16b6 cebf ae63 6bbf
000003d0: c590 8dbf 14e6 dfc1 23b5 97c0 24e0 63c0
000003e0: 9a03 82bf db5d 24c0 ce6f 40c0 01e7 10c0
000003f0: 77ea 49c0 d8cd 7bc0 0d61 c6c0 91bc d9c0

neuralnet.2.bias f4 [18]
-16.902538 -0.42444482 -28.23366 -2.1618724 57.597313 -8.15313 -0.3226953 -7.9979978
-29.320417 -0.17749135 4.4556623 -5.3461223 -27.02986 11.359344 11.647946 -20.014303
-14.074204 -9.160422
00000000: 6638 87c1 d550 d9be 89de e1c1 1e5c 0ac0
00000010: a663 6642 3873 02c1 5238 a5be 99ef ffc0
00000020: 3790 eac1 4bc0 35be c994 8e40 6f13 abc0
00000030: 273d d8c1 dfbf 3541 fd5d 3a41 4b1d a0c1
00000040: f12f 61c1 1791 12c1

neuralnet.4.weight f4 [4, 18]
1.9453903 -0.075596236 0.24639007 0.33073866 -1.9006908 1.7510537 0.20209508 0.98653555
2.269272 0.09922592 -0.92282265 8.59257 1.3927103 -0.9914159 -0.1235726 1.9944735
3.3299084 5.129008 2.6750686 -0.080118194 2.810835 0.99870515 -1.8720487 0.10944624
-0.111445114 1.1020467 2.0977247 -0.055996 0.08985119 7.4422927 -1.6442327 -1.0405194
-0.08137906 2.2569847 3.2519834 4.630849 2.145465 -0.007220313 2.9199693 0.6242801
-1.747024 2.4863043 -0.01700402 1.2009374 2.3693001 -0.05960222 -0.8241454 7.8644
1.2452176 -0.6041091 -0.6913244 1.5374911 -1.4218042 4.3745394 -0.9677263 0.010927805
2.8580146 0.70346195 -1.5570838 1.3845062 0.07288029 1.7709754 2.3821764 -0.07883026
-1.2379638 8.118036 0.73709816 -0.8460144 -0.4208808 2.0262656 2.900607 2.7430272
00000000: 8d02 f93f 33d2 9abd ae4d 7c3e 9456 a93e
00000010: d649 f3bf 8722 e03f 03f2 4e3e 988d 7c3f
00000020: c13b 1140 f636 cb3d 1b3e 6cbf 2b7b 0941
00000030: 5544 b23f 6fcd 7dbf a213 fdbd e84a ff3f
00000040: 381d 5540 d520 a440 5334 2b40 0215 a4bd
00000050: b8e4 3340 24ab 7f3f 4b9f efbf 5a25 e03d
00000060: 563d e4bd de0f 8d3f 1f41 0640 105c 65bd
00000070: e703 b83d 4327 ee40 3876 d2bf bd2f 85bf
00000080: 11aa a6bd 7072 1040 7f20 5040 ea2f 9440
00000090: 4c4f 0940 6098 ecbb c7e0 3a40 d2d0 1f3f
000000a0: 7c9e dfbf 9c1f 1f40 044c 8bbc 51b8 993f
000000b0: 9da2 1740 7521 74bd 31fb 52bf 2aa9 fb40
000000c0: 4a63 9f3f e5a6 1abf a3fa 30bf 82cc c43f
000000d0: aefd b5bf 3afc 8b40 e9bc 77bf 890a 333c
000000e0: b6e9 3640 1516 343f 864e c7bf 8037 b13f
000000f0: 4342 953d 52af e23f 9475 1840 c271 a1bd
00000100: 9975 9ebf 7ae3 0141 77b2 3c3f 6694 58bf
00000110: b07d d7be 56ae 0140 8ca3 3940 c28d 2f40

neuralnet.4.bias f4 [4]
-22.860064 -23.208721 -26.31757 -26.349363
00000000: 69e1 b6c1 76ab b9c1 628a d2c1 7fcb d2c1
