src/players/saves/RLBasic5-2.pth (torch_old, 16010 bytes, 6 tensors)

neuralnet.0.weight f4 [18, 182]
00000000: 941d 9c3e 4718 243e 79db 543e 16a1 a83e
00000010: 480f e03d 5677 743d f38e a23e f165 1b3e
00000020: 66c4 3a3e 2af9 f93c 686d 99bd e975 d9bc
00000030: d700 8a3d 5909 8b3d 7b7f 423e 36ac e03d
00000040: 5c02 ccbc 0d98 8e3d 3c36 1b3d e4ac 8b3d
00000050: c502 27bd 4eaa 23bc 9385 453e b727 5b3e
00000060: f994 363d 1625 e73c 3e67 1c3e bee3 363d
00000070: 8bac 02bb a06c 3cbc ae4e 093e 8655 9fbc
00000080: 0405 d03d 273e 6abb ae5a 923d 0ae4 52be
00000090: 8116 4b3e e2c2 4abe d474 2e3d dc23 61bd
000000a0: a657 d73d ae4f e2bd f480 20be 917b 10be
000000b0: e171 58be 7b9c 48bd 9a9d 88bd be7b 05bc
000000c0: 6da2 86be 2adf c73d 18bf 90be c069 8dbd
000000d0: 56f7 53bd 200f b3bd 007d a8bd e707 493c
000000e0: 961d 0cbe 0d34 543d 3e07 6abd 04a9 823d
000000f0: 1ae8 153f 1af3 e83d 6b89 ae3d 3e7b 153e
00000100: 4f8f a43e 01a4 09be 5c16 3a3d 3c9a 06be
00000110: 9b26 ab3d 83fc f1bc c310 86bb 5304 b33c
00000120: c776 e7bd 8baa 993c 13d9 98b8 364c 02be
00000130: 17f4 7fbe a3f6 babd 373a 29be 4831 12be
00000140: fd63 053c 6465 4e3c 9b72 04bd ef27 0e3c
00000150: 6479 853e 3e81 993c 4030 a93c 96cc 473d
00000160: c326 3dbd 9cb6 cabc d430 c63e e265 533b
00000170: 1be1 5e3e a239 063e c7fa f03d 37e2 c6bd
00000180: 4c40 353d 86cc 713e 03e7 3e3e c6d7 d0bc
00000190: b8cd e33d cde9 25bd f431 c33d 7e02 113d
000001a0: c174 5f3e 982d 7c3d f0e5 65bd 093f ef3c
000001b0: 4d57 c43d 9184 f73c e429 3e3d ae0d 06bd
000001c0: a07b cb3c c352 33bb b65c 88bc 4857 6a3d
000001d0: 1622 983b abbf 653e 2212 883d d5c4 45bc
000001e0: 58fb 6b3e 7f47 debd 92d8 7cbc 1e8b 953e
000001f0: 67a9 de3d 8bd8 ef3d df08 c63d 3bca 2c3e
00000200: 53a8 e8bc 9e62 5e3d 9231 07bc a484 d23d
00000210: a5c1 85bd 2797 2f3d 0b87 b33d 1a2b 843d
00000220: 615e 883d 1ebe cb3c 87a3 7e3e 9e0f a0bc
00000230: ee28 703d e29f 5c3e c429 8e3d 3649 b13d
00000240: e59a 8e3d a384 aebd d6d4 9d3d d2f5 803b
00000250: c877 c93d d0c3 383c e138 083f fe58 923d
00000260: 7966 73bc 40b7 b5bc 4ab7 543d 9a59 a2bd
00000270: f585 b93d a94f e13d a136 b33d 6f5f c03d
00000280: f3d6 443f 0662 473f c93e 273f 40a1 c23e
00000290: fc34 023f 4982 433f 6293 553f 19d5 eb3e
000002a0: c048 b23e c10e b93e e660 5e3e f708 1a3f
000002b0: 8882 d13e 91e9 d03e dc20 323f 23cc fb3e
000002c0: 169b 163f 21aa de3e fd78 d33e 3090 003f
000002d0: 87e8 d13e a0ff d23e 47db 4d3e e30e 683e
000002e0: 974a 803e 2fe2 323e 2d4a 82bc c4d8 2e3c
000002f0: 4783 313e 1294 e13d dd40 4a3e 9029 783d
00000300: 9785 5fbd 8f7f 91bd aaa4 a53d 943f a4bc
00000310: 9b13 4e3e b5ca 523d f5a4 bcbd ef19 cabd
00000320: b8cf 0fbd 0200 92bc 8f5c 19bd 8d87 18bb
00000330: 2b70 fe3d c184 003e 44fd e3bd 67d1 ca3d
00000340: caf5 553b e730 b1bc 7d0c ec3d 27b3 ac3c
00000350: 70f4 fb3c 4a49 aa3d ef09 5d3d 19cb 9abd
00000360: 788b d63d 1709 3abe 91e2 133e 100d 88bd
00000370: 986a 863d f07f 65bc 0e0d 72bb 2b5f 3ebe
00000380: 5b09 1dbe c4e2 91bd 8354 4abe a66d f73c
00000390: 0670 34bd 27ef babc c740 78be 8c51 653c
000003a0: 4487 93be f3fd 13be e5bd 40bd 62cd 96bd
000003b0: ba78 e9bd a441 e6bd 913b 52be 6937 e33d
000003c0: 6d46 45bd b481 873d 3f83 023f a81e 4d3d
000003d0: a6b2 3f3c a0be 033e df77 303e baf1 2abe
000003e0: 009c 483d 118b 13be 530f 503c 37d8 db3c
000003f0: 7458 053d a564 f0bd cb0a 85bd 48e8 063d
0.30491316 0.16024886 0.20786847 0.329354 0.10940415 0.05968412 0.31749687 0.15175606
0.18238983 0.030514318 -0.07491571 -0.026545482 0.067384414 0.06788892 0.18993942 0.10970347
-0.024903469 0.06962595 0.03789352 0.06820086 -0.040774126 -0.009989334 0.19289236 0.21401869
0.044575665 0.028215926 0.15273759 0.044650786 -0.001993927 -0.011500508 0.1340892 -0.01944996
0.10157207 -0.0035742612 0.07146202 -0.20594802 0.19832803 -0.19800904 0.042591885 -0.05496584
0.105147645 -0.11050354 -0.15674192 -0.14109637 -0.21137191 -0.048977356 -0.06670685 -0.008147178
-0.26295796 0.09759362 -0.28270793 -0.06904936 -0.05174955 -0.08743119 -0.08226967 0.0122699505
-0.13683161 0.051807452 -0.057135813 0.063798934 0.58557284 0.11374493 0.08522304 0.14597794
0.32140586 -0.13441469 0.04543148 -0.13144773 0.08356973 -0.029539352 -0.0040913536 0.021852648
-0.11301952 0.018758079 -7.288358e-05 -0.12724385 -0.24995457 -0.091290735 -0.16526113 -0.14276612
0.008141515 0.012597416 -0.03233586 0.008676513 0.26069176 0.018738385 0.02065289 0.048779093
-0.046179544 -0.024745278 0.38709128 0.0032256772 0.21765558 0.13107923 0.11766582 -0.09711116
0.04425077 0.23613176 0.18642811 -0.025493514 0.11123222 -0.040506173 0.09531012 0.035402767
0.21821882 0.06156692 -0.05612749 0.029204862 0.09586964 0.03021458 0.04642667 -0.03272789
0.024839222 -0.0027362562 -0.01664577 0.057212144 0.0046427352 0.22436397 0.066440836 -0.012070854
0.23045099 -0.108534805 -0.015432494 0.292077 0.10872155 0.11711224 0.09669661 0.1687402
-0.028400576 0.054293267 -0.008251565 0.102792054 -0.065310754 0.04286876 0.08765992 0.064535335
0.06658626 0.024870928 0.24867068 -0.019538697 0.058632784 0.21545365 0.0694156 0.08656542
0.069631375 -0.08521392 0.07706611 0.003935554 0.098372996 0.011277154 0.5321179 0.0714588
-0.014855974 -0.022182107 0.05193261 -0.079272464 0.090587534 0.11001522 0.08750654 0.093932025
0.76890486 0.77883947 0.6533018 0.3801365 0.508621 0.76370674 0.83428013 0.46061018
0.3482113 0.3614407 0.21716651 0.6016993 0.409199 0.40803197 0.6958139 0.4917918
0.5883039 0.43489173 0.41303244 0.5022001 0.40997717 0.4121065 0.20103179 0.22661929
0.25056908 0.17469095 -0.01590451 0.010671798 0.17335235 0.1101457 0.19751306 0.060586512
-0.05457076 -0.07104408 0.08088048 -0.020049848 0.20124666 0.051462848 -0.092111506 -0.09868228
-0.035110205 -0.01782227 -0.037441786 -0.0023274154 0.12423738 0.12550642 -0.11132291 0.099032216
0.0032647722 -0.021629764 0.115258195 0.02108152 0.030756205 0.0831476 0.05396455 -0.07558269
0.1047582 -0.1816753 0.14441897 -0.066431165 0.065633 -0.014007553 -0.003693405 -0.18590991
-0.153356 -0.0712333 -0.19758801 0.030203652 -0.044052146 -0.022819115 -0.2424346 0.013996493
-0.28814137 -0.14452343 -0.047056098 -0.073633924 -0.1139998 -0.11242989 -0.20530535 0.11094553
-0.048162866 0.06616536 0.50981516 0.050078064 0.011700308 0.12865686 0.17233227 -0.16693774
0.0489769 -0.14408518 0.012698966 0.026836498 0.03255506 -0.117379464 -0.06496199 0.032936364

neuralnet.0.bias f4 [18]
00000000: da38 9f3f ac96 763f cbd2 a13f 4e93 a43f
00000010: 1887 993f 3a1e 6c3f 040c ecbd c4e6 f9bd
00000020: d47a a13f fb56 9c3f 8a18 9f3f 144c 82bd
00000030: ef81 8f3f fe77 943f c861 8d3f 354c 783f
00000040: 818d 8c3f 02b5 993f
1.2439225 0.9632366 1.2642454 1.2857454 1.1994352 0.9223362 -0.11525729 -0.12202218
1.2615609 1.2214044 1.2429364 -0.06362167 1.1211528 1.1599119 1.1045465 0.9699128
1.0980684 1.2008364

neuralnet.2.weight f4 [18, 18]
00000000: 8124 a73d 8b32 adbd 1bf7 b23d 8063 91bd
00000010: 6170 2a3d 9c40 1abe d11e 133e a6dc fe3d
00000020: 9f61 543d 338d 5cbc 35b4 26bd 0644 6c3d
00000030: eb5c 3cbe fe05 45be 1f87 0f3e 58e9 7ebe
00000040: d41e 30be 8390 8f3d e5e0 a1be b096 c23d
00000050: 82ba dabd 3f54 c0bd ae31 90be 4f4f 59bd
00000060: 99ce 9fbd 4b37 d83d 9ae3 94be c013 973d
00000070: 5de7 0a3e f26a aebc c3a7 ef3d 780e 713c
00000080: a0c9 25bd eb76 693d ca0a 363c 143d 2d3d
00000090: 1733 a33f e11d 6f3f b79a 9b3f c9c8 903f
000000a0: cf1a 6a3f 9146 6e3f e72e 793e 0c6f 44be
000000b0: 1fae 823f 483e a13f 558c 9f3f e5e0 3a3c
000000c0: 95d4 903f 4a79 893f 0384 913f 846b 903f
000000d0: 0663 993f 3d9a 4b3f 9585 53be af62 673e
000000e0: 8480 bdbd 042c c2bd a499 47be f0cf 1dbc
000000f0: 0569 0b3e ad02 f7bd e2f9 39be d091 0fbd
00000100: bff8 383e b0ee f8bd 6c73 3f3d efd5 e7bd
00000110: 301d 1fbe 7150 153e 5547 0cbe 8265 c6bd
00000120: d656 2a3f 0cda 653f 2c69 3a3f d8e3 423f
00000130: 618a 3c3f 257f 603f 12f2 853e 8952 7ebe
00000140: 0952 523f ec2d 383f 71f3 4f3f e0b3 943d
00000150: 6c7f 003f c61f 5d3f 2d2c 393f 7e49 603f
00000160: 307a 213f c483 693f 189f d5bc 25d2 513e
00000170: a8e7 c8bc 08ea 2abd 4df4 1abe f007 3bbc
00000180: 9876 db3c 6314 0f3e 2bed 69be 25fd fbbd
00000190: 39c3 1e3e 6aaf 97bd 3450 3e3d 2942 3c3e
000001a0: 9788 443e 4229 3dbe f09a 2ebe d2a5 fa3d
000001b0: 043d d0bc e3f6 f6bd 745f 8cbe 3b57 7b3d
000001c0: deab 213e 8218 f1bd d673 45be 22da 833d
000001d0: ab88 bebc 9e3a 12be ad16 8ebe c356 3b3d
000001e0: 0f30 de3d 59a2 093d df0d 1b3d 4183 47bd
000001f0: 3aa3 443e 57f1 58be bbc9 763f d9c3 823f
00000200: 38d0 563f a7b6 8b3f bb6a 633f 4ec5 4f3f
00000210: 0253 123b 1771 063e c386 7e3f 9a6b 603f
00000220: 6908 8e3f dd77 883d 4645 943f f7ef 483f
00000230: 6265 903f 0403 373f 712d 4b3f b3a5 503f
00000240: ac4d 273d 1c2f 1d3d 46b3 f13d 9f0b 42be
00000250: b2c2 6fbe 79a6 f7bd 289b 12be dbdd 4b3e
00000260: 7a4f f03d ea15 00be 2302 613e 4dad 273e
00000270: 94fd 5e3d a68a f33d 7f7d 57be fcee 5f3d
00000280: 6019 3fbe d24b 49be b53e 893f 32d3 723f
00000290: 02e1 4c3f f305 433f 1417 883f 121d 183f
000002a0: b3e2 5abd 60f1 0f3e 9ea1 7d3f 82f4 693f
000002b0: 0317 443f 42ab 573c c656 7d3f 6c30 703f
000002c0: d337 633f aabb 433f 5862 523f 37a5 653f
000002d0: 352d 8a3f 59d0 583f 17ca 9b3f ac17 a93f
000002e0: a9be a03f 0250 6a3f baf6 113e 51b5 f8bc
000002f0: 969d 903f 3871 963f ea60 a03f 8217 883e
00000300: b2ce 663f 4e30 943f 8dd2 993f 2fc1 473f
00000310: fb2d 513f 375b a03f 0f91 693f fd10 7a3f
00000320: e544 8f3f 8d31 5b3f 11fa 773f ee9f 4f3f
00000330: dfe7 8dbd ada0 053e 0941 8d3f eed5 583f
00000340: ba35 953f d664 c9bb a0fb 953f 233c 903f
00000350: 38bd 613f 15ee 873f da9a 953f f172 a13f
00000360: 05b5 693f 7b57 913f d8a5 663f 1dc2 8a3f
00000370: 8a2d 513f 758a 173f aaae d2bd 2a2e 113e
00000380: e606 7c3f e0bb 613f 2d04 8c3f bd60 b5bd
00000390: 8bd1 663f f7e8 543f fc9c 8d3f 7815 663f
000003a0: 26c0 6b3f 610e 5b3f 60d5 5c3f 880c 173f
000003b0: f2f8 493f bc1e 123f 87c5 663f 3600 123f
000003c0: b18a b5bd ad2c 363e e0e7 3d3f 62e1 623f
000003d0: 529c 383f c432 acbd 93d2 6c3f 9a11 573f
000003e0: 53ea 2d3f 9f0a 1c3f d31c f73e b316 4c3f
000003f0: ec11 2fbe c47f 653a 9520 b6bd 2a1b e2bd
0.081612594 -0.08456906 0.08738538 -0.07099056 0.04161108 -0.15063709 0.14367224 0.12444429
0.05185091 -0.013461399 -0.040699203 0.05768206 -0.1839482 -0.19240567 0.14016388 -0.24893701
-0.1719926 0.07009985 -0.31616893 0.095013976 -0.10680105 -0.09391069 -0.28162903 -0.05305415
-0.07803077 0.10557421 -0.29079896 0.07376814 0.1356482 -0.02129123 0.1170192 0.014712922
-0.040475488 0.056998175 0.011110971 0.042294577 1.2749966 0.93404967 1.215659 1.1311275
0.91447157 0.93076426 0.24334298 -0.19182986 1.0209388 1.2597132 1.2464701 0.011406158
1.1314875 1.074014 1.1368412 1.1282811 1.1983345 0.79532224 -0.20656426 0.22596239
-0.09253028 -0.094810516 -0.19492203 -0.009632096 0.1361428 -0.12061057 -0.18161729 -0.035051167
0.18063639 -0.12154901 0.046740934 -0.113201015 -0.15538478 0.14581467 -0.13699086 -0.0968733
0.6653875 0.8978584 0.7281673 0.7612891 0.7364865 0.8769401 0.26161247 -0.24836172
0.82156426 0.7194507 0.8123084 0.07260871 0.5019443 0.8637661 0.7233303 0.8761214
0.6307707 0.91216683 -0.026076838 0.2049032 -0.024524525 -0.041727096 -0.15132256 -0.011415467
0.026789948 0.1397262 -0.22844379 -0.12304143 0.15504159 -0.074065045 0.046463206 0.18384613
0.1919273 -0.1847277 -0.17051291 0.12238659 -0.02541972 -0.12058809 -0.27416575 0.061362486
0.15788218 -0.117722526 -0.19282469 0.0643809 -0.023258528 -0.14280173 -0.27751675 0.04573704
0.1084901 0.033602092 0.037855025 -0.048709158 0.19202891 -0.21185814 0.96401566 1.0216018
0.83911467 1.0915116 0.8883473 0.8116044 0.0022327309 0.13129078 0.9942438 0.87664187
1.1096317 0.06663487 1.158364 0.7849116 1.128094 0.71488976 0.79366213 0.81502837
0.040845558 0.038375005 0.11801772 -0.18949746 -0.23414114 -0.12092299 -0.14317 0.1990885
0.11733909 -0.1250836 0.21973471 0.16374703 0.05444105 0.118916795 -0.21043967 0.054671273
-0.18662024 -0.1965783 1.0722262 0.9485351 0.80030835 0.7618095 1.0632043 0.5941936
-0.053438853 0.14056921 0.99074733 0.91388714 0.76597613 0.01316339 0.9896053 0.93823886
0.88757056 0.7645823 0.8218131 0.8970522 1.0795046 0.84692913 1.2171048 1.3210349
1.2558185 0.9152833 0.14254275 -0.030359896 1.1298091 1.1753302 1.2529576 0.26580435
0.9015914 1.1577241 1.201738 0.7802915 0.81710786 1.2527837 0.91236967 0.9768217
1.11929 0.85622483 0.96865946 0.8110341 -0.069289915 0.13049574 1.1035472 0.8470143
1.1657021 -0.006146054 1.1717415 1.1268352 0.8817935 1.0619532 1.1687882 1.2613202
0.9129184 1.1354822 0.9009681 1.0840489 0.8171011 0.59195644 -0.10287221 0.14177766
0.98448026 0.881773 1.0938774 -0.08856342 0.9016349 0.83167976 1.1063533 0.8987651
0.9209007 0.85568815 0.86263084 0.59003496 0.78895485 0.57078147 0.9014515 0.5703157
-0.08864344 0.1779048 0.7418194 0.88625157 0.72113526 -0.0840812 0.9250881 0.8401123
0.67935675 0.60953707 0.4826418 0.79722136 -0.1709668 0.00087546953 -0.08892933 -0.110403374

neuralnet.2.bias f4 [18]
00000000: 0c4c 65be 0472 9f3d c5a8 463f 04b1 1bbe
00000010: de37 d93e 28b2 63be 91e6 8bbe 8059 5b3f
00000020: ccfb 1abe 5b24 363f 86ec 753f f76f 813f
00000030: 34ef 523f 57cb 613f 948d 153d 83df 663f
00000040: 3323 083f 93da e0bd
-0.22392291 0.07785419 0.7760127 -0.15204245 0.42425436 -0.2223593 -0.27324346 0.8568344
-0.15135115 0.71149224 0.9606403 1.0112294 0.82396245 0.88200897 0.036511973 0.901848
0.5317871 -0.1097919

neuralnet.4.weight f4 [4, 18]
00000000: cace 143e 9a41 d6be 6d0c dfbe 4b47 27be
00000010: 2bb6 93be 83de 693e cdae 7a3e 2594 c4be
00000020: 1682 a4bd c59b 83be 0b0c d5be f667 14bf
00000030: 0c1d 82be 5cde 22bf 329a d73d 66b2 00bf
00000040: 4137 dfbe f8ce a23c 5dc4 083e bbc3 da3c
00000050: 4b08 0ebf 7a53 903d 2b89 8cbe b73b 193e
00000060: 69d0 0cbe ea53 1abf 788d bd3c 841e 3fbf
00000070: e980 2abf b24d 3abf 10bf ebbe c497 b4be
00000080: 3a79 033e 8f4b eabe 8a56 7dbe f811 f1bd
00000090: d25d 00be 61ff 11bc b534 10bf 4608 bc3d
000000a0: 0878 18bf 8be9 693e e0d0 82bb 04fd 25bf
000000b0: d9dd 393e 2ba2 31bf 0125 1abf 3d09 17bf
000000c0: ebf4 23bf 1367 03bf 160e d63d 710d 18bf
000000d0: c49d 4abf 5bac 4d3d 3f96 76be 8530 f23c
000000e0: 56ab 36bf 37c7 033e 1a87 0cbf f885 b5bd
000000f0: b607 eb3d 90af d5be 12a4 62be 585b dfbe
00000100: e099 41bf b685 16bf 3a54 31bf 0169 45bf
00000110: 7ebc 5bbe 3c09 d9be 6319 0abf 0d8b 16be
0.14532009 -0.41846925 -0.43564168 -0.1633579 -0.2884992 0.22838788 0.24480744 -0.38394275
-0.080326244 -0.2570478 -0.4161075 -0.5797113 -0.25412786 -0.63620543 0.10527457 -0.50272214
-0.43596843 0.019874081 0.13356157 0.02670466 -0.55481404 0.07047172 -0.274484 0.14964186
-0.13751377 -0.6028429 0.023138747 -0.7465594 -0.6660295 -0.72774804 -0.46044207 -0.35272038
0.12839213 -0.45760772 -0.24740043 -0.117710054 -0.1253579 -0.008910985 -0.56330425 0.091812655
-0.59558153 0.22842996 -0.003992185 -0.64839196 0.18151034 -0.69388074 -0.60212713 -0.5899847
-0.6404559 -0.51329154 0.104519054 -0.5939551 -0.7914698 0.0502132 -0.24080752 0.029564152
-0.7135519 0.12868963 -0.5489365 -0.08863443 0.1147608 -0.41735506 -0.221329 -0.43624377
-0.7562542 -0.58797777 -0.69269145 -0.7711335 -0.21458623 -0.42389858 -0.5394499 -0.14701481

neuralnet.4.bias f4 [4]
00000000: f0bf efbe e17f 13bf e73a 4ebe baee 28be
-0.46826124 -0.57617 -0.20139657 -0.16497317
