src/players/saves/RLBasic30000-3.pth (torch_old, 16010 bytes, 6 tensors)

neuralnet.0.weight f4 [18, 182]
00000000: 43e7 24bf a252 0d40 b670 8e3e 8500 7f3e
00000010: ef52 38bc cceb 26be 7a35 ce3e 85e2 0ebe
00000020: d4c7 87bd 7962 af3f 695e 0f3f 0597 3b3f
00000030: d7a6 06bf 33cc 3b3e f75b 693f e8ad 2140
00000040: ac04 c63e 53ab 0640 b609 903f 8c3f 3640
00000050: 7aab c63f 6fa5 2840 8fa0 9d3f 0649 1e3e
00000060: 9aad 0a40 e44c d93f 35a0 0d40 a21b ea3d
00000070: 174b 1940 90f1 8040 2dab 423f a1b1 d5be
00000080: 9b3c 893f 2ee7 833f 3bbd 0540 21e6 8f3f
00000090: 5a46 3540 7e0f 3640 8328 0840 eb41 81bd
000000a0: bd15 5440 a941 113f fe8a 1d40 ddce 303f
000000b0: 7c16 3b40 3036 de3f 84a8 b93f 856b 5340
000000c0: 25bf ec3e c5a1 163f 5a69 6a3d 2da3 e43f
000000d0: a6b4 4140 70a7 8040 d867 4f40 dea7 f83e
000000e0: 7da5 3840 b73e 8040 0a81 7240 6c4c e53c
000000f0: 0048 3b3e 0d0b 753f 6e6c c63f 38fb d73f
00000100: c651 f73b 8b27 133f 46f7 bf3f 338a 9e3f
00000110: 5169 883f 7f28 963f 4798 233f c1c0 bb3f
00000120: 3ba8 95bf bd90 0d40 d2d6 cd3f a077 df3f
00000130: 8d1b 0dbf 0202 da3f 03f2 38bf 05ab ba3f
00000140: 2d80 afbf 0b11 e9bf da3d 96bf a98b ccbf
00000150: 7121 aabf 0a3c 4fbf edcd 2fbf bcf6 aabf
00000160: fae7 b3bf a848 e03c 8ea9 1cc0 291f 4abf
00000170: b6b2 e0be 550a 25be 0ef8 5e3f 0b88 1cbf
00000180: 7f7e 7fbf d155 c53e 470c b53e 2a85 80be
00000190: c3f4 86bd 9337 603f 45cf c43e 551d ccbd
000001a0: 3c17 f13e 319e 3cbf fd0b bbbe ebd3 dcbe
000001b0: c245 853b e95e eabe 1bd2 87bf 51e9 1ebf
000001c0: bfdf 86bf 053b 31bf cb03 ffbf 559d 91bf
000001d0: 38b0 1fbf be99 0ac0 74a1 a2bf c351 c5bf
000001e0: 2aaf 4b3f 1a50 ca3e 2d1e 563f 20fb c83c
000001f0: d3a6 c63f ce9c 8dbe dabf 253f 1683 40be
00000200: 8ef2 9940 5a3f 3e40 478a 183f 7247 233f
00000210: 5c3f 0440 dd4c 9f3f 784a fb3f 6f9b b73f
00000220: 5103 5f3f 17b0 463f 8cda dd3f dc2b af3f
00000230: c138 1640 fea7 f53f 2b19 0e40 1762 4b40
00000240: 506d f13e c770 8b3f 0fe3 e83e 3d30 ce3f
00000250: 62e4 0a40 34a5 ccbc 7387 9ebf 6f7a a43e
00000260: a2d0 c7be fda8 e13f 9b49 50bf 9d1d 5abe
00000270: 9401 e8bf 5ada a3bf e4ac 07bd 33fe ffbd
00000280: 1a88 a4bf 017b 50bf 7a3f ab3f bbef 59bf
00000290: 1426 d83e 19ec 41c0 3ca1 6ac0 00c3 90c0
000002a0: cc96 97c1 7812 52c0 d601 333e f16e 4d40
000002b0: e7b1 c8bf 663a 20c0 6b77 f4bf e52c 95bf
000002c0: f572 4b3f 756c 863e 11f7 b13e b09d 0ebf
000002d0: 7240 e03f b743 b1bf c0a8 223f 9a98 7540
000002e0: b370 bb3f 9cb0 1340 1cba 5040 0b78 7540
000002f0: fab6 d03f a129 a340 edf6 4940 a96c a8bc
00000300: 9fb3 7f40 31f6 4e40 febc 8d3d c3e5 1b40
00000310: a7c6 883f e492 c5be d6ed 09bf 9c95 8740
00000320: 05a8 ba40 0a7c 813f dc25 a640 5ead 0c40
00000330: d481 4a40 811c b240 b7e9 2940 5cf2 7540
00000340: 6d94 8a40 d4eb c73e 9275 2d3f 4287 9940
00000350: f4f7 2840 dd81 8a40 13b7 3840 b8c4 4b40
00000360: 7a5c 3b3f 9117 a03e 19ef b040 9aa2 e840
00000370: cf8a 7440 66e9 74bd bd53 3540 d494 a340
00000380: ed82 8040 72f0 8840 8e49 3840 48ba 5e40
00000390: 3341 1340 7b58 4440 7f8f 1a40 eb34 7740
000003a0: 71d6 e0be c4b7 4a40 01f5 d7be 16eb f43f
000003b0: c3ff 1f40 8497 6f40 bde4 b33f 6545 5340
000003c0: ae1f 4740 c082 4bbc b4e4 0540 37f3 5d40
000003d0: 41b0 4440 a99b 4740 cba2 b43f 5052 be3f
000003e0: f191 de3d c672 1040 b972 a33d 59a8 5340
000003f0: eafb c93f a7ee 3a40 3fbb 5e3d d47c 5440
-0.6441538 2.2081685 0.27820367 0.24902542 -0.011250242 -0.16300887 0.40275174 -0.13953598
-0.06629911 1.3701926 0.56003433 0.7327731 -0.5259833 0.18339615 0.9115595 2.5262394
0.3867544 2.1042068 1.1252964 2.8476286 1.552108 2.6350973 1.2314624 0.15457544
2.1668458 1.697659 2.2129033 0.11431052 2.3952081 4.0294876 0.76042444 -0.41737083
1.072162 1.0304925 2.0896747 1.1242105 2.832419 2.8446956 2.1274726 -0.06311401
3.3138268 0.56740814 2.4616084 0.6906565 2.9232473 1.7360287 1.4504552 3.3034375
0.46239582 0.5884059 0.057229377 1.7862297 3.026651 4.020439 3.2407131 0.48565573
2.8851006 4.0076556 3.789126 0.027990542 0.18289185 0.9571999 1.550184 1.6873541
0.00754759 0.5748221 1.4997337 1.2385925 1.065714 1.1731108 0.6390423 1.4668199
-1.1691965 2.2119591 1.6081183 1.7458382 -0.55120164 1.7031863 -0.7224428 1.4583441
-1.3710991 -1.8208326 -1.1737626 -1.5980121 -1.3291456 -0.8095099 -0.6867359 -1.3356547
-1.4055169 0.027378395 -2.4478488 -0.78953797 -0.43886346 -0.16117223 0.8709725 -0.61145085
-0.9980239 0.38542035 0.3536093 -0.25101596 -0.06589653 0.875848 0.38439384 -0.09966532
0.4708804 -0.7367888 -0.36532584 -0.4313043 0.0040671537 -0.45775536 -1.0610994 -0.6207476
-1.0537032 -0.6923068 -1.9923033 -1.1376139 -0.62378263 -2.1656337 -1.2705522 -1.5415577
0.79564154 0.39514238 0.83639795 0.024533808 1.5519661 -0.27658695 0.6474587 -0.18800005
4.8108587 2.9726167 0.59585994 0.6378089 2.0663671 1.2445332 1.9632101 1.434431
0.87114435 0.7761244 1.733232 1.368526 2.347214 1.9191892 2.2202861 3.177862
0.4715371 1.0893792 0.45485732 1.6108471 2.1701894 -0.024981119 -1.2385086 0.3212466
-0.39026362 1.7629696 -0.81362313 -0.21300359 -1.8125482 -1.2801011 -0.033123866 -0.124996565
-1.2854035 -0.8143769 1.3378747 -0.85131425 0.4221655 -3.0300353 -3.666091 -4.5238037
-18.948631 -3.2823772 0.17481169 3.2098963 -1.5679291 -2.5035644 -1.9098943 -1.1654326
0.79472286 0.2625462 0.3475881 -0.5570936 1.7519667 -1.384879 0.6353874 3.837439
1.4643768 2.3076544 3.2613592 3.8354518 1.630584 5.0988317 3.1556962 -0.020559626
3.9953382 3.2337763 0.06920813 2.4358985 1.0685624 -0.3858863 -0.53878534 4.237013
5.83301 1.0115979 5.1921215 2.1980815 3.164174 5.5659795 2.6548898 3.8429174
4.3306184 0.3904711 0.67757523 4.797761 2.6401339 4.3283525 2.886174 3.1838818
0.73187983 0.3126798 5.5291867 7.269849 3.8209722 -0.0597929 2.833236 5.1119175
4.015982 4.279351 2.8794894 3.4801197 2.3008544 3.0679004 2.4150083 3.8626049
-0.43913606 3.1674662 -0.4217911 1.9134243 2.4999855 3.7436228 1.405418 3.3011105
3.1113086 -0.01242131 2.092084 3.4679697 3.0732577 3.1188757 1.411218 1.486887
0.1086768 2.2570052 0.07980866 3.3071501 1.5780003 2.9208162 0.05437779 3.320119

neuralnet.0.bias f4 [18]
00000000: 46a8 25c1 062e 90c1 8950 8dc1 b922 cec1
00000010: 499e 6dc1 2214 23bf fb3c b7c1 45d5 1741
00000020: 926b 2240 cca3 1f3f 4c7f b4c0 8198 0541
00000030: bdd7 f4c1 33c3 97c1 3e0b bfc0 805e 73bf
00000040: 3ae8 26c1 b876 bb41
-10.353582 -18.022472 -17.664324 -25.766954 -14.851144 -0.63702595 -22.904776 9.489568
2.5378156 0.6235931 -5.640539 8.349732 -30.605341 -18.970312 -5.9701223 -0.9506607
-10.431696 23.432968

neuralnet.2.weight f4 [18, 18]
00000000: a5c2 02be 1042 2cbe 635f 0dbe 664d b7be
00000010: 69f0 26be 0140 5abe 85a3 3fbe 6d46 b9bd
00000020: 1fbc 6abe ed75 0dbe 5eef 90be f89f 9ebe
00000030: 6ed8 9ebe 5f6b 56be 5f01 cebd 5343 45be
00000040: 69bd adbe 0f3c 03bd 6dfc d5be aa2b 7dbe
00000050: 1589 713d 7719 95be 59b2 0abe 92ea 04bf
00000060: 91ee 84be fd78 d7be 19b8 d5bd 0997 1cbe
00000070: f7ba 743e 6398 18bd e192 b2be 0096 8abe
00000080: 7abd dabe 9b71 96be fe5d 03bd c66a 90be
00000090: 6cad bcbd 6627 28be 322a 813d 4e7f 5abe
000000a0: cf92 75bd 8823 89bd ecda 4dbe 7554 cbbd
000000b0: 4b97 38be ffc3 29be d927 16bf b2e2 79be
000000c0: 6c29 80b9 4fc5 6dbe 709e 81be 71b7 94be
000000d0: a1df babe 4e0d c7be dce8 b6bf 0bce 1e40
000000e0: 04e3 c9c0 b573 9cbf b9e3 a9be f1db 5ec1
000000f0: 14cf 78c1 27d8 bac0 395e 95be 0f75 22bf
00000100: a533 0a40 d316 22c1 2fc8 d5bf 0839 2b40
00000110: 4019 23c1 1e87 bcc1 ffb8 d5bf 2995 b23f
00000120: c101 f23f 806b 70bf 72ef 99c0 1111 59c0
00000130: a4b7 f43f bdad 37c0 5cd7 bbc0 ad93 bac0
00000140: e19e 9d3f af3b 1ebf 5106 fbbe fdb3 88c1
00000150: 80c8 5bbd 4758 c03e e492 c8bc 93e4 09c0
00000160: 6224 ffbf 9431 2f40 2cc5 c1bf 8c63 b0bd
00000170: d0b8 273f 3df2 0640 317e bbbd feab e03f
00000180: d8b7 7c3b f51e 833f 15d2 e83c 499c 4240
00000190: e649 a1bf 6f48 55bf 3c4e 3bbe d138 c83e
000001a0: ba0d 833f 8893 cac0 8b96 3040 26fa 06bf
000001b0: d2a1 e9bf 16ba a7bd 8a8b 30bf 9621 e83f
000001c0: 7019 953e 4221 ea3e 084d 1d3f d5fb 6fbe
000001d0: 2aa7 4f3e 24bc dfc0 01f4 20bf 1705 25c0
000001e0: 46f8 debf f62c c5be 8894 36be 9924 ed3f
000001f0: d464 973f 620e c63e ee37 36bd d396 ebbb
00000200: ffac 66be eb85 ccbd 629b 57be 4ad3 83be
00000210: 71f2 2bbe a579 81bc 654a d3bd fa50 bfbd
00000220: d64e bd3d 3ac3 9cbd 313b acbd 329d 68be
00000230: 2c2f 38be 8fba 38bd ff25 a0be 3dcf 86be
00000240: 4eb0 693f 91e7 c9bd ecf0 ef3f 7d62 4540
00000250: ad62 2abf 5653 2940 2da4 1f3f 8e32 313f
00000260: 681d bcc0 24b7 1940 a500 8dbf 6d3d 85bf
00000270: 43f6 0cc0 60a5 ef3f 5c36 a93f ac13 a740
00000280: 5ad3 833f a39d 06bf 26e2 233e fc23 47bd
00000290: 7eaa 3abe 1ce1 3bbf 354d 543d ab6c 8ebe
000002a0: 2377 37bf c553 fdbe 9329 4ebd bc70 69be
000002b0: 7ffc a93d 3345 8bbf 0a2f 43bd 5086 9abe
000002c0: 36cb 16bf 13b3 8fbe d140 84be 4a31 f5be
000002d0: 3fb2 5bbd 7693 d1bd 0e70 bdbe 1082 43be
000002e0: 5253 d8bd 7dcf 13be ba22 c1bd 2194 debc
000002f0: 0dae 3ebe 53f3 8abe 2c9a 133d f864 dd3c
00000300: f45f 2fbe 85af 6f3d 5014 3bbd 5bed 6cbe
00000310: 657f fbbd a71e b3be e46f 1c3f ca45 75be
00000320: 3b9a ed3e 656f dfbe 349d a6bf 9a85 cac0
00000330: 714c 85bf 8465 bfbe a148 733f b4cc 94be
00000340: 3024 743e f82e f3c0 ae89 b8bf f8c6 a23d
00000350: f972 30c0 46e1 f0bf f92c fabf f5dd 1dbe
00000360: 2567 3b3d e924 c93b 9044 bcbe 5249 c4bd
00000370: 1c2c 93be c2f7 70be 2df2 e3be 29ab 37bc
00000380: ca56 bdbe 05a3 4dbe 5865 dcbd 1f81 8dbd
00000390: 25b8 7fbd 8980 5ebc ef69 0b3d dd9e b3bd
000003a0: 2c15 3abe 371a 98be 82f8 dcbe 6c5d d6be
000003b0: c0f1 15be 93bc 6a3f 46d4 023f 7ca5 1a3e
000003c0: f6c4 663e 1939 bfbd c74b a1bf f0aa 0b40
000003d0: c151 42bf 4457 4fc0 9613 f4be f1a2 39be
000003e0: 8b97 5f3f fb8e 513f 0d54 10c1 3115 1f3f
000003f0: de9d 24be 2f07 c23e db47 933e b21a ccbf
-0.12769563 -0.16822076 -0.13805918 -0.35801238 -0.16302647 -0.21313478 -0.18714722 -0.09046636
-0.22923325 -0.13814516 -0.28307623 -0.3098142 -0.31024498 -0.20939396 -0.10058855 -0.19263963
-0.3393357 -0.0320397 -0.41794148 -0.24723688 0.058968622 -0.2912099 -0.13544597 -0.51920426
-0.25963262 -0.42084494 -0.104355045 -0.1529199 0.23899446 -0.037254702 -0.34877685 -0.27067566
-0.42722684 -0.2938355 -0.03207206 -0.28206462 -0.09212765 -0.1642128 0.06306876 -0.21337625
-0.05995446 -0.0669623 -0.20103043 -0.09928218 -0.18026464 -0.16578673 -0.5865455 -0.24402884
-0.00024444924 -0.23219799 -0.2531619 -0.29046205 -0.3649874 -0.38877338 -1.4289813 2.4813259
-6.308962 -1.2222811 -0.3318155 -13.928697 -15.550556 -5.838886 -0.2917345 -0.6345987
2.1594021 -10.130572 -1.6701716 2.675356 -10.193665 -23.565975 -1.6697081 1.395177
1.8906785 -0.9391403 -4.810479 -3.3916667 1.9118543 -2.8699791 -5.870039 -5.830527
1.2314111 -0.6180982 -0.49028257 -17.087885 -0.05365801 0.3756735 -0.024484105 -2.154576
-1.9932978 2.737401 -1.5138297 -0.08612737 0.65516376 2.108535 -0.091549285 1.7552488
0.0038561728 1.0243822 0.028420487 3.040789 -1.2600677 -0.8331365 -0.18291563 0.39105847
1.0238564 -6.330509 2.7591884 -0.52725446 -1.8252509 -0.0818979 -0.6896292 1.813525
0.2912097 0.457285 0.61445665 -0.2343591 0.20278612 -6.9917164 -0.6287232 -2.5784357
-1.7419517 -0.38510865 -0.17830098 1.8526794 1.1827645 0.38682848 -0.044486932 -0.0071896105
-0.2252693 -0.0998648 -0.21055368 -0.25747138 -0.16791703 -0.015805075 -0.10316924 -0.09341617
0.092435524 -0.07654424 -0.08409727 -0.22716215 -0.17986745 -0.04509979 -0.3127899 -0.26329985
0.91284645 -0.09858621 1.8745399 3.0841362 -0.6655682 2.6457114 0.6235989 0.69217765
-5.8785896 2.401803 -1.1015822 -1.0409371 -2.2025306 1.8722343 1.3219714 5.2211514
1.0298874 -0.52584285 0.16004238 -0.0486183 -0.182291 -0.73390365 0.051831443 -0.27817282
-0.71666163 -0.49477974 -0.050332617 -0.22796911 0.08300113 -1.0880493 -0.04765228 -0.30180597
-0.58903825 -0.2806631 -0.258307 -0.47889167 -0.053636786 -0.10233204 -0.36999553 -0.19092584
-0.10562767 -0.14434619 -0.09430452 -0.027170243 -0.18621083 -0.27138767 0.0360357 0.027025685
-0.17126447 0.058516998 -0.04567367 -0.23137419 -0.12280158 -0.34984323 0.6110823 -0.23952404
0.4640673 -0.43639675 -1.3016725 -6.328809 -1.0413953 -0.37382138 0.950327 -0.29062426
0.2384193 -7.5994835 -1.4417017 0.079481065 -2.7570174 -1.8818748 -1.9544975 -0.15416701
0.045752663 0.0061384332 -0.3677106 -0.09584297 -0.2874459 -0.23532012 -0.44520703 -0.011210241
-0.36980277 -0.20081718 -0.10761517 -0.069093935 -0.062431473 -0.01358045 0.034036573 -0.08770535
-0.18172139 -0.297075 -0.43158346 -0.4186815 -0.14643002 0.9169399 0.51105154 0.1510219
0.22536072 -0.093370624 -1.260125 2.1823082 -0.75905997 -3.2397013 -0.47671193 -0.18128563
0.8734061 0.81858796 -9.02052 0.6214171 -0.16075847 0.37896106 0.2876576 -1.5945647

neuralnet.2.bias f4 [18]
00000000: 2a93 c03d fa1f 15bf d01c a53b c9ac 2841
00000010: c921 0b42 cffc 5dbf 0c0b a441 3834 97be
00000020: e6b3 8cc1 1e4e 62be 10cd e4be ee83 25c1
00000030: 88bc d1be fe5b b841 d459 89c0 ba99 9741
00000040: 39e2 9abe ef51 acc0
0.09403069 -0.5825192 0.005038835 10.542184 34.782993 -0.8671388 20.505394 -0.29532027
-17.587841 -0.22100112 -0.446877 -10.344709 -0.4096415 23.044918 -4.2922153 18.950062
-0.3025072 -5.3850017

neuralnet.4.weight f4 [4, 18]
00000000: f57a 3bbe c59f 8b3d 0979 f4bc 50dc d1be
00000010: 073d cbbe 44fd 363f f093 c4bf 119f 4bbe
00000020: a608 a53e cd04 693e 94aa 22bd c3f2 3940
00000030: 8a59 e83d ad80 92bf c677 d93f 0e0f a9bf
00000040: 595c b8bc 5f34 9e3f 1f4e 46be f8dd 8c3d
00000050: 176c 22bf be05 e1be 0c75 8fbe 0428 9bbd
00000060: 7b00 bbbf c688 b7bc 71d4 463f 82a4 82be
00000070: 1c66 53bd 96be 3140 6e0e 9b3d 8a14 c3bf
00000080: ca65 673f c57a 433e 91fc 173d ce4e 0340
00000090: 46f0 a73d 67b7 5dbe e1fe 64bb f7a0 89be
000000a0: 9a1a e7be e831 f6be 7b74 d2bf 04ca 48be
000000b0: e135 583f f566 0cbe 23a8 fb3d 9416 4740
000000c0: b58a 9dbd fea2 d0be 784c ab3f 186b acbf
000000d0: ae7b 91bc ef79 9d3f 3a45 5abe 31fa a8bd
000000e0: 9922 d53b 9d42 0dbf b68b dcbe c88f c8bc
000000f0: 81dc bdbe 406d 95bd ce37 2e3f ca0c 0cbe
00000100: c3ee 47be d02f 4040 a3eb edbd d895 d0bf
00000110: e040 7c3f a306 bbbf 9f74 71be b684 a73f
-0.18308623 0.06817583 -0.02984287 -0.40988398 -0.39694998 0.714802 -1.5357647 -0.19884898
0.3223316 0.22755738 -0.039713457 2.905442 0.11345203 -1.1445519 1.6989677 -1.3207719
-0.022504972 1.2359732 -0.19365738 0.06878275 -0.6344618 -0.43949693 -0.28018987 -0.07575992
-1.4609522 -0.022404086 0.7766791 -0.25516135 -0.05161105 2.7772574 0.075711116 -1.5240643
0.9038969 0.19089802 0.0371061 2.0516849 0.082001254 -0.21651994 -0.0034941959 -0.2688062
-0.45137483 -0.4808495 -1.6441797 -0.19608313 0.8445721 -0.1371115 0.12287929 3.110753
-0.07692472 -0.40749353 1.3382711 -1.3470182 -0.01775917 1.2302836 -0.2131547 -0.08250845
0.0065043685 -0.5517977 -0.4307534 -0.024482623 -0.37082294 -0.072962284 0.680539 -0.13676754
-0.19524674 3.0029182 -0.1161721 -1.6295729 0.9853649 -1.46114 -0.23579644 1.3087375

neuralnet.4.bias f4 [4]
00000000: 4bb2 77c1 7353 fac1 4b84 e0c1 75af c2c1
-15.481029 -31.290747 -28.064596 -24.335672
