src/players/saves/RLBasic1500-alternative.pth (torch_old, 16010 bytes, 6 tensors)

neuralnet.0.weight f4 [18, 182]
0	0xbbb4fcb2	-0.0055232877
1	0x3cf40962	0.02978963
2	0xbbd154c6	-0.0063882796
3	0x3c2aa6a8	0.0104157105
4	0x3c4e01f8	0.012573712
5	0x3cb75634	0.022379972
6	0x3cab0260	0.020875156
7	0xbb0975e0	-0.00209748
8	0xbd772e74	-0.060347036
9	0xbd433b6e	-0.0476641
10	0xbccab346	-0.024743687
11	0xbd618309	-0.055056605
12	0xbbcfc977	-0.006341155
13	0xbcb894d8	-0.022531912
14	0x3d6ffd5e	0.05859124
15	0xbd35e0fa	-0.044404007
16	0x3cf3a738	0.029742822
17	0x3c7a71a1	0.01528588
18	0x3ca9c858	0.020725414
19	0xbb8cb610	-0.0042941645
20	0xbcb21be6	-0.021741819
21	0xbd906624	-0.07050732
22	0x3ccaac5c	0.02474039
23	0xbd97078f	-0.073744886
24	0x3cabc48c	0.020967744
25	0x3d1799cc	0.037011907
26	0x3bcc71c0	0.006239146
27	0xbd38ab00	-0.045084953
28	0xbce1cdf6	-0.02756403
29	0xbd46ff4a	-0.048583306
30	0x3b9e4620	0.004830137
31	0x3c7daab8	0.015482597
32	0xbcbd8b04	-0.023137577
33	0xbccf9b8a	-0.025342721
34	0x3d652c40	0.055950403
35	0x3d383b1c	0.044978246
36	0xbc8723f0	-0.016496629
37	0xbd52a234	-0.05142422
38	0xbd8558b2	-0.06511058
39	0xbd0a37ad	-0.033744503
40	0x3d30d4c4	0.04317166
41	0xbc421a8c	-0.01184715
42	0x3da5e4c9	0.08100278
43	0xbd410a6f	-0.04712909
44	0xbc5abe58	-0.013351046
45	0x3c783498	0.015149258
46	0xbd506e63	-0.050886523
47	0xbc9ffa3c	-0.0195285
48	0xbd7af414	-0.061267927
49	0xbd030fe4	-0.031997576
50	0x3c154d00	0.0091125965
51	0xbd82a0e7	-0.06378346
52	0x3c7740d8	0.015091144
53	0x3c02e848	0.0079899505
54	0x3d846d0e	0.06466113
55	0x3cc08d7c	0.023504965
56	0xbc852bc8	-0.016256228
57	0xbbb1b180	-0.005422771
58	0xbc9c8e9e	-0.019110974
59	0x3cc41f68	0.023940757
60	0xbdd90272	-0.105961695
61	0xbd4c2c32	-0.049846835
62	0xbc9327fe	-0.017963406
63	0xbca163e2	-0.019700948
64	0xbd90b7fb	-0.070663415
65	0xbd4593ce	-0.04823666
66	0xbdea512a	-0.11441262
67	0xbd149089	-0.036270652
68	0xbd162307	-0.0366545
69	0x3d443d76	0.047910176
70	0xbc8d4a52	-0.017247353
71	0x3cfa3e48	0.030547276
72	0xbce46ffa	-0.027885426
73	0xbca095d2	-0.01960269
74	0xbc83f6d8	-0.016108915
75	0x3c7ef608	0.015561588
76	0xbd58f6e6	-0.052969836
77	0xbd31af71	-0.043380205
78	0xbc7625cc	-0.01502366
79	0xbd3eb97e	-0.046563618
80	0xbd92a793	-0.071608685
81	0x3caa103c	0.020759694
82	0xbcc843c4	-0.024446376
83	0x3d60a0c4	0.054840818
84	0x3d4b20b7	0.049591746
85	0xbd95fe83	-0.07323935
86	0xbd868eea	-0.065702274
87	0xbd7b7858	-0.061394066
88	0x3cfd1584	0.030894049
89	0x3c9f6428	0.019456938
90	0xbd80828e	-0.06274901
91	0xbd8c3517	-0.068460636
92	0xbc14a2f4	-0.009072054
93	0xbd6a56e0	-0.057211757
94	0xbbf75fb0	-0.0075492486
95	0xbd8d5703	-0.06901362
96	0xbd32a7fb	-0.04361723
97	0xbd339f42	-0.043853052
98	0xbcd59904	-0.02607394
99	0xbd9c9c54	-0.07647005
100	0x3d566e7c	0.05235146
101	0xbc78be24	-0.015182052
102	0xbd107a59	-0.03527293
103	0xbce59eb8	-0.028029785
104	0xbd844aea	-0.06459601
105	0xbceb3d3e	-0.028715726
106	0xbd6737b2	-0.0564496
107	0xbd2a83bf	-0.04162955
108	0x3d4a1876	0.049339734
109	0xbd3b89e0	-0.045785785
110	0xbd82707c	-0.06369111
111	0xbd5f6689	-0.054541145
112	0xbd4d58c8	-0.050133497
113	0xbd1b4c95	-0.03791483
114	0x3d0b1a55	0.03396066
115	0xbd8263f6	-0.06366722
116	0x3b17aa16	0.002314215
117	0x3d77b034	0.060470775
118	0x3c29c340	0.010361493
119	0xbd16ff77	-0.036864724
120	0xbd2e6a6c	-0.04258196
121	0xbd64dfba	-0.055877425
122	0x3cb692d8	0.022286817
123	0xbd1e3a22	-0.03862966
124	0x3d19421a	0.037416555
125	0xbc83b886	-0.016079199
126	0xbca986c6	-0.020694148
127	0xbd1bab1a	-0.038004972
128	0x3ce19b8e	0.027539995
129	0xbd404e5a	-0.046949722
130	0xbc4e2dbc	-0.012584146
131	0xbc2d5870	-0.010580167
132	0xbd615972	-0.055016942
133	0x3af85000	0.001894474
134	0xba651d80	-0.00087400526
135	0xbcf69884	-0.030102022
136	0xbc0ca2b0	-0.00858371
137	0xbc40ac08	-0.011759765
138	0xbd52dafb	-0.051478367
139	0x3c71f363	0.014767501
140	0xbd83c822	-0.06434657
141	0x3d125aea	0.035731234
142	0x3c08b901	0.00834489
143	0xbc53d15c	-0.012928333
144	0xbcdd4424	-0.027010031
145	0xbd92efd4	-0.0717465
146	0x3d804fd4	0.06265226
147	0xbd833d0c	-0.06408128
148	0xbcb244d4	-0.021761335
149	0xbca8c6f6	-0.020602684
150	0xbd95dd07	-0.07317548
151	0xbd6f27b7	-0.058387484
152	0xbd810691	-0.063000806
153	0xbd029981	-0.031884674
154	0xbd686fb2	-0.056747146
155	0xbd076c62	-0.033062346
156	0x36fd0000	7.5399876e-06
157	0x3d0119c8	0.031518728
158	0xbd3cdb27	-0.046107437
159	0x3d40c587	0.047063377
160	0x3c9c35e0	0.019068658
161	0xbd382efd	-0.044966687
162	0xbc39f0b4	-0.011348892
163	0xbd0c2a20	-0.03421986
164	0xbd6105ba	-0.054937102
165	0xbd9c8adf	-0.07643675
166	0xbd93f409	-0.072242804
167	0xbe096a93	-0.13419561
168	0xbcce5572	-0.025187228
169	0xbc013b48	-0.007887669
170	0x3d0ef2a7	0.03489938
171	0xbba58328	-0.0050510354
172	0xbbc8cf38	-0.006128218
173	0xba2ddefe	-0.00066326547
174	0xbd01c791	-0.031684462
175	0xbce8615c	-0.028366737
176	0xbda6d319	-0.081457324
177	0xbd1d72cd	-0.03843956
178	0xbd3f0bf3	-0.046642255
179	0xbdccbbed	-0.099967815
180	0xbcc46471	-0.023973675
181	0xbd5ff318	-0.05467519
182	0xbe74833b	-0.23878185
183	0xbf45ce06	-0.7726749
184	0xbea6fcc6	-0.32614726
185	0xbf56a9b3	-0.8385269
186	0xbf870c7b	-1.0550684
187	0xbf57f530	-0.843585
188	0xbfb97b4c	-1.4490752
189	0xbfb88ec1	-1.4418565
190	0xbfb2ba12	-1.3963034
191	0xbff747f3	-1.9318832
192	0xbfd21daa	-1.6415303
193	0xbfc6332e	-1.5484369
194	0xbfd28b1f	-1.6448706
195	0xbfcef5dc	-1.616878
196	0xc0091b85	-2.1423047
197	0xbfe8b6e9	-1.818082
198	0xbffc8931	-1.9729367
199	0xbff03246	-1.8765342
200	0xc00e276c	-2.2211561
201	0xc0033289	-2.0499594
202	0xbfb30a10	-1.3987446
203	0xbfe5fe8c	-1.7968307
204	0xbfd81574	-1.6881547
205	0xbfe05ab8	-1.7527685
206	0xbfe7b53c	-1.8102183
207	0xbfffb1cd	-1.9976135
208	0xc0027bb5	-2.0388005
209	0xc013a0a7	-2.3066804
210	0xbfd99b07	-1.7000436
211	0xbff8495f	-1.9397391
212	0xc011b44e	-2.27663
213	0xbff2cfd7	-1.8969678
214	0xbff64737	-1.9240483
215	0xc00cb145	-2.1983197
216	0xbfe48a5b	-1.7854723
217	0xc0034d9e	-2.0516124
218	0xbfe95ef9	-1.8232108
219	0xbfd7890f	-1.6838702
220	0xbfcf260a	-1.6183484
221	0x3be4af70	0.0069789216
222	0x3e9b9cd8	0.303931
223	0x3f2ac41c	0.6670549
224	0x3edde1a4	0.43336213
225	0x3f62c0ab	0.8857524
226	0x3ef58282	0.47951132
227	0x3f3d0887	0.73841137
228	0x3ec29c5d	0.3800992
229	0x3f21e798	0.6324401
230	0x3f14e09c	0.58155227
231	0x3eac951c	0.3370751
232	0xbce9c445	-0.028535971
233	0x3f0d5208	0.55203295
234	0x3e7c1cd3	0.2462037
235	0x3e33d9e4	0.17563587
236	0x3d5cdeff	0.053923603
237	0x3cdf894d	0.02728715
238	0x3ecc6703	0.39922342
239	0x3d364f75	0.04450937
240	0xbe1458bc	-0.14486974
241	0xbd2f4fd4	-0.04280074
242	0x3e551f24	0.2081266
243	0x3cde2f94	0.027122296
244	0x3f1d0cce	0.61347663
245	0xbec475a6	-0.3837101
246	0x3f18a33f	0.59624094
247	0x3f157ca5	0.5839332
248	0x3f10d627	0.5657677
249	0x3e10b48b	0.14131372
250	0x3f041471	0.5159369
251	0x3ed4e594	0.41581404
252	0x3ec30d12	0.3809591
253	0xbda06686	-0.07832055
254	0x3f2af342	0.6677743
255	0x3df75493	0.12076678

neuralnet.0.bias f4 [18]
0	0xbe80715d	-0.2508649
1	0x4018be23	2.386605
2	0x407d2f68	3.9560184
3	0x40273c4c	2.6130552
4	0x3f5940b8	0.8486438
5	0x3fb5cef4	1.4203782
6	0x4063ac90	3.5574074
7	0x401fd53c	2.4973898
8	0x3fd2547b	1.6432031
9	0x3ecb7494	0.3973738
10	0x404fa78f	3.244602
11	0x404f1d23	3.2361534
12	0xbf4a0e76	-0.78928316
13	0x3f0bb0f9	0.54566914
14	0xbe5744f0	-0.21022391
15	0x3f1e821e	0.61917293
16	0x3f3af211	0.73025614
17	0x3f170bd2	0.5900241

neuralnet.2.weight f4 [18, 18]
0	0x3da06cb9	0.07833237
1	0x3f829599	1.0201904
2	0x3fc54419	1.5411407
3	0x3f9845aa	1.189626
4	0x3ec25596	0.37955922
5	0xbf962ab7	-1.1731786
6	0xbac83ba8	-0.0015276568
7	0xbebf7522	-0.37394053
8	0x3f40e0e7	0.75343174
9	0xbf8719f2	-1.0554793
10	0x3f0e1862	0.55505955
11	0x3ede2764	0.43389428
12	0x3fec820e	1.847719
13	0x3d146607	0.036230113
14	0x3fb227e5	1.3918425
15	0xc0296b88	-2.6471882
16	0xc023b39c	-2.5578375
17	0x3fadf509	1.3590404
18	0xbe661604	-0.22469336
19	0xbe121e00	-0.14269257
20	0xbd0e5ba7	-0.034755375
21	0x3d8e9242	0.0696149
22	0xbe2840bf	-0.16430949
23	0xbe1ac660	-0.15114737
24	0xbe2414a2	-0.16023496
25	0xbdbb712e	-0.09152447
26	0x3d5e3a2c	0.054254696
27	0xbe2494b5	-0.16072352
28	0x3bfeb780	0.0077733397
29	0xbe972f69	-0.2952836
30	0xbcf1ea10	-0.029530555
31	0xbd85b8eb	-0.06529411
32	0x3df0bb76	0.11754505
33	0xbded8010	-0.115966916
34	0xbd0c00a8	-0.034180313
35	0xbb34c640	-0.0027583987
36	0xbd39fbd4	-0.045406178
37	0xbe72c1a4	-0.2370668
38	0xbe8f8922	-0.28034312
39	0x3daedce0	0.08538222
40	0xbe4ae23c	-0.19812864
41	0x3c288b33	0.010287094
42	0xbe5b2c7f	-0.21403693
43	0x3d982959	0.074297614
44	0x3d89e7b7	0.06733649
45	0xbe22a9ab	-0.15885036
46	0xbdf50ea5	-0.11965684
47	0xbb88a702	-0.0041702995
48	0xbd515250	-0.05110389
49	0xbe384f4e	-0.17999002
50	0x3d5f3fa1	0.05450404
51	0xbe287b8d	-0.16453381
52	0xbe688ac5	-0.22709186
53	0x3d8090b9	0.06277604
54	0x3da44d2a	0.080225304
55	0x3d02d37d	0.031939972
56	0xbe9ca8fe	-0.3059768
57	0x3d2cbea2	0.04217399
58	0xbe35ef0b	-0.17766969
59	0x3d8f17af	0.06986939
60	0x3cffd15b	0.031227758
61	0xbe03cd77	-0.12871347
62	0xbe7b447f	-0.24537848
63	0xbe785e31	-0.24254681
64	0x3d36c48a	0.044621028
65	0xbd8c9a8e	-0.068654165
66	0xbcdc378e	-0.02688196
67	0xbd149f54	-0.03628476
68	0x3d9b1620	0.075725794
69	0xbd9554d6	-0.07291572
70	0xbde731ca	-0.112887934
71	0x3b5e12db	0.003388575
72	0xbd766138	-0.06015131
73	0xbd980e3a	-0.074245885
74	0xbe6ef8e7	-0.23337136
75	0xbc4eef80	-0.012630343
76	0xbe12aa9e	-0.14322898
77	0xbd6b0930	-0.05738181
78	0x3dcc6780	0.099806786
79	0xbdcdf949	-0.10057313
80	0xbe7cc36c	-0.24683923
81	0xbd2ecd94	-0.042676523
82	0xbe775f7a	-0.24157515
83	0xbdd649e1	-0.1046331
84	0xbe4ce8d9	-0.200107
85	0xbdd216e2	-0.10258271
86	0x3db7f096	0.08981435
87	0x3da64d72	0.0812024
88	0xbe45e23e	-0.19324586
89	0xbe0c0c82	-0.13676646
90	0xbcabbd6e	-0.02096435
91	0x403926e1	2.892998
92	0x3e1a0d74	0.15044194
93	0x3e18aef4	0.1491049
94	0xbe8f4003	-0.27978525
95	0xbed096a7	-0.4073994
96	0x3f8b9b4b	1.0906767
97	0xbe361c2f	-0.17784189
98	0xbf07ac17	-0.52996963
99	0x3f23a929	0.6392999
100	0xbebafedc	-0.36522567
101	0xbe47c40d	-0.19508381
102	0x402d9688	2.7123127
103	0xc026284c	-2.5962095
104	0x3e9dadf7	0.30796787
105	0xc05ef8c7	-3.4839342
106	0xbf71e493	-0.944894
107	0xbf62371c	-0.8836534
108	0x3cc92f61	0.024558725
109	0x4012ecb3	2.295697
110	0x3f6521d1	0.89504725
111	0x3f6817ca	0.906613
112	0xbbb94691	-0.005654164
113	0x3d1824c6	0.037144445
114	0x3f0d56e5	0.55210716
115	0x3e785de7	0.24254571
116	0xbe9f0f78	-0.3106649
117	0xbebc4403	-0.3677064
118	0x3f0c8b9a	0.54900515
119	0x3ec7d308	0.39028192
120	0x3fd0693b	1.6282114
121	0xbfd05bb0	-1.6277981
122	0x3fbdcd00	1.4828186
123	0xc08eb1ba	-4.459195
124	0xbf2136aa	-0.62974036
125	0xbf979041	-1.1840898
126	0xbc78ca97	-0.01518502
127	0x3f80bed2	1.0058234
128	0x3eeb0b3b	0.45907006
129	0xbe91e8f6	-0.28498048
130	0xbfa5317c	-1.2905726
131	0xbf8cc8e6	-1.0998809
132	0xbff64ad1	-1.9241582
133	0xbf94f124	-1.163609
134	0xbfaf8216	-1.3711574
135	0xbf422ac1	-0.7584649
136	0xbf0923c3	-0.53570193
137	0xbecfe31c	-0.40602958
138	0x3e088bc4	0.13334566
139	0xbf488ca0	-0.78339577
140	0xbfffb599	-1.9977294
141	0xbf40c09a	-0.75293887
142	0xbfcb3f93	-1.5878776
143	0xbe89cb5c	-0.26912963
144	0x3cd45738	0.025920495
145	0x3eb84c92	0.3599592
146	0x3ea2fa19	0.31831434
147	0x3e5cfb68	0.21580279
148	0xbea999c5	-0.3312513
149	0x3e7b90b9	0.24566926
150	0x3d8018cc	0.0625473
151	0xbeb6eb11	-0.35726216
152	0xbdded9e5	-0.10881404
153	0x3e577a6e	0.21042797
154	0x3e60928f	0.21930908
155	0x3e8b772d	0.2723936
156	0xbedc6656	-0.43046826
157	0xbece53a0	-0.40298176
158	0xbe614c62	-0.22001794
159	0xbea0d0cf	-0.31409308
160	0x3f790505	0.97273284
161	0xbe9409af	-0.28913638
162	0xbb923ec0	-0.004463047
163	0xbdd3d902	-0.10344125
164	0xbe98759c	-0.2977723
165	0xbe30abcf	-0.1725304
166	0x3c6e1ab0	0.01453273
167	0xbd2231e8	-0.039598376
168	0xbe3a4a02	-0.18192294
169	0xbdc35ba3	-0.09538963
170	0xbe8e8cad	-0.27841702
171	0xbe6987b7	-0.22805677
172	0x3dde7670	0.10862434
173	0x3daead42	0.0852914
174	0x3be57a4f	0.0070031057
175	0xbe8ba622	-0.27275187
176	0x3e560335	0.20899661
177	0xbdd899c0	-0.105762005
178	0xbe851bc3	-0.25997743
179	0x3db87eb6	0.09008543
180	0x3e60b91b	0.21945612
181	0x3d096259	0.033541057
182	0xbe8ae9ec	-0.27131593
183	0x3c152cb8	0.0091049
184	0xbe0a173d	-0.13485427
185	0xbe43c8b9	-0.19119538
186	0xbd8658c2	-0.06559898
187	0xbe3ae959	-0.18253078
188	0xbe51d14f	-0.20490001
189	0x3d51e270	0.05124134
190	0xbecf68a1	-0.40509513
191	0x3d7fa7cb	0.06241588
192	0xbd5c84da	-0.053837635
193	0xbe201981	-0.15634729
194	0x3dc0d287	0.09415155
195	0x3e09d409	0.13459791
196	0xbe08a6a9	-0.13344826
197	0x3d6f48c4	0.058419004
198	0x3e722f1f	0.23650788
199	0xc043983c	-3.0561666
200	0x3f718d8a	0.94356596
201	0x4078bb4f	3.8864324
202	0xbe963bb8	-0.29342437
203	0x3f730b35	0.94938976
204	0x4023981a	2.5561585
205	0xbefa81de	-0.48927206
206	0x3a4024d1	0.0007329705
207	0xbe70d3cc	-0.23518294
208	0x3e7bb380	0.24580193
209	0x3f38405a	0.7197319
210	0xbfde40ff	-1.7363585
211	0xc08d08e9	-4.4073377
212	0x3eebad92	0.4603086
213	0xc08dd1b4	-4.4318485
214	0xbd3fa6c1	-0.04678989
215	0xbf583689	-0.84458214
216	0x3e30abf3	0.17253093
217	0x3ccf6cc4	0.025320418
218	0xbdc5fe21	-0.09667612
219	0xbda5616a	-0.08075221
220	0xbde313f1	-0.11087788
221	0xbe3a5cf6	-0.18199524
222	0xbe20d24a	-0.15705219
223	0x3b806c2e	0.003919146
224	0x3b959904	0.00456536
225	0xbd8bbfc6	-0.06823687
226	0xbe72001e	-0.23632857
227	0xbeb6ca09	-0.35701016
228	0xbe29842e	-0.16554329
229	0xbde91871	-0.11381615
230	0x3c1dfd30	0.009642884
231	0xbd4ceb58	-0.05002913
232	0xbda6bc29	-0.081413575
233	0x3cb4230f	0.021989373
234	0x3dc4d668	0.09611207
235	0xbf09333a	-0.5359379
236	0x3fbc44f2	1.470854
237	0xbfaa5a6d	-1.3308846
238	0xbf5d7fd9	-0.86523205
239	0xbf4d071b	-0.8008897
240	0xbf36e7d4	-0.7144749
241	0x3eac3faf	0.33642337
242	0x3fa1b516	1.2633388
243	0xbeac9834	-0.33709872
244	0x3f706415	0.93902713
245	0x3faa6f13	1.3315147
246	0xbfbb308b	-1.4624189
247	0xbfe7d2e5	-1.8111235
248	0x3fd45701	1.6589051
249	0xc0a97d6d	-5.296561
250	0x4005a366	2.088098
251	0xbeebc55e	-0.46049017
252	0xbd3ad87b	-0.045616608
253	0x40345fb6	2.8183417
254	0x3f9ad33d	1.2095715
255	0xbf93898c	-1.1526351

neuralnet.2.bias f4 [18]
0	0x4082fdcc	4.093481
1	0xbe3d7a8d	-0.1850378
2	0xbe6fa6f9	-0.23403539
3	0xbe6eff15	-0.23339494
4	0xbe28b074	-0.16473562
5	0x4049c1b9	3.152449
6	0x4095cf73	4.6815734
7	0x3fbc9d86	1.4735572
8	0x3e6bd891	0.23031832
9	0xbe2e35d4	-0.17012721
10	0xbed21a6e	-0.4103579
11	0x4062abb7	3.5417306
12	0xbe7a0f3d	-0.24419875
13	0x408a9d8d	4.3317323
14	0x4093bd9a	4.6168947
15	0x40ae1a4b	5.4407096
16	0xbf0cd5c2	-0.5501367
17	0xbf8f759a	-1.1207764

neuralnet.4.weight f4 [4, 18]
0	0x3efcb2bb	0.4935511
1	0xbd95b320	-0.07309556
2	0x3da934d2	0.08262028
3	0xbd319f4c	-0.043364808
4	0xbbb42a14	-0.00549818
5	0x3d44f40e	0.04808431
6	0xbf256550	-0.64607716
7	0x3fa532f3	1.2906173
8	0xbe9eef82	-0.31042105
9	0xbc875348	-0.016519204
10	0x3d271614	0.04079254
11	0xbfae4530	-1.3614864
12	0xbd84f3ce	-0.064918146
13	0xbffbaf2d	-1.9662834
14	0xbfdb26f8	-1.7121267
15	0xbfc27207	-1.5191048
16	0x3e6ebbec	0.23313874
17	0x3cca4320	0.02469021
18	0xc03cfe7b	-2.9530323
19	0x3c2075d0	0.009793714
20	0xbe16e318	-0.14735067
21	0x3b4aa340	0.0030920058
22	0x3dc168bb	0.09443804
23	0xbf141875	-0.5784982
24	0xbf66f7b0	-0.9022169
25	0x3f9d0489	1.2267009
26	0x3f919532	1.1373656
27	0x3e0980e0	0.13428068
28	0xbd396140	-0.04525876
29	0xbf9a0112	-1.2031577
30	0x3d4debba	0.050273634
31	0xbf34fad2	-0.7069522
32	0xbf2ba5a9	-0.6704965
33	0xbfa4d7ad	-1.2878319
34	0xbe006511	-0.12538554
35	0x3f9e169d	1.2350651
36	0xbcf0fb09	-0.029416578
37	0xbd83004a	-0.063965395
38	0xbe0b53fa	-0.13606253
39	0xbe5a9b7f	-0.2134838
40	0xbdd57b58	-0.104239166
41	0xbfa84719	-1.3146697
42	0xbfb0b4af	-1.380514
43	0x3fb0b444	1.3805013
44	0x3ead5a8b	0.3385814
45	0xbd811cf8	-0.063043535
46	0x3bb1119a	0.0054037096
47	0xbff32cdd	-1.8998066
48	0xbd995362	-0.07486607
49	0xbe7aade8	-0.24480402
50	0xbf769853	-0.9632618
51	0xbf6a4c86	-0.91523015
52	0x3e8702d7	0.26369354
53	0x401e3f97	2.4726312
54	0xbf770d61	-0.9650479
55	0x3d8b211f	0.06793427
56	0xbad13700	-0.0015961826
57	0xbaa3ab80	-0.0012487024
58	0x3e5544a6	0.20826969
59	0xbf682a34	-0.90689397
60	0xbf874c2a	-1.0570118
61	0xc00af676	-2.1712928
62	0xbe4176cf	-0.18892978
63	0x3e16bcad	0.14720412
64	0xbd1286d1	-0.035773102
65	0x3f211d48	0.62935305
66	0x3dd8b72f	0.105818145
67	0xbf73c293	-0.9521877
68	0xbfcd7686	-1.6051795
69	0xbf79c287	-0.9756245
70	0x3d153a1d	0.036432374
71	0x3fa175ff	1.2614135

neuralnet.4.bias f4 [4]
0	0xc05f5aed	-3.4899247
1	0xc045bbeb	-3.0895946
2	0xc0ae1a4a	-5.440709
3	0xbfde9824	-1.739018
