src/players/saves/RLBasic5-3.pth (torch_old, 16010 bytes, 6 tensors)

neuralnet.0.weight f4 [18, 182]
-0.039793693 0.04583124 -0.071835406 -0.028459292 -0.044194832 -0.029194104 -0.06891762 -0.004127623
-0.07782797 0.027882261 0.020923506 -0.0455131 -0.027004253 0.01673083 0.013956541 0.03131941
0.026679903 -0.04568787 0.071861155 0.014194209 0.041327603 0.04749509 -0.046938285 -0.040530346
-0.0035272911 -0.012725137 0.045529142 0.05443211 -0.07307227 -0.008191808 -0.023158278 -0.022620577
-0.029935084 -0.023581356 0.053419825 0.054893136 -0.07174964 -0.0148072755 0.03643039 -0.07055569
0.094104156 -0.066185005 -0.06182355 0.04480875 -0.06582267 -0.04891473 0.035449594 -0.05140746
0.0025140196 0.044978574 -0.0041856766 -0.035185464 -0.02794576 0.012118325 0.034522988 0.040315054
0.0608128 -0.03523746 0.026532955 0.008067101 0.0045479233 -0.020330869 0.043449692 0.014194572
-0.09267311 -0.06686452 0.034063872 0.05737731 -0.072675325 -0.026363406 0.02045242 -0.04836685
-0.072319314 -0.032039464 -0.00046836585 0.12582923 -0.040227283 -0.04810039 -0.05508066 -0.05557401
-0.0048011425 -0.038169418 0.06438038 0.03314127 0.03704153 0.010208324 -0.06755399 0.056515455
-0.056958955 0.053729147 -0.044876833 0.007981827 0.0143247545 -0.02045409 -0.0060298145 -0.047064528
-0.015498474 0.010714933 0.0014166203 0.026622782 0.028902352 0.010617306 0.055044726 0.065285094
0.05843292 -0.07083159 -0.04311991 -0.0018351674 -0.016812885 0.004641282 -0.050114896 0.07167888
-0.020707376 0.072124824 0.016534876 -0.015882067 0.04884892 -0.039189603 0.011943579 -0.0009413585
-0.051070094 -0.020841802 0.11430246 -0.052329972 -0.016415343 -0.04678867 0.021374121 -0.019023791
0.032472752 0.031020723 -0.029566139 0.022149935 -0.017405603 -0.009157509 -0.04640624 -0.020582173
0.07109469 -0.022518333 0.006030597 0.012277371 -0.014738642 0.0073374882 -0.071534626 -0.060941618
0.043418378 -0.04704451 -0.071319774 0.025580816 -0.01838457 0.04820154 -0.018269774 0.023278093
0.023745164 0.028126601 -0.014410716 0.013555132 0.0020011694 -0.022325795 -0.015443739 -0.022140963
-0.016462475 0.0010486916 0.0038804784 -0.10014741 -0.0007565543 -0.021019239 -0.037612516 -0.07582708
0.014406426 0.012488671 0.022346599 -0.10619637 -0.006433606 -0.011797304 -0.038498547 0.012633781
-0.0044479882 0.025793375 -0.04533565 0.029620523 -0.063315235 -0.015907755 0.46887526 0.13198008
0.057946015 0.120804876 -0.13140498 -0.026676504 -0.16316423 0.08543341 -0.12574366 -0.017762985
0.06313268 0.0014474434 0.083470635 0.04450012 -0.1758286 -0.07272617 0.10501106 -0.04907393
-0.073189735 -0.016544525 0.13544933 0.08644939 0.079167165 0.18770787 -0.06298499 0.0653901
0.035894837 -0.0845238 -0.13039234 -0.012661662 0.025622709 0.0007017437 0.033424634 -0.07437078
-0.21926679 0.01798378 0.20654032 0.021202885 0.032368176 -0.017385174 0.08434285 0.09231184
0.085451834 0.09971733 0.11311253 0.1990687 0.09940689 0.1230809 0.19055128 0.026597036
0.07018767 0.059554733 -0.027742013 0.15288383 0.067623794 0.01919874 -0.072778694 0.0011839306
0.1630693 0.0652014 0.50494957 0.11920855 0.17654242 0.3950655 0.07313209 -0.013246655
-0.049619056 0.040894818 0.13794832 0.40582815 0.032499194 -0.093655795 0.008689107 0.15745841
00000000: b6fe 22bd 8ab9 3b3d 711e 93bd 7623 e9bc
00000010: a405 35bd 7928 efbc ae24 8dbd 0341 87bb
00000020: 4564 9fbd 5769 e43c c667 ab3c f26b 3abd
00000030: 0638 ddbc 180f 893c faa9 643c c848 003d
00000040: d08f da3c 3423 3bbd f12b 933d d48e 683c
00000050: 2247 293d 368a 423d 5c42 40bd 2603 26bd
00000060: 202a 67bb 187d 50bc c47c 3a3d 34f4 5e3d
00000070: eaa6 95bd ef36 06bc 6eb6 bdbc ca4e b9bc
00000080: 6c3a f5bc b02d c1bc bfce 5a3d a0d7 603d
00000090: 7af1 92bd 379a 72bc 0838 153d 807f 90bd
000000a0: aeb9 c03d 018c 87bd b13a 7dbd 6189 373d
000000b0: 09ce 86bd d05a 48bd 9833 113d a190 52bd
000000c0: 40c2 243b 743b 383d 0028 89bb a21e 10bd
000000d0: 82ee e4bc f08b 463c fa67 0d3d 6621 253d
000000e0: d816 793d 2855 10bd a45b d93c e02b 043c
000000f0: bf06 953b ec8c a6bc 4ef8 313d 5a90 683c
00000100: 66cb bdbd 44f0 88bd 8f86 0b3d 7804 6b3d
00000110: cdd6 94bd 12f8 d7bc d58b a73c 511c 46bd
00000120: 261c 94bd d03b 03bd 008f f5b9 61d9 003e
00000130: 5dc5 24bd ea04 45bd 429c 61bd 93a1 63bd
00000140: e752 9dbb 8957 1cbd dcd9 833d 24bf 073d
00000150: dcb8 173d d040 273c bf59 8abd c07c 673d
00000160: cb4d 69bd 1813 5c3d c5d0 37bd 35c6 023c
00000170: 60b2 6a3c 568f a7bc c095 c5bb bcc6 40bd
00000180: 50ed 7dbc b08d 2f3c e4ad b93a 0518 da3c
00000190: a0c4 ec3c 36f4 2d3c 9476 613d 31b4 853d
000001a0: 5c57 6f3d 2710 91bd 819e 30bd 008a f0ba
000001b0: 2dbb 89bc e515 983b 4745 4dbd 60cc 923d
000001c0: 84a2 a9bc 2eb6 933d 2674 873c 1c1b 82bc
000001d0: ce15 483d 4785 20bd 00af 433c 80c5 76ba
000001e0: e02e 51bd 6dbc aabc 6817 ea3d f457 56bd
000001f0: 7879 86bc 7aa5 3fbd c818 af3c c8d7 9bbc
00000200: 2602 053d 2c1f fe3c b034 f2bc c873 b53c
00000210: 3296 8ebc 6009 16bc 7814 3ebd f29b a8bc
00000220: 189a 913d 5e78 b8bc 509c c53b 0727 493c
00000230: 587a 71bc 506f f03b bf80 92bd eb9d 79bd
00000240: 78d7 313d beb1 40bd 1a10 92bd dc8e d13c
00000250: 3d9b 96bc fa6e 453d 7eaa 95bc b3b1 be3c
00000260: 3885 c23c c269 e63c ec1a 6cbc 5816 5e3c
00000270: 0d26 033b 96e4 b6bc bc07 7dbc f760 b5bc
00000280: 50dc 86bc 4074 893a a04f 7e3b 161a cdbd
00000290: 8053 46ba 8a30 acbc 950f 1abd 3a4b 9bbd
000002a0: ee08 6c3c 489d 4c3c 3710 b73c 7c7d d9bd
000002b0: 00d1 d2bb 7b49 41bc a7b0 1dbd ebfd 4e3c
000002c0: 6ec0 91bb a14c d33c e0b1 39bd bda6 f23c
000002d0: 6bab 81bd fb50 82bc 6b10 f03e c925 073e
000002e0: cd58 6d3d 8c68 f73d 078f 06be af88 dabc
000002f0: 8614 27be b6f7 ae3d f2c2 00be ae83 91bc
00000300: b54b 813d 24b8 bd3a a7f2 aa3d c245 363d
00000310: 6a0c 34be 75f1 94bd 0a10 d73d bf01 49bd
00000320: 80e4 95bd 6288 87bc 3bb3 0a3e 610c b13d
00000330: 6522 a23d 7e36 403e 46fe 80bd 3feb 853d
00000340: 7706 133d d01a adbd 9285 05be dc72 4fbc
00000350: b7e6 d13c 39f5 373a 45e8 083d b54f 98bd
00000360: 7987 60be b852 933c 4e7f 533e acb1 ad3c
00000370: 7e94 043d 5a6b 8ebc f2bb ac3d fd0d bd3d
00000380: 5f01 af3d 9938 cc3d 8ba7 e73d aad8 4b3e
00000390: d795 cb3d d711 fc3d e01f 433e 07e2 d93c
000003a0: 8ebe 8f3d aaef 733d 3843 e3bc 948d 1c3e
000003b0: 587e 8a3d ad46 9d3c ff0c 95bd 1e2e 9b3a
000003c0: a3fb 263e 5088 853d 6044 013f 9d23 f43d
000003d0: 89c7 343e 0646 ca3e 47c6 953d 8008 59bc
000003e0: 5a3d 4bbd 5381 273d 5342 0d3e b5c8 cf3e
000003f0: e01d 053d 9cce bfbd c25c 0e3c c73c 213e

neuralnet.0.bias f4 [18]
-0.106970325 1.2601851 -0.13490492 1.0431699 1.2978957 1.331492 1.1601435 0.57334465
1.2236558 1.1812475 1.2307975 1.3161627 1.0611086 1.3247668 1.3006731 0.3370833
0.6595515 1.3590243
00000000: 4213 dbbd bf4d a13f 8424 0abe 9786 853f
00000010: 7221 a63f 546e aa3f 957f 943f b7c6 123f
00000020: c1a0 9c3f 1e33 973f c68a 9d3f 0578 a83f
00000030: 68d2 873f f591 a93f 757c a63f 2f96 ac3e
00000040: 5ed8 283f 82f4 ad3f

neuralnet.2.weight f4 [18, 18]
0.09326045 0.1870717 -0.09943992 -0.010371551 -0.03168066 -0.06560066 -0.21158151 -0.23259823
-0.20568378 0.03971745 -0.055274576 0.17804553 0.031082466 0.12291826 -0.06431927 -0.18915471
0.13967247 -0.16442358 0.13236518 0.04927962 0.001048215 0.0988637 -0.13697061 -0.05176633
0.093973815 -0.1581895 0.020886656 -0.12287631 0.014064357 -0.00093767594 -0.17362617 -0.061910238
0.09850132 -0.029950771 -0.11809099 -0.22330384 0.12725301 -0.20614402 -0.14984676 0.22951303
0.069719866 -0.026129643 -0.10059363 0.16099541 0.15029609 -0.19678262 -0.099993125 -0.019049423
-0.096046925 -0.113835834 0.031932786 -0.19707434 -0.18006933 0.08195613 -0.024046337 -0.0124758575
-0.1585438 -0.019510416 -0.14701727 -0.07141143 -0.23365581 -0.19504407 0.124067724 -0.03465589
-0.19213963 0.1708257 0.17062362 0.1694443 -0.1347598 -0.18392694 -0.07269427 -0.2218464
0.2722636 1.1791977 0.026970142 0.8149955 0.73139286 0.9290385 0.976978 0.2084554
0.9875419 1.1610506 0.7284532 0.91110706 0.67489934 0.82590264 0.7258448 0.11672411
0.5406925 0.9952956 -0.07258117 1.1188246 0.13410088 0.9703258 1.3662655 1.3034372
0.82011163 0.45373052 1.3405706 0.8910263 1.2140731 1.203393 1.1552942 1.3397198
1.0430472 0.5543203 0.6811696 1.2447338 -0.028241161 1.052602 -0.07896009 0.8779283
1.3383596 1.3157558 0.92642987 0.83050597 1.2975421 1.1603884 1.4603918 1.3586618
0.87104803 1.2537801 1.2492307 0.56915176 0.48406675 1.2361122 0.09830523 -0.025794623
-0.15381244 -0.15481624 0.05536198 -0.11166061 -0.15203375 -0.009336513 -0.10498522 0.12731917
0.14710453 -0.2515419 -0.119585365 0.18249215 -0.23445529 -0.019296555 0.12544438 0.00085444836
0.088901594 0.029719666 -0.09506887 0.15286791 -0.15475866 0.11242317 0.13504687 -0.11793819
-0.2522906 0.13601694 -0.15615593 -0.16749066 -0.06318521 -0.0014330712 -0.06737253 -0.19163388
0.09582986 0.13899414 0.22226687 -0.25103006 0.015374721 0.20462449 -0.20137328 0.09125764
0.18250057 -0.023264593 0.048163164 -0.1785531 -0.07936348 -0.065574676 -0.038734045 -0.10944778
-0.015554948 0.1686522 0.0921358 -0.1330773 0.032194782 0.7331232 -0.114828505 0.752772
0.9114112 0.8143193 0.883471 0.6625038 1.045656 0.99975413 0.7853904 0.76038665
0.9831669 0.9780364 0.9727612 0.13368441 0.6954924 0.65436244 -0.015980005 0.11408758
0.16255914 -0.21272658 0.15148729 -0.24860588 0.07587193 -0.05006382 -0.04242872 -0.23121136
-0.16753396 0.18217024 0.1994951 -0.11326004 -0.22876053 -0.19124939 0.12826875 0.15244718
-0.13548867 0.9007085 -0.10152363 0.7870493 1.0952244 1.1028786 1.2126384 0.3872579
1.0234532 1.1225027 1.1189406 1.3019465 0.7799169 1.1140184 1.2086309 0.13987388
0.6023224 1.2839401 -0.22589783 -0.11365281 0.16955037 -0.07628049 -0.012562883 -0.0210414
0.17575373 0.20218605 0.117069945 -0.17703617 0.21604131 0.02833245 -0.13539648 -0.25285688
-0.088784836 -0.17710319 -0.21208309 0.0052690227 -0.07775888 -0.062342927 0.15833445 0.034265563
00000000: 56ff be3d b98f 3f3e 28a7 cbbd 70ed 29bc
00000010: 94c3 01bd a459 86bd d3a8 58be 3b2e 6ebe
00000020: c59e 52be c4ae 223d 9867 62bd 9151 363e
00000030: a8a0 fe3c 92bc fb3d d2b9 83bd c6b1 41be
00000040: 4d06 0f3e a85e 28be bd8a 073e 6dd9 493d
00000050: 4264 893a 0d79 ca3d 0642 0cbe ee08 54bd
00000060: 5875 c03d 6efc 21be 7e1a ab3c 93a6 fbbd
00000070: 306e 663c 5ece 75ba 0fcb 31be 9795 7dbd
00000080: 0fbb c93d 525b f5bc b0d9 f1bd c3a9 64be
00000090: 9d4e 023e 6b17 53be 6e71 19be 7705 6b3e
000000a0: 4ac9 8e3d d50d d6bc 0804 cebd fbdb 243e
000000b0: 38e7 193e 6281 49be 32c9 ccbd 890d 9cbc
000000c0: 40b4 c4bd c322 e9bd f4cb 023d dbcd 49be
000000d0: 1864 38be 9ed8 a73d d3fc c4bc 8a67 4cbc
000000e0: 4e59 22be 4fd4 9fbc b28b 16be 2840 92bd
000000f0: 7843 6fbe a2b9 47be 3817 fe3d 56f3 0dbd
00000100: 40c0 44be efec 2e3e f5b7 2e3e ce82 2d3e
00000110: 79fe 09be 5857 3cbe bce0 94bd b42b 63be
00000120: 2266 8b3e f3ef 963f 7df0 dc3c 8ca3 503f
00000130: 903c 3b3f 78d5 6d3f 3b1b 7a3f 5575 553e
00000140: 8ccf 7c3f 4e9d 943f e97b 3a3f 503e 693f
00000150: 34c6 2c3f 5b6e 533f f7d0 393f 0d0d ef3d
00000160: d36a 0a3f b1cb 7e3f 70a5 94bd a535 8f3f
00000170: be51 093e 4667 783f cae1 ae3f 08d7 a63f
00000180: d6f2 513f 5e4f e83e d197 ab3f 4d1a 643f
00000190: bf66 9b3f c808 9a3f aee0 933f f07b ab3f
000001a0: 9282 853f efe7 0d3f 2261 2e3f 7053 9f3f
000001b0: 025a e7bc aabb 863f d4b5 a1bd e9bf 603f
000001c0: 5e4f ab3f b06a a83f 822a 6d3f 0a9c 543f
000001d0: dc15 a63f 9b87 943f 1eee ba3f a1e8 ad3f
000001e0: 01fd 5e3f de7b a03f cbe6 9f3f eeb3 113f
000001f0: 99d7 f73e ed38 9e3f 4154 c93d 3f4f d3bc
00000200: 0281 1dbe 2688 1ebe 3ec3 623d 51ae e4bd
00000210: bcae 1bbe 2cf8 18bc 7e02 d7bd f55f 023e
00000220: 92a2 163e 1aca 80be 2ce9 f4bd 39df 3a3e
00000230: 0c15 70be cf13 9ebc 7e74 003e 0ffd 5f3a
00000240: 0a12 b63d a876 f33c 78b3 c2bd 6889 1c3e
00000250: 0e79 1ebe 1e3e e63d ba49 0a3e 9489 f1bd
00000260: 3c2c 81be 0648 0b3e 57e7 1fbe ac82 2bbe
00000270: 3f67 81bd e4d5 bbba 9cfa 89bd ac3b 44be
00000280: 7242 c43d 7b54 0e3e ed99 633e 0387 80be
00000290: 41e6 7b3c 1589 513e cc34 4ebe 49e5 ba3d
000002a0: 6ee1 3a3e 6395 bebc bd46 453d a0d6 36be
000002b0: 5289 a2bd 044c 86bd 97a7 1ebd 2826 e0bd
000002c0: 2eda 7ebc 2ab3 2c3e b2b1 bc3d 6a45 08be
000002d0: adde 033d f6ad 3b3f 352b ebbd aab5 403f
000002e0: 3f52 693f 3b77 503f 282b 623f d999 293f
000002f0: 0ed8 853f e3ef 7f3f 580f 493f b3a8 423f
00000300: d3b0 7b3f 9860 7a3f e106 793f 91e4 083e
00000310: ca0b 323f 4c84 273f 80e8 82bc c0a6 e93d
00000320: e775 263e ffd4 59be 7c1f 1b3e 8a92 7ebe
00000330: be62 9b3d b80f 4dbd bdc9 2dbd acc2 6cbe
00000340: 068e 2bbe d68a 3a3e 7248 4c3e e1f4 e7bd
00000350: 3340 6abe e1d6 43be e258 033e 1d1b 1c3e
00000360: 8bbd 0abe d594 663f 9feb cfbd 107c 493f
00000370: 5030 8c3f 202b 8d3f bc37 9b3f ab46 c63e
00000380: 8400 833f 2bae 8f3f 7239 8f3f 2fa6 a63f
00000390: a2a8 473f 2898 8e3f 6bb4 9a3f 193b 0f3e
000003a0: cd31 1a3f 2658 a43f c351 67be cec2 e8bd
000003b0: 9d9e 2d3e f238 9cbd 8dd4 4dbc 045f acbc
000003c0: c9f8 333e dc09 4f3e 5ec2 ef3d f848 35be
000003d0: ef39 5d3e 7419 e83c 60a5 0abe 7576 81be
000003e0: d3d4 b5bd 8a5a 35be 4f2c 59be c4a7 ac3b
000003f0: 0c40 9fbd 4c5b 7fbd 6d22 223e 0c5a 0c3d

neuralnet.2.bias f4 [18]
-0.17158476 0.037528727 -0.16165456 -0.05171786 0.8565674 1.2191213 1.2777076 0.0027845842
-0.28409293 0.10250023 0.8763351 -0.17165715 1.1616625 -0.086025104 -0.17480518 0.7370273
0.83769494 -0.25627604
00000000: eab3 2fbe b9b7 193d c688 25be 1bd6 53bd
00000010: 0048 5b3f 2b0c 9c3f ec8b a33f 927d 363b
00000020: a174 91be a4eb d13d 7f57 603f e4c6 2fbe
00000030: 5bb1 943f ee2d b0bd 2100 33be d2ad 3c3f
00000040: 2d73 563f 9d36 83be

neuralnet.4.weight f4 [4, 18]
-0.11114023 -0.1398242 0.04626961 -0.20876643 -0.54529095 -0.68627125 -0.6300869 0.02806135
0.1254463 0.060089022 -0.36943257 -0.09913261 -0.70944273 -0.20430785 0.19026403 -0.31388474
-0.7009041 0.1465676 -0.052722618 -0.07521497 0.18853472 0.039406367 -0.43454498 -0.76070917
-0.690092 -0.0029623578 0.084420085 -0.24243036 -0.78452367 0.01440567 -0.65801346 0.19780132
0.0037464052 -0.8433419 -0.55259204 -0.0019751808 -0.018426344 0.18800041 -0.14485162 -0.15632915
-0.70779556 -0.54744375 -0.62485105 -0.19036202 0.13749425 0.15811557 -0.35339203 0.06763149
-0.7287493 0.031701487 0.018164352 -0.33261454 -0.4055645 0.11033459 -0.216187 0.10564242
-0.012842536 0.03566081 -0.7569255 -0.42833513 -0.58221304 0.12648149 -0.110548615 0.10565249
-0.7546459 -0.11006655 -0.471362 0.12142364 0.054077838 -0.6744781 -0.5511691 -0.026183367
00000000: 7d9d e3bd 132e 0fbe 3485 3d3d dec6 55be
00000010: 3098 0bbf 79af 2fbf 604d 21bf ebe0 e53c
00000020: ff74 003e e81f 763d 4426 bdbe 0a06 cbbd
00000030: 0a9e 35bf 1436 51be 93d4 423e 80b5 a0be
00000040: 736e 33bf d115 163e acf3 57bd 4e0a 9abd
00000050: 3f0f 413e 9268 213d ae7c debe d6bd 42bf
00000060: dfa9 30bf 1e24 42bb 70e4 ac3d aa3f 78be
00000070: 8bd6 48bf c205 6c3c 9273 28bf 6e8c 4a3e
00000080: 4086 753b 41e5 57bf ac76 0dbf 0972 01bb
00000090: d8f2 96bc 2e83 403e fc53 14be c014 20be
000000a0: 1732 35bf 4625 0cbf 3df6 1fbf 43ee 42be
000000b0: 4bcb 0c3e 0ce9 213e cdef b4be 6182 8a3d
000000c0: 508f 3abf 6bd9 013d 68cd 943c 744c aabe
000000d0: 26a6 cfbe 1af7 e13d 2060 5dbe 0e5b d83d
000000e0: 8069 52bc 1211 123d dfc5 41bf be4e dbbe
000000f0: ea0b 15bf 5d84 013e 5067 e2bd 5560 d83d
00000100: 7930 41bf 926a e1bd 5c56 f1be f5ac f83d
00000110: b980 5d3d 99aa 2cbf 6b19 0dbf 807e d6bc

neuralnet.4.bias f4 [4]
-0.43334818 -0.67864007 -0.3129526 -0.2124255
00000000: d0df ddbe 5bbb 2dbf 533b a0be 1286 59be
