src/players/saves/RLBasic30000-1.pth (torch_old, 16010 bytes, 6 tensors)

neuralnet.0.weight f4 [18, 182]
0	0x3f9f1a67	1.2429932
1	0x403ec048	2.980486
2	0x4077a5cf	3.8694952
3	0x4064d34a	3.575396
4	0x409e874a	4.954015
5	0x408c21b9	4.3791165
6	0x40c933a6	6.2875547
7	0x40627a18	3.538702
8	0x406bed71	3.6863673
9	0x4077e82b	3.8735454
10	0x407af3eb	3.9211376
11	0x4077b041	3.8701327
12	0x40a65528	5.197895
13	0x408768f7	4.231563
14	0x40b21c5d	5.5659623
15	0x4079dc3c	3.904067
16	0x40bb15fc	5.8464336
17	0x4086ea34	4.2160892
18	0x4098fe88	4.7810707
19	0x4024b782	2.5737004
20	0x405e7a8a	3.4762292
21	0x3ff4ca8f	1.9124316
22	0x3fa37341	1.2769548
23	0x3f99c8b1	1.2014371
24	0x3fdc64dc	1.721828
25	0x3f918398	1.1368284
26	0x3f960120	1.1719093
27	0xbece82a6	-0.40334052
28	0x3e899308	0.26869988
29	0x3e6adfa3	0.22936873
30	0xbec8feff	-0.39257047
31	0xbf3142ae	-0.6924237
32	0x3e1d8a5e	0.15384814
33	0xbf46493e	-0.7745551
34	0xbfede254	-1.8584695
35	0xc071afc1	-3.7763522
36	0xc077b749	-3.8705618
37	0xc08e0134	-4.437647
38	0xc0884fd9	-4.259747
39	0xbba898a0	-0.0051451474
40	0x3e824833	0.2544571
41	0xbd96bc99	-0.07360191
42	0xbe916839	-0.28399828
43	0xbe8465e8	-0.25858998
44	0x3e5bf32d	0.21479483
45	0xbe3391a3	-0.17536025
46	0xbebcb20f	-0.36854598
47	0x3f83651b	1.026523
48	0x401a3bed	2.4099076
49	0x3fda84a7	1.7071732
50	0x3fea39f4	1.8298936
51	0x401e35b9	2.472029
52	0x3fab8934	1.3401246
53	0xbe457c15	-0.19285615
54	0x407fd863	3.9975822
55	0x3f7ba5be	0.9829978
56	0xbf1fb69c	-0.62388015
57	0x3ff3a600	1.9035034
58	0x403f0560	2.984703
59	0xbd76539c	-0.06013833
60	0x3e6bbeff	0.23022078
61	0x3e82e8c4	0.2556821
62	0xbfe8a414	-1.8175073
63	0xbf924609	-1.1427623
64	0xbf701953	-0.9378864
65	0xbf80e1c2	-1.0068896
66	0x3fd33216	1.649966
67	0x3f791932	0.9730407
68	0x3fe85947	1.8152245
69	0xbf85f0bf	-1.0464095
70	0x407b6328	3.927927
71	0xbd9eb9b9	-0.077502675
72	0x3fd96191	1.69829
73	0x3dccd149	0.100008555
74	0x3fa4acae	1.2865198
75	0x402242df	2.5353315
76	0x401bef03	2.436463
77	0x3f1a1dd1	0.60201746
78	0x3f5da0c6	0.86573446
79	0x3fea9448	1.8326502
80	0xbf874f91	-1.0571157
81	0x3fe2551b	1.7682222
82	0x3fa90dfc	1.3207393
83	0xbe152c05	-0.14567573
84	0x402ff615	2.7493947
85	0x3ffcd715	1.9753138
86	0x3f2aa71e	0.6666125
87	0x4031ece3	2.7800834
88	0x402aeee9	2.670832
89	0x3ce510dc	0.02796214
90	0xbfe463a3	-1.7842907
91	0x3f7907ed	0.9727772
92	0x3f936cc0	1.1517563
93	0x405b62c5	3.4279034
94	0x3eb90768	0.36138463
95	0x3d3daac7	0.046305444
96	0x3fb7f864	1.4372678
97	0xbf9c5143	-1.2212299
98	0x3e65abab	0.22428767
99	0xc01595f0	-2.3372765
100	0x3f1d613b	0.61476487
101	0x3e9f735b	0.31142697
102	0xbfa2c386	-1.2715919
103	0xbe742e13	-0.23845701
104	0x3fa9729a	1.3238099
105	0x3f8a5fb9	1.0810462
106	0x4018c666	2.3871093
107	0xbe0a0fb7	-0.13482557
108	0x4041cf38	3.0282726
109	0x3d52a8d3	0.051430535
110	0x3ff88bff	1.9417723
111	0x3fe15de3	1.7606777
112	0x408c2a55	4.3801675
113	0x3fc6f850	1.5544529
114	0x404fbec7	3.2460191
115	0x3ea5865a	0.32329065
116	0xbdd86fe8	-0.105682194
117	0x3f4074e6	0.7517837
118	0x400c312e	2.1905017
119	0x3f78d735	0.9720338
120	0x3f1a5f5f	0.60301775
121	0x3fa18c53	1.2620949
122	0x3fd71685	1.6803747
123	0x3f021f85	0.50829345
124	0x40237558	2.554037
125	0x3eb35104	0.35022748
126	0xbf15a2be	-0.5845145
127	0x4044aa7c	3.0729055
128	0x3f5f1302	0.8713838
129	0xbfa4ce35	-1.2875429
130	0x3f95cf36	1.1703861
131	0xbf354759	-0.7081199
132	0x40544a2a	3.3170266
133	0xbf3d5367	-0.73955387
134	0x40141390	2.313694
135	0x3ebdc3b3	0.3706337
136	0x3f5631f8	0.83669996
137	0xbd1e39bf	-0.03862929
138	0xbf1a027f	-0.6016006
139	0x3dcd01bf	0.10010099
140	0xbf3abbbb	-0.72942704
141	0x409378e3	4.6085067
142	0x401c4bd4	2.4421282
143	0x40af2cb8	5.474209
144	0x3f626c49	0.8844648
145	0x4084f21e	4.1545553
146	0x401839e3	2.3785331
147	0x3fd44734	1.658423
148	0x40240309	2.5626853
149	0xbd515eae	-0.051115684
150	0xbf1f390a	-0.6219641
151	0x3fc5881a	1.543216
152	0x3f531bcc	0.8246429
153	0xbfc56681	-1.5421907
154	0x3f3c9e35	0.73678905
155	0xbb5b5ba6	-0.0033471375
156	0x3f3825ea	0.7193285
157	0xbf97d5b2	-1.186209
158	0x4010f04c	2.2646666
159	0x4002c027	2.042978
160	0xc0550a8b	-3.3287685
161	0xc0a12d6a	-5.0367937
162	0xc0d06fac	-6.513632
163	0xc09ef3c5	-4.967257
164	0x3f505064	0.81372666
165	0xc01c328f	-2.4405859
166	0xbfb0bb59	-1.3807174
167	0xbfc08ca7	-1.5042924
168	0x3f2ebb45	0.682545
169	0xbfd63973	-1.6736282
170	0xc022c1a7	-2.5430696
171	0x3e7b2ab6	0.24528012
172	0xbfc2bce4	-1.5213895
173	0xc0888874	-4.266657
174	0xbed865a9	-0.4226506
175	0x3f9f5bbf	1.2449874
176	0xc006a73a	-2.1039567
177	0xbff4c3e4	-1.9122281
178	0xc08a11b5	-4.3146615
179	0xc02d43f5	-2.7072728
180	0xc05eaae9	-3.4791815
181	0xbf4dac3c	-0.80340934
182	0xbf90e771	-1.132063
183	0x3f946979	1.1594688
184	0xc0078052	-2.117207
185	0xbfc9d757	-1.5768842
186	0xbe892168	-0.267833
187	0xbf00a1a0	-0.5024662
188	0x3e46ae77	0.1940249
189	0xbfae25ff	-1.3605345
190	0x3faa7b8f	1.3318957
191	0x3f4ff8d2	0.81239045
192	0x401fbb70	2.4958153
193	0x3fbcec07	1.475953
194	0x4014e99f	2.326759
195	0x40ba919d	5.830275
196	0x4081075a	4.0321474
197	0x3faba3fd	1.340942
198	0x40564a7a	3.3482957
199	0x3f1c6a54	0.61099744
200	0x4081b9d6	4.053935
201	0x401334cc	2.3000975
202	0x4005b593	2.0892074
203	0x3f96d1e4	1.1782804
204	0xbfc3901e	-1.5278356
205	0xc01a284c	-2.4087095
206	0xbfdc19e1	-1.7195398
207	0xbfbc895a	-1.4729416
208	0xbe8d0282	-0.27540976
209	0xbf3a590e	-0.72792137
210	0xbf78866e	-0.97080123
211	0xc003c751	-2.0590403
212	0xbfeb688f	-1.8391284
213	0xbfd63ead	-1.6737877
214	0xbfa4d4bc	-1.2877421
215	0xbfc81fec	-1.5634742
216	0xbfc02ccb	-1.501367
217	0xbf8a5a30	-1.0808773
218	0xbf1b70e7	-0.6071915
219	0xbfb35e9a	-1.4013245
220	0xbea00e8f	-0.31261107
221	0xbc467228	-0.012112178
222	0xbf1810c0	-0.5940056
223	0xbfb96621	-1.4484292
224	0x3f72e946	0.94887197
225	0x3f5d9ef4	0.8657067
226	0x3f43479f	0.7628116
227	0xc01f1716	-2.485784
228	0xc046b7c4	-3.1049662
229	0x3f70242d	0.938052
230	0x3f69a15d	0.91261846
231	0xbfbb58b7	-1.4636449
232	0x3f07746f	0.5291204
233	0xbf23efb7	-0.6403765
234	0xc0398bb6	-2.8991523
235	0xbf907ec4	-1.1288686
236	0x3eddf685	0.43352142
237	0x3f1681ce	0.58791816
238	0xbf21cd9a	-0.6320435
239	0x3e85bf80	0.26122665
240	0x3fd262b4	1.6436372
241	0xbc03b9c8	-0.008039899
242	0x3f56efe4	0.83959794
243	0xc02328b6	-2.5493598
244	0xbf65b124	-0.8972342
245	0xc03d5ce4	-2.9587946
246	0x3fd6dc3f	1.6785964
247	0xbed88e13	-0.42295894
248	0xbfc109d4	-1.5081124
249	0xc0093667	-2.1439455
250	0xbfac26ec	-1.3449378
251	0xbf0c38d7	-0.5477423
252	0xbf488f4f	-0.7834367
253	0xbfd32977	-1.6497029
254	0x3f1e1d55	0.6176351
255	0x3ea44ca1	0.32089713

neuralnet.0.bias f4 [18]
0	0xc15f2747	-13.947089
1	0xc0af09d6	-5.4699507
2	0xbf2a5c9f	-0.6654758
3	0xc1ce1deb	-25.764608
4	0x415de8f9	13.869378
5	0xc1d1f83a	-26.246204
6	0xc124047a	-10.251093
7	0xc1b4bbbe	-22.591671
8	0xc156bb6a	-13.420755
9	0x4027f34a	2.6242242
10	0xc0c40ac8	-6.126316
11	0x3f5b6462	0.85700047
12	0x41a63072	20.773655
13	0xc0a4fb5d	-5.155684
14	0x419778a7	18.933912
15	0x41158f78	9.347527
16	0xc12ccf1d	-10.800565
17	0xc1b446db	-22.534597

neuralnet.2.weight f4 [18, 18]
0	0xc0126fd3	-2.2880752
1	0xc007b13d	-2.1201928
2	0xc00e66cc	-2.2250242
3	0xc06c617d	-3.6934502
4	0xc061db18	-3.5289974
5	0xbf6f1eaf	-0.93406194
6	0xc097d79a	-4.7450686
7	0xc129137c	-10.567257
8	0xc0acbdcc	-5.3981686
9	0x3f70950c	0.9397743
10	0xc102ed9e	-8.183012
11	0xbfbf411e	-1.4941747
12	0xc012ff79	-2.2968428
13	0x4028e251	2.6388133
14	0xc00350ba	-2.0518022
15	0xbfffd74b	-1.9987577
16	0xc140cd8b	-12.050181
17	0xc0acd5eb	-5.401113
18	0x4005a603	2.0882576
19	0x3f921777	1.1413411
20	0x400ec3ee	2.2307086
21	0x3fc68cd4	1.5511727
22	0xbf58a950	-0.8463335
23	0x3f0a2fe3	0.5397932
24	0xbd55ced4	-0.0521992
25	0x3d337cac	0.04382007
26	0xbfd701d2	-1.679743
27	0x401d5651	2.4583933
28	0x403cf921	2.9527056
29	0xbf439ec8	-0.76414156
30	0xbda8dfaa	-0.082457855
31	0xc045b49a	-3.089148
32	0x3eb26ec7	0.3485014
33	0xbe66dab6	-0.22544369
34	0xbe5949ff	-0.21219634
35	0x3f8430fc	1.0327449
36	0x3f866ea0	1.050251
37	0x402b8ff3	2.680661
38	0x407d79f3	3.9605682
39	0x3e139e04	0.14415747
40	0x3e50fca9	0.20408882
41	0x3d861cde	0.06548475
42	0x3fd68351	1.6758825
43	0xbfb182f5	-1.386809
44	0x3e30bb0a	0.1725885
45	0xc08ee408	-4.465336
46	0xc0418bfd	-3.0241692
47	0xbdbc8c0f	-0.092064016
48	0x3e93556d	0.28776112
49	0x3f9029d5	1.1262766
50	0x3d2fca18	0.04291734
51	0xc115921d	-9.348172
52	0xbf1b8c73	-0.60761184
53	0xbf592f86	-0.8483814
54	0xc0a985ea	-5.297597
55	0xbe049419	-0.1294712
56	0xbfc322b4	-1.5244966
57	0xc00d5cf8	-2.2087994
58	0xbffe0784	-1.9846044
59	0xbf8dbabe	-1.1072614
60	0xbf89e40d	-1.077272
61	0xbf2a8dd2	-0.6662265
62	0x409738af	4.7256694
63	0x3fc34d1a	1.5257905
64	0xbec65c89	-0.38742474
65	0x3fb6c0d3	1.4277595
66	0xbfcac809	-1.5842296
67	0x3e7a38e6	0.24435768
68	0xbe72b3c9	-0.23701395
69	0x3f7892dd	0.97099096
70	0xbea903b0	-0.33010626
71	0xc0143a0e	-2.3160434
72	0x403d6923	2.959542
73	0x40a1b182	5.0529184
74	0x40a87e5b	5.2654243
75	0xbf3f28d2	-0.7467166
76	0xc06bcdfe	-3.6844478
77	0xbfe66cfa	-1.8002007
78	0x4028409e	2.628944
79	0x4073c39f	3.8088148
80	0xc02301d5	-2.5469868
81	0xc137bf28	-11.484169
82	0x40182d60	2.3777695
83	0x3ffb2472	1.9620497
84	0x4030e260	2.7638168
85	0xbf89052c	-1.0704703
86	0x3f922926	1.1418808
87	0xc0db7e5e	-6.8591757
88	0x3f846b31	1.0345212
89	0xbf80763c	-1.0036082
90	0x3dea4448	0.11438805
91	0x3f36a02e	0.71338165
92	0x3f921a0e	1.1414201
93	0xbe0de653	-0.13857393
94	0xbf98b4ed	-1.1930214
95	0xc00f1e79	-2.236235
96	0xc0441762	-3.0639272
97	0xc099b50e	-4.8033514
98	0x3f9228a7	1.1418656
99	0xc09b5b40	-4.854889
100	0xc12cea2e	-10.807173
101	0x3fcaa275	1.5830828
102	0x3e91ad4e	0.28452533
103	0x3f486e38	0.7829318
104	0x3f174886	0.59095037
105	0xbfd4332a	-1.6578114
106	0xbe13f2e0	-0.14448118
107	0x3f725d0a	0.94673216
108	0x3fbc966b	1.4733404
109	0xbf011d10	-0.5043497
110	0x3fb18f98	1.3871946
111	0x403a041d	2.906501
112	0xc0273adb	-2.6129673
113	0xbf428c1b	-0.75995034
114	0x401d123e	2.4542384
115	0xbf772226	-0.9653648
116	0x3fd785cd	1.6837708
117	0x3f1ce219	0.612825
118	0x3c90b13f	0.017662643
119	0x3f1772e0	0.5915966
120	0xbf582c0d	-0.84442216
121	0xbf97ac1f	-1.1849402
122	0xbd793d80	-0.060849667
123	0x3f53e5cd	0.82772523
124	0xbe921b52	-0.2853647
125	0xc04104a4	-3.0159082
126	0xbe4c40f7	-0.19946657
127	0x3fd3c51c	1.6544528
128	0xbf2c2e45	-0.672581
129	0xbec73657	-0.38908646
130	0xbed8822f	-0.42286822
131	0x3f06e4ff	0.5269317
132	0x3ff30789	1.8986675
133	0x3fda3f4e	1.7050569
134	0xbf9beb3b	-1.2181162
135	0x3eddd5fb	0.43327317
136	0x3fba43f7	1.4551991
137	0xbfc260f0	-1.5185833
138	0xbd7a9aa2	-0.061182626
139	0xbde94ed4	-0.113919884
140	0x3d09f619	0.033681963
141	0xbf0060aa	-0.501475
142	0xbf1ec69c	-0.62021804
143	0xbf9ddc20	-1.2332802
144	0xbd35ff07	-0.044432666
145	0xbe179855	-0.14804204
146	0xbca54c27	-0.020177914
147	0xbeb48808	-0.35260034
148	0xbf2a950d	-0.66633683
149	0xbefff688	-0.49992776
150	0x3f2ee42c	0.6831691
151	0xbf80fcd7	-1.0077161
152	0xbd41751c	-0.047230825
153	0xc0411251	-3.016743
154	0xbfc3336e	-1.525007
155	0xc01e5a6b	-2.4742687
156	0xbe2018f0	-0.15634513
157	0xc01f77e9	-2.4916937
158	0x3ccaed2b	0.024771294
159	0xc0c4c8a5	-6.1494927
160	0xbe5c066f	-0.21486829
161	0xbe82e9d5	-0.25569025
162	0xbe674533	-0.22584991
163	0x3f80b97a	1.0056603
164	0x40588410	3.3830605
165	0x3e7b0b65	0.24516065
166	0x4007ca55	2.1217244
167	0x4008aa06	2.1353774
168	0xc0074686	-2.1136794
169	0xbfd61ba0	-1.672718
170	0xbe84fbef	-0.2597346
171	0xbfb29179	-1.3950645
172	0xbf29f64b	-0.6639144
173	0xc0034d15	-2.0515797
174	0xbfa00238	-1.2500677
175	0xc10d5b46	-8.834784
176	0xbe88a21b	-0.26686177
177	0x3fef1d94	1.8680902
178	0x4003d21f	2.0596998
179	0x3bca866a	0.006180574
180	0x3e9a71cf	0.30164954
181	0x3f81fb73	1.0154861
182	0x3cca3ee6	0.024688195
183	0xbe9b2c44	-0.3030721
184	0xbea13028	-0.31482053
185	0x3f4ff6bc	0.8123586
186	0x3f375d82	0.71627057
187	0xc07f2c1c	-3.9870672
188	0xbf2a4bb4	-0.66521764
189	0x3e3bb7ad	0.18331786
190	0xc06e0dd9	-3.7195952
191	0xbf899301	-1.0747987
192	0xbf0c7fda	-0.54882586
193	0xbfc59410	-1.543581
194	0xbec62e03	-0.3870698
195	0xbbcfb654	-0.006338874
196	0x3d5e5675	0.05428167
197	0xc0672fd9	-3.6122954
198	0x3f9a8293	1.2071098
199	0x3f906210	1.1279926
200	0x4060e98c	3.5142546
201	0xbebcf994	-0.36909163
202	0x3f9acd6c	1.209394
203	0xbed99e6c	-0.4250368
204	0x3f96f8ed	1.1794716
205	0x3f9c4de2	1.2211268
206	0x3e6e6c02	0.23283389
207	0xc08aa9aa	-4.333211
208	0xbe415989	-0.18881811
209	0x404746dc	3.1137
210	0x3f2a1609	0.6643987
211	0xbfafa1d9	-1.3721267
212	0xbf232629	-0.637301
213	0xc0450871	-3.0786402
214	0xbe318458	-0.17335641
215	0x3f07a9ab	0.5299327
216	0xbe00627a	-0.12537566
217	0x3ddb2144	0.10699704
218	0x3e2cfda9	0.16893639
219	0xbee3360a	-0.44377166
220	0xbec2a1a0	-0.38013935
221	0x3e4adae1	0.19810058
222	0xbf0fedc8	-0.562222
223	0x3d49830f	0.049197253
224	0xbf7c97d5	-0.9866918
225	0xbc7964f3	-0.015221822
226	0xbfef51bc	-1.8696818
227	0xbf8ebfa9	-1.115224
228	0xbe7cac2e	-0.24675056
229	0xc0c67408	-6.201664
230	0xbdd8b198	-0.10580748
231	0xbeb7e10e	-0.3591389
232	0xbf473190	-0.7781
233	0xbfd84568	-1.6896181
234	0xbe013a44	-0.12619883
235	0xbe594d4c	-0.21220893
236	0xbea56d4e	-0.32309955
237	0xbe8a9d41	-0.270731
238	0xbd189ecd	-0.03726082
239	0xbd47c8cd	-0.048775483
240	0xbdc76fc3	-0.09738114
241	0xbd68fbae	-0.056880645
242	0xbd6ad317	-0.057330217
243	0xbe3c12e0	-0.18366575
244	0xbd9b7dc8	-0.0759235
245	0xbe39a5e6	-0.18129691
246	0xbdf894cc	-0.12137756
247	0xbe53c180	-0.20679283
248	0xbe0d4d3e	-0.13798997
249	0xbe9d6734	-0.307428
250	0xbe927a2e	-0.2860884
251	0xbe44b75c	-0.19210571
252	0xbdb4b0d5	-0.088227905
253	0xbd265a98	-0.04061374
254	0xbeda34fd	-0.42618552
255	0xbd52aa5e	-0.051432006

neuralnet.2.bias f4 [18]
0	0x40ad8f36	5.423732
1	0xc20a950f	-34.645565
2	0xbf8c9cdf	-1.0985373
3	0x41d0bb27	26.091383
4	0x42746926	61.102684
5	0x42167c31	37.62128
6	0xc19723e9	-18.892534
7	0xc0fff955	-7.999186
8	0xc040714b	-3.0069149
9	0x4141b236	12.106009
10	0xc0ba73ba	-5.826627
11	0xc1502254	-13.008381
12	0xc08f08e1	-4.469834
13	0xbf02fee0	-0.5117016
14	0xbfb43c18	-1.4080839
15	0xbede592e	-0.43427414
16	0xc192204c	-18.26577
17	0xc10e9f76	-8.913931

neuralnet.4.weight f4 [4, 18]
0	0xbf6682aa	-0.9004313
1	0xbe31eeea	-0.17376295
2	0x3f7cdcf8	0.9877467
3	0x3f102db7	0.56319755
4	0xbf76f0a2	-0.96460927
5	0xbfd13699	-1.6344787
6	0xbf14917f	-0.5803451
7	0x401f2647	2.4867113
8	0x403dc6dc	2.9652624
9	0xbf987f80	-1.191391
10	0x40430bc6	3.0475936
11	0x3fdfb212	1.7476218
12	0x402da65c	2.7132788
13	0xb9f36ab7	-0.0004642808
14	0xbc6e6b0f	-0.014551892
15	0xbceacecb	-0.02866306
16	0x3fab63c5	1.3389822
17	0x406f5d9c	3.7400885
18	0x3f65174f	0.8948869
19	0x3edf4492	0.43607002
20	0x3fe7aa1d	1.809879
21	0xbd9c61fc	-0.076358765
22	0xbf91132b	-1.1333975
23	0xbd1a132b	-0.037615936
24	0xbda07b67	-0.07836037
25	0x3ffbe6c6	1.9679801
26	0x404e9542	3.22786
27	0xbf63215f	-0.88722795
28	0x3fed53c1	1.8541185
29	0x3ff92f8e	1.9467638
30	0x40862ba5	4.1928277
31	0x3e007f0b	0.12548463
32	0x3f604ebf	0.87620157
33	0x3d913462	0.07090069
34	0xbd11331b	-0.03544913
35	0x408b37e3	4.350572
36	0xbf85e47c	-1.0460353
37	0x3fa9054c	1.3204741
38	0x3f974591	1.1818105
39	0xbf171825	-0.59021217
40	0xbf8312da	-1.0240128
41	0xbfc0f41d	-1.5074497
42	0xbdffbb4a	-0.124868944
43	0x402d6f4c	2.709918
44	0x3fcc0867	1.5940064
45	0xbfa632cb	-1.2984251
46	0x4018ee03	2.389527
47	0x3fce4331	1.6114255
48	0x402219c4	2.5328226
49	0x3d9cb762	0.07652165
50	0x3f7f2261	0.99661833
51	0x3dd6d708	0.10490233
52	0xbe0226a7	-0.12710057
53	0x4057bcc9	3.3708975
54	0x3ebd541c	0.36978233
55	0x3e8b9cd1	0.2726808
56	0x3f76def0	0.96433926
57	0x3dadc23c	0.08484313
58	0xbf3c697a	-0.73598444
59	0xbfc64f0d	-1.5492874
60	0x3f4ce7d6	0.80041254
61	0x4034a841	2.8227694
62	0x40410e34	3.016492
63	0xbf870221	-1.0547525
64	0x40041940	2.0640411
65	0x3fdc502e	1.7211969
66	0x40536a03	3.3033454
67	0xbe050d14	-0.1299327
68	0x3edadcae	0.4274649
69	0xbe3a8c3d	-0.18217559
70	0xbf0ceee7	-0.55052036
71	0x4076d265	3.8565915

neuralnet.4.bias f4 [4]
0	0xc205645f	-33.34802
1	0xc223adb9	-40.91965
2	0xc1eddee7	-29.733839
3	0xc2003c12	-32.058662
