src/players/saves/RLBasic100.pth (torch_old, 16010 bytes, 6 tensors)

neuralnet.0.weight f4 [18, 182]
0	0x3f652c97	0.89521164
1	0x3eeb7060	0.45984173
2	0x3e4605ab	0.193381
3	0xbcc54a7a	-0.024083365
4	0x3c8fadce	0.017538931
5	0xbd86ff3f	-0.06591653
6	0xbea36ad3	-0.31917438
7	0xbf17de1f	-0.59323305
8	0xbf340a8f	-0.7032861
9	0xbedb4384	-0.42824948
10	0xbf374606	-0.7159122
11	0xbf675c19	-0.90374905
12	0xbf7b23f4	-0.98101735
13	0xbfa33311	-1.2749959
14	0xbf9694dc	-1.1764178
15	0xbf883969	-1.064252
16	0xbf86173a	-1.0475838
17	0xbf980d98	-1.1879148
18	0xbfa0e048	-1.2568445
19	0xbf347dc0	-0.7050438
20	0xbf8afbfe	-1.0858152
21	0xbf80d766	-1.0065734
22	0xbf814904	-1.0100408
23	0xbf639227	-0.88894886
24	0xbf2a7512	-0.66584885
25	0xbf3cee63	-0.7380125
26	0xbf2afb61	-0.66789824
27	0xbf43e62d	-0.76523095
28	0xbee0f974	-0.43940318
29	0xbf08e0e9	-0.53468186
30	0xbeab4273	-0.33449134
31	0xbec7876f	-0.38970515
32	0xbe8664d4	-0.262488
33	0xbebbd5e1	-0.36686614
34	0x3cc8b03c	0.024498098
35	0x3db49775	0.08817951
36	0x3e0002c4	0.12501055
37	0x3eefc382	0.46828848
38	0x3e9e31e2	0.30897433
39	0xb9d85900	-0.0004126504
40	0xbe3541e8	-0.17700922
41	0x3f03fda3	0.51558894
42	0x3e3cdbce	0.18443224
43	0x3efcf0bb	0.49402413
44	0x3c68db2b	0.01421241
45	0x3da58a67	0.08083039
46	0xbdc8831a	-0.09790631
47	0x3d499f59	0.04922423
48	0x3d22c11e	0.039734952
49	0x393f81b2	0.00018263495
50	0x3d97354f	0.07383215
51	0x3eece583	0.46268854
52	0x3ddc15cc	0.10746345
53	0xbe8637a1	-0.26214316
54	0x3e5ec177	0.21753488
55	0x3e8c3826	0.27386588
56	0xbb1ec709	-0.002422752
57	0x3e91d90a	0.284859
58	0xbde12e0f	-0.10995113
59	0xbd13c39d	-0.036075223
60	0x3e863e15	0.2621924
61	0x3d908561	0.0705669
62	0x3e34ca17	0.17655216
63	0xbe3a4cc0	-0.1819334
64	0x3e6486c8	0.2231704
65	0x3eb2a372	0.34890324
66	0x3e915d93	0.28391704
67	0x3f3fde7c	0.7494886
68	0xbe4e0de3	-0.20122485
69	0xbd5479c2	-0.05187393
70	0x3f01d6c5	0.5071834
71	0x3ecc82e2	0.39943606
72	0x3e1981aa	0.14990869
73	0x3ea6a3f9	0.32546976
74	0x3d3e59ea	0.046472467
75	0x3ee0c749	0.43902043
76	0x3e226962	0.15860513
77	0x3b77fc9f	0.0037839783
78	0x3e80d2b7	0.25160763
79	0x3f26a6f3	0.65098494
80	0x3e3d22f2	0.18470362
81	0x3e92ceec	0.28673494
82	0x3e4978ae	0.19674942
83	0x3e25cd42	0.16191581
84	0x3f816304	1.0108342
85	0x3f1e2d26	0.6178764
86	0x3c9403eb	0.018068274
87	0x3e97113d	0.2950534
88	0xbd99cdbf	-0.07509946
89	0x3b6730c0	0.003527686
90	0x3f447004	0.7673342
91	0x3ef2e981	0.47443774
92	0x3eacbeb2	0.3373924
93	0x3e941e24	0.28929245
94	0x3ef4b18e	0.47791713
95	0x3ee13f5f	0.4399366
96	0x3ee28ab4	0.44246447
97	0x3ecc0c61	0.39853194
98	0x3e2cd3fe	0.16877744
99	0x3dcdc68f	0.10047638
100	0xbdbba6f2	-0.09162702
101	0x3f177b7f	0.59172815
102	0x3e8c01e0	0.2734518
103	0x3e063605	0.13106544
104	0x3e6e5225	0.23273523
105	0x3ea20878	0.31647086
106	0x3ec80bf2	0.39071614
107	0x3ed50370	0.41604185
108	0x3e964790	0.29351473
109	0x3ee6fc03	0.45114145
110	0x3e815cd6	0.2526614
111	0x3e867cc9	0.2626708
112	0x3f2e86d6	0.68174493
113	0x3eb82336	0.35964364
114	0x3efc5aa5	0.49287906
115	0x3ea6b723	0.32561597
116	0x3e717975	0.23581488
117	0x3f023e62	0.5087644
118	0x3e49bfdb	0.19702093
119	0x3f48455e	0.78230846
120	0xbd8d033e	-0.06885384
121	0x3edf1b84	0.4357568
122	0xbe44fff9	-0.19238271
123	0x3f0193d4	0.5061619
124	0x3f04dc57	0.5189871
125	0x3c323501	0.010876895
126	0x3dac08f9	0.08400149
127	0x3eebabc8	0.46029496
128	0x3ea0381f	0.31292817
129	0x3eeb10b7	0.4591119
130	0xbdd6504e	-0.10464536
131	0x3f144142	0.57912076
132	0x3e29b09c	0.16571277
133	0x3e955b53	0.29171237
134	0x3e29eea2	0.16594937
135	0x3ea23b4b	0.31685862
136	0x3e0e2a94	0.1388343
137	0x3e1b0803	0.15139775
138	0xbeb85de4	-0.36009133
139	0x3e70021b	0.23438303
140	0xbce2555d	-0.027628595
141	0x3d3422ff	0.043978687
142	0x3e6f73bf	0.23383997
143	0xbe00dcad	-0.12584181
144	0x3c0f88c1	0.008760632
145	0x3f2e4a73	0.6808235
146	0x3eca9df9	0.3957365
147	0x3edd3c3d	0.4321002
148	0x3e82bf7e	0.25536722
149	0x3cd0396c	0.025418006
150	0xbdd40e17	-0.1035425
151	0x3e963284	0.29335415
152	0xbd927bcc	-0.07152519
153	0x3e9477f6	0.28997773
154	0x3cf8585d	0.030315572
155	0x3eb386b2	0.35063702
156	0xbacfdfbf	-0.0015859528
157	0x3e6cc773	0.23122959
158	0xbec18191	-0.37794164
159	0xbda023b4	-0.0781931
160	0x3f9b9179	1.215377
161	0x3f3b4dbf	0.73165506
162	0x3f86dbce	1.0535829
163	0x3f718487	0.94342846
164	0xbdd0b2d1	-0.101903565
165	0xbc39f317	-0.011349461
166	0xbdd8bcb6	-0.10582869
167	0xbe7f4bf3	-0.24931316
168	0x3ea67bd1	0.3251634
169	0x3d18de97	0.037321653
170	0x3b9ed813	0.0048475354
171	0xbe210b02	-0.15726855
172	0x3cbc7892	0.023006711
173	0x3e914746	0.2837469
174	0xbeba03a0	-0.3633089
175	0xbe135e3c	-0.14391416
176	0x3f821627	1.016301
177	0x3f2af7fc	0.66784644
178	0x3f388166	0.72072446
179	0x3f2817d1	0.6566134
180	0x3f49dec5	0.78855544
181	0x3f3facb1	0.7487288
182	0x3f77d70d	0.96812516
183	0x3f168e00	0.58810425
184	0x3e5ef9c7	0.2177497
185	0xbdc71466	-0.097206876
186	0x3e05d703	0.13070302
187	0x3e074326	0.13209209
188	0xbea3a09a	-0.31958467
189	0xbf332f0f	-0.6999368
190	0xbf2bb918	-0.67079306
191	0xbed8caa0	-0.4234209
192	0xbf27bf17	-0.65525955
193	0xbf62cb5a	-0.8859154
194	0xbf63cdba	-0.8898579
195	0xbf9c5812	-1.2214377
196	0xbf9a3cc7	-1.2049798
197	0xbf885127	-1.0649766
198	0xbf8d0860	-1.1018181
199	0xbf9874a8	-1.1910601
200	0xbf9a2449	-1.2042323
201	0xbf31e11c	-0.69484115
202	0xbf995135	-1.1977907
203	0xbf8566b4	-1.0421968
204	0xbf856848	-1.0422449
205	0xbf720a91	-0.94547373
206	0xbf30dba2	-0.69085133
207	0xbf3b972d	-0.7327755
208	0xbf3cc827	-0.7374291
209	0xbf28f427	-0.65997547
210	0xbec79379	-0.389797
211	0xbf1194d7	-0.56867737
212	0xbed1b4f4	-0.4095837
213	0xbeb253d8	-0.34829593
214	0xbe7a930f	-0.24470161
215	0xbeb793a2	-0.35854822
216	0xba4e3e64	-0.00078675733
217	0x3e1e7761	0.15475227
218	0x3df9b8f1	0.12193478
219	0x3ed00759	0.40630606
220	0x3ea1bd35	0.31589666
221	0xbd478bc3	-0.04871727
222	0xbdc22ac0	-0.0948081
223	0x3f01ada6	0.5065559
224	0x3e1189be	0.142127
225	0x3ee9f83a	0.45697194
226	0xbd3fda83	-0.04683925
227	0x3e3054df	0.17219876
228	0xbcedf765	-0.029048631
229	0x3d3c3270	0.04594654
230	0x3df0bc73	0.11754694
231	0x3d86527d	0.06558702
232	0x3e00d109	0.1257974
233	0x3eeb3d31	0.45945123
234	0x3d87c60e	0.06629573
235	0xbe7bf7ba	-0.24606219
236	0x3e121d1d	0.14268918
237	0x3ecb46ec	0.39702547
238	0xbe25127a	-0.1612033
239	0x3ea1752c	0.31534708
240	0xbd569492	-0.05238778
241	0xbd51e146	-0.051240228
242	0x3ec23b44	0.3793584
243	0x3e00c328	0.12574446
244	0x3e86df10	0.26342058
245	0xbe904d54	-0.28183997
246	0x3e3257e3	0.17416339
247	0x3ee66c58	0.45004535
248	0x3e92cfa2	0.28674036
249	0x3f4cf438	0.8006015
250	0xbe8f17a2	-0.27947718
251	0xbde9bcd5	-0.1141297
252	0x3f0b35dc	0.5437906
253	0x3edc3f7d	0.43017188
254	0x3dbe3828	0.09288055
255	0x3e9cbdb5	0.30613485

neuralnet.0.bias f4 [18]
0	0x3feeac24	1.8646283
1	0x400021c9	2.002062
2	0x3ff87809	1.9411632
3	0x3ef8d02c	0.48596323
4	0x3ff6927d	1.9263455
5	0x3f2bfbc1	0.6718102
6	0x40006f5e	2.0067973
7	0x4002c787	2.0434282
8	0x3fe2af69	1.7709781
9	0x3e6b9412	0.23005703
10	0x3ff4ddab	1.9130148
11	0x40025374	2.0363436
12	0x4007d87a	2.1225877
13	0x3fe588e2	1.7932398
14	0x400241c3	2.0352638
15	0x3fb6c627	1.4279221
16	0x3ffa1ba3	1.9539684
17	0x3ffef419	1.9918243

neuralnet.2.weight f4 [18, 18]
0	0x3c2d6570	0.010583267
1	0x3c9cae88	0.019126192
2	0x3c706490	0.0146724135
3	0x3bce6240	0.0062983334
4	0x3d72e584	0.059300914
5	0xbe55007d	-0.20800968
6	0x3c519d10	0.012793794
7	0xbe39f22c	-0.18158787
8	0xbdac17a4	-0.084029466
9	0xbdd67f2c	-0.10473475
10	0xbd4d441c	-0.050113782
11	0xbd189148	-0.037247926
12	0x3da419a6	0.080127046
13	0xbdd7a0ce	-0.10528718
14	0xbe6df305	-0.23237236
15	0x3d22048c	0.039555117
16	0x3e123175	0.14276679
17	0xbe1eb15e	-0.15497348
18	0x3f983545	1.1891257
19	0x3fa4213f	1.2822646
20	0x3f85a806	1.0441902
21	0xbf3e1749	-0.7425428
22	0x3f8b7264	1.0894284
23	0x3f63114d	0.88698274
24	0x3f74a09c	0.9555757
25	0x3f89d2d1	1.0767461
26	0x3f8289eb	1.0198339
27	0x3e177725	0.14791544
28	0x3f46a7ce	0.775998
29	0x3f7ce3a1	0.98784834
30	0x3f9215b1	1.141287
31	0x3f648230	0.8926115
32	0x3f8d388f	1.1032885
33	0x3f31629f	0.6929111
34	0x3f8de027	1.1084031
35	0x3f792caa	0.97333777
36	0x3e1ebcbd	0.15501685
37	0xbe181726	-0.1485258
38	0x3c1ecf90	0.009693041
39	0xbd285884	-0.04110004
40	0xbd64a408	-0.055820495
41	0xbe1af9d7	-0.15134369
42	0xbe564251	-0.20923735
43	0xbda8f562	-0.08249928
44	0x3d4a9ecc	0.049467847
45	0xbe67a1a5	-0.22620256
46	0x3dd3b4f6	0.1033725
47	0x3e083b09	0.1330377
48	0x3d50ce64	0.05097808
49	0x3ddac33e	0.10681771
50	0xbe56e2d1	-0.20984961
51	0x3d675394	0.05647619
52	0xbe4d1a0f	-0.20029472
53	0xbe0af454	-0.13569766
54	0x3df90768	0.12159616
55	0xbcf0caf0	-0.029393643
56	0x3cb0eeed	0.021598304
57	0x3e339c4f	0.17540096
58	0xbe2935fa	-0.16524497
59	0x3d8daee5	0.06918124
60	0xbd8b92cb	-0.06815108
61	0x3ccc17d8	0.024913713
62	0x3d8660d9	0.06561441
63	0x3d881a06	0.066455886
64	0x3df6ec63	0.12056806
65	0xbe0aa73c	-0.13540357
66	0x3d7cf065	0.061752696
67	0x3e2fab85	0.17155273
68	0xbe88505e	-0.26623815
69	0xbe8ca2ff	-0.27468106
70	0xbe8be483	-0.27322778
71	0x3d113308	0.035449058
72	0x3d8f849b	0.07007714
73	0xbe4ec29b	-0.20191424
74	0x3e2813c0	0.16413784
75	0xbdb7da1e	-0.089771494
76	0xbe3ad452	-0.18245056
77	0xbde2b478	-0.11069578
78	0x3d5c5482	0.05379153
79	0xbe418a52	-0.18900421
80	0x3e2dcc37	0.16972433
81	0x3de0f99f	0.109851114
82	0x3e3b3818	0.18283117
83	0xbe2b2b8f	-0.16715835
84	0x3d275dd1	0.040860955
85	0xbe132adb	-0.14371817
86	0xbdfc27e5	-0.12312297
87	0x3e6192cd	0.22028656
88	0x3e18c89e	0.1492028
89	0xbe8364e5	-0.25662914
90	0x3e2b471c	0.16726345
91	0xbd28b99b	-0.041192632
92	0x3d6e8d4e	0.058240227
93	0x3e56f260	0.20990896
94	0x3e0554b2	0.1302059
95	0xbd8df823	-0.06932094
96	0xbe62e4dd	-0.22157617
97	0xbe695c3b	-0.2278909
98	0x3cbeb622	0.023280207
99	0x3e379a87	0.17930041
100	0x3e17533f	0.1477785
101	0xbe280238	-0.16407096
102	0xbdfcf69c	-0.123517245
103	0x3c9a74fc	0.01885461
104	0xbe6ecb35	-0.23319705
105	0xbe7561c7	-0.2396308
106	0xbdfda033	-0.12384071
107	0x3bc8aee3	0.0061243637
108	0x3fa4844b	1.2852873
109	0x3fa79f16	1.3095424
110	0x3f82172c	1.0163321
111	0xbf8483ad	-1.0352684
112	0x3fa333d2	1.2750189
113	0x3ee021cc	0.43775785
114	0x3f90d78e	1.1315782
115	0x3f949698	1.1608458
116	0x3f761472	0.9612495
117	0x3f14280d	0.5787361
118	0x3f894470	1.072401
119	0x3f860a4e	1.0471895
120	0x3faaad04	1.333405
121	0x3f92074f	1.140848
122	0x3f976d39	1.1830207
123	0x3f4a9e5b	0.7914788
124	0x3f84939c	1.0357547
125	0x3fa153ca	1.2603695
126	0x3f8b788b	1.0896162
127	0x3f6df071	0.9294501
128	0x3f9a8b78	1.2073812
129	0xbf8b7b6c	-1.089704
130	0x3f821e3d	1.0165478
131	0x3e85c72e	0.26128525
132	0x3f9bbc13	1.2166771
133	0x3fae4d8c	1.3617415
134	0x3f55cb19	0.8351303
135	0x3edce8eb	0.43146452
136	0x3f882909	1.0637523
137	0x3f92ef39	1.1479255
138	0x3f709e60	0.9399166
139	0x3f4ff90f	0.8123941
140	0x3f8cb7e4	1.0993619
141	0x3f0c3bed	0.5477894
142	0x3fa590c1	1.29348
143	0x3f8c5ac8	1.0965204
144	0x3f877d9c	1.0585208
145	0x3f6ae6a7	0.917582
146	0x3fa04014	1.2519555
147	0xbf935e88	-1.1513224
148	0x3f6101d7	0.8789343
149	0x3dfadb61	0.122488745
150	0x3f70b892	0.9403163
151	0x3f9af159	1.2104903
152	0x3f95f926	1.1716659
153	0x3f528a83	0.822426
154	0x3f91c8d2	1.138941
155	0x3f9c703a	1.2221749
156	0x3f9bc1c0	1.2168503
157	0x3f919454	1.1373391
158	0x3fa7b73e	1.3102796
159	0x3f371fe4	0.71533036
160	0x3fad0eba	1.3520119
161	0x3fa1df51	1.2646276
162	0x3f58611f	0.84523195
163	0x3f5989eb	0.8497607
164	0x3f9092ac	1.1294761
165	0xbf45087c	-0.7696607
166	0x3f3c9796	0.736688
167	0x3f0002c4	0.5000422
168	0x3f824797	1.0178097
169	0x3f99f2d5	1.2027231
170	0x3f882314	1.0635705
171	0x3f21262d	0.62948877
172	0x3f9ca613	1.2238182
173	0x3f9378d4	1.1521249
174	0x3f516914	0.8180096
175	0x3f504e78	0.81369734
176	0x3f58c08e	0.84668815
177	0x3f220cc5	0.63300735
178	0x3f680bd6	0.9064306
179	0x3f59c0fb	0.8506009
180	0x3f7505fd	0.9571226
181	0x3f2d5c29	0.6771875
182	0x3f3ec7b8	0.74523497
183	0xbf4ca891	-0.7994471
184	0x3f5296a3	0.82261103
185	0x3f4217c9	0.75817543
186	0x3f392a5d	0.72330266
187	0x3f363eb6	0.7118944
188	0x3f4b3965	0.7938445
189	0x3d8eaf2c	0.06967005
190	0x3f43b02b	0.76440686
191	0x3f4d37c6	0.8016323
192	0x3f3e7205	0.7439273
193	0x3f3e5666	0.74350584
194	0x3f1af837	0.60534996
195	0x3f50fa90	0.8163233
196	0x3f6be0b9	0.92139775
197	0x3f28db73	0.6595985
198	0x3deab380	0.11460018
199	0x3d6c1073	0.057632875
200	0xbd280afe	-0.041026108
201	0x3b68bf40	0.0035514385
202	0xbe4f625f	-0.2025237
203	0xbda361d0	-0.07977641
204	0xbe1160f1	-0.14197136
205	0xbe6e4c58	-0.2327131
206	0x3dd92a62	0.10603787
207	0xbc2557bd	-0.010091719
208	0xbe4891d6	-0.19586882
209	0xbe4b3c42	-0.19847205
210	0xbe385d77	-0.18004404
211	0xbca15aff	-0.01969671
212	0xbe35e46a	-0.17762914
213	0xbe18858a	-0.14894691
214	0x3de47ee7	0.11157017
215	0xbda13522	-0.078714624
216	0xbded96e1	-0.116010435
217	0xbcf88e20	-0.030341208
218	0xbe676101	-0.22595598
219	0x3dbeab42	0.093100086
220	0xbe24504e	-0.16046259
221	0xbdd57764	-0.104231626
222	0x3e6d67af	0.23184083
223	0xbe4c3e96	-0.1994575
224	0xbe36d2eb	-0.17853896
225	0x3de3d9a2	0.111254945
226	0xbd4a6a78	-0.049417943
227	0xbe400d56	-0.18755087
228	0xb9b84e00	-0.0003515333
229	0xbe36acf3	-0.17839412
230	0x3e39b8e9	0.18136944
231	0xbdd87d6c	-0.10570797
232	0xbca9ef70	-0.020744056
233	0x3d34d36c	0.04414694
234	0x3f629277	0.8850474
235	0x3f8cb8bd	1.0993878
236	0x3f29cb9a	0.66326296
237	0xbf4f70d4	-0.8103154
238	0x3f2dd00b	0.67895573
239	0x3ebab1b1	0.36463693
240	0x3f2e18ca	0.68006575
241	0x3f80e9ea	1.0071385
242	0x3f5616c7	0.83628505
243	0x3ee649c9	0.4497817
244	0x3f49e8e7	0.78871006
245	0x3f8bc340	1.091896
246	0x3f849c79	1.0360252
247	0x3f29e448	0.66363955
248	0x3f387ee9	0.7206865
249	0x3f31088b	0.6915366
250	0x3f83c1a0	1.0293465
251	0x3f5690e3	0.8381483
252	0xbe256baf	-0.1615436
253	0xbe623187	-0.22089206
254	0x3ddb9bc6	0.10723071
255	0xbdc526c8	-0.096265376

neuralnet.2.bias f4 [18]
0	0xbdb5b7ac	-0.08872923
1	0x3ff1b4c6	1.8883293
2	0xbd3c01a4	-0.045900002
3	0x3e18532f	0.14875482
4	0x3e1d505d	0.15362687
5	0x3a26c131	0.0006361185
6	0x3fcd563c	1.6041942
7	0x4001fd0c	2.0310698
8	0x3fdc9e7b	1.7235864
9	0x3fbd587a	1.4792626
10	0x3fbe2909	1.4856273
11	0xbe3cff90	-0.18456864
12	0xbe2a62f9	-0.16639318
13	0x3fe11e7b	1.7587427
14	0xbe3dc800	-0.18533325
15	0x3fc7a90b	1.5598463
16	0x3feff73f	1.8747329
17	0x3fe08bc8	1.7542658

neuralnet.4.weight f4 [4, 18]
0	0xbe355580	-0.17708397
1	0xbf48547b	-0.78253907
2	0xbdd5212c	-0.10406718
3	0x3e070c51	0.13188292
4	0xbe703868	-0.23459017
5	0x3bf6295c	0.0075122546
6	0xbf3b73ab	-0.7322337
7	0xbf2fb6e4	-0.68638444
8	0xbf3b1942	-0.73085415
9	0xbf020cf5	-0.5080102
10	0xbf3fb36a	-0.7488314
11	0xbe0c6ce0	-0.13713408
12	0xbdd9c7fc	-0.10633847
13	0xbf324cc8	-0.6964841
14	0xbc4f7fd0	-0.01266475
15	0xbf36dd3a	-0.71431315
16	0xbf302579	-0.6880718
17	0xbf5a0f74	-0.8517983
18	0xbe6cf824	-0.23141533
19	0xbf1d51b0	-0.6145277
20	0xbe5e294e	-0.21695444
21	0x3cce1b8c	0.02515962
22	0x3e35737a	0.17719832
23	0xbd2cbc14	-0.042171553
24	0xbf510a39	-0.81656224
25	0xbf3e695a	-0.74379504
26	0xbf722cfc	-0.9459989
27	0xbf521c7b	-0.8207471
28	0xbf058e6b	-0.5217044
29	0x3a09b600	0.00052532554
30	0xbdabecac	-0.08394751
31	0xbf234f20	-0.6379261
32	0xbe655c50	-0.22398496
33	0xbf29a643	-0.6626932
34	0xbf5fd7e0	-0.87438774
35	0xbf28eeb2	-0.6598922
36	0xbcece9c8	-0.02892007
37	0xbf6b23c7	-0.91851467
38	0x3d9c0d2a	0.07619698
39	0x3de06418	0.10956591
40	0x3e1fc4e4	0.15602452
41	0x3e130519	0.14357413
42	0xbf3e85a8	-0.74422693
43	0xbf324856	-0.69641626
44	0xbf262d97	-0.64913315
45	0xbf466855	-0.7750295
46	0xbf48e9c3	-0.7848169
47	0xbd3f1ed6	-0.046660267
48	0x3e23bc5b	0.1598982
49	0xbf4231db	-0.75857323
50	0xbbbe0582	-0.0057989964
51	0xbf30509a	-0.6887299
52	0xbf38d2a8	-0.72196436
53	0xbf11069c	-0.5665071
54	0x3e13741f	0.14399765
55	0xbf2a1f93	-0.6645443
56	0xbdb422c8	-0.087956965
57	0xbcb8e686	-0.02257086
58	0xbd177354	-0.03697522
59	0x3b9f89a5	0.0048687034
60	0xbf25c7bb	-0.6475789
61	0xbf1d6582	-0.61483014
62	0xbf4d8d4f	-0.80293745
63	0xbf31d005	-0.6945804
64	0xbf085f64	-0.53270555
65	0x3e1181b5	0.14209636
66	0x3c481760	0.012212604
67	0xbf1252b4	-0.57157445
68	0x3ccebc16	0.02523617
69	0xbf28ad99	-0.6588989
70	0xbf498247	-0.7871441
71	0xbf50c430	-0.8154936

neuralnet.4.bias f4 [4]
0	0xbf459228	-0.7717614
1	0xbf78672c	-0.9703243
2	0xbf8c223b	-1.0947946
3	0xbf64451d	-0.8916796
