src/players/saves/RLBasic10.pth (torch_old, 16010 bytes, 6 tensors)

neuralnet.0.weight f4 [18, 182]
00000000: 6033 743f 86fc 3b3d 61ae 213f 9496 9b3e
00000010: 54ec 313e 4f13 003f 10a3 6a3e 28e2 04be
00000020: c6b7 1a3e 73a7 f63d e7b1 5abd b0c9 d7bd
00000030: 2e1e 7cbe d64f 5dbe 18fd 39be f70b 9dbe
00000040: c94b 21be c8e0 0fbe 6182 5ebe 3849 7ebe
00000050: 58b5 e8bd 067a c0bd 4d29 07bd bec9 02be
00000060: 46e6 42be efaa c7bd 6609 c23d 7c32 97be
00000070: 1179 9dbe 4ec6 0ebe d3bb 2fbd fe53 14be
00000080: f0e4 35be e1f8 16be 2571 2d3e 5f4c d3bd
00000090: e718 013e a703 de3c a590 fcbc 0a0b 1b3d
000000a0: 7d21 b53d 2026 d33e a47f abbd 0e3d 013e
000000b0: 505c e9bd 9151 d83d 1aa5 bbbd a7dd 0fbe
000000c0: dd62 89be f8bb ce3c 4014 7f3e 0020 783e
000000d0: bbb8 483e 74cd 3b3e 2a3f 9bbe 60af dabd
000000e0: ecd0 ca3d ef00 2dbd affb febd 50d9 f63b
000000f0: 38cc 203f 2600 ba3e dfb0 223d 22bc df3e
00000100: 0fe3 603d f150 a0bc 3499 933e ca35 2e3e
00000110: 7da5 953d b85a 023f 799f bf3e 531b 133e
00000120: 8aec 8b3d c1ca 303e 82ad 9dbe edd0 5ebe
00000130: e6e9 bfbe fe54 95be d34f 85be b3df 873d
00000140: d22a ecbd 0685 35bd fb40 a2bc 829f 333e
00000150: 3a78 25be e097 873d 9ed3 993e 25a0 8abe
00000160: 6cf8 03be 5eb9 4dbd 490e 173f 5abc 963e
00000170: b763 843d 9131 a83e c1fa ad3e ae64 983e
00000180: 278d 183e 1b7a 133e ffd5 0fbe 9c5a 9d3e
00000190: a584 953e afc2 a73e 2ab4 ed3e 3184 863d
000001a0: cee5 11be e8a2 b03e 6ed8 debb ee23 54bd
000001b0: c8e2 97bd 87c9 a73e 66c2 70be b779 a9bd
000001c0: f988 4abd fc67 b23d 5bbe 9a3e cee2 753e
000001d0: 42e1 95be f5ef 86bd 767c 393e bccf 013d
000001e0: 7a61 b83d 106e 1b3d 7194 ef3d c73e 99bd
000001f0: 6481 82be 7e6e 8f3d d42a eabe 7a55 a53c
00000200: 87fc 1dbb 56d6 483e 0181 dbbd 4c8b fc3d
00000210: 4db0 703e 71bd 40be 653b 263e 0597 b6bd
00000220: f1b2 99bc f464 063d 21ff 12be d953 5d3e
00000230: 3d51 a63d 5592 433e 1f0c 2dbe 3b7d 133d
00000240: 242b bf3e be23 87bd a1f9 3b3e c9e0 533e
00000250: 4044 aebc a07d 4fbb ab6b b43d 73d9 0c3e
00000260: d7bf 7539 99bf 7e3e 126a 253d 682d 5a3e
00000270: 4561 943d 0db9 0b3e c66a 99be d161 5a3e
00000280: 494e 153f cea4 0e3f 70b5 653f f359 293f
00000290: 1fd4 b93e e22d c73e 6a46 593e 3e5a 52be
000002a0: 62d2 333e 76a4 693e 66a6 85be 5f67 32bd
000002b0: a0fa 2dbe d3eb 063f 4a7c ed3d 9144 6cbe
000002c0: bb0f 5e3f 7a4c 123f 89a1 f73e 3d76 143f
000002d0: c36a 063f 13ea 103f 1dab 483f c057 d43c
000002e0: 0c73 f63e 6ca4 8a3e 9b6b 243e a3dd 0d3f
000002f0: 2106 893d d532 25be 30ce 903e cfe8 253d
00000300: b458 f7bc 5861 4cbe ed43 95be f617 9cbe
00000310: f218 4bbe 2d82 92be 2033 f9bd ebdd 36be
00000320: 6d1c 5fbe e872 a3be a8ad 74bd a8e8 e6bd
00000330: 5aec 29bc 8630 35be 878a 36be 4f3f 66be
00000340: 0124 013d 8440 81be 0e75 a7be 4619 49be
00000350: 9690 b4bd d8b8 54be 31fa 08bd 9983 6ebd
00000360: 99f7 053e 4259 09be 29e9 0d3e 79cb 49bd
00000370: bd42 b7bd e288 f9bc d511 a53d e7d8 e63e
00000380: 6b9f a5bd 307f 333e 750c b83c e849 cd3c
00000390: 64ba a6bd 648a f6bd c0ab 84be 3f80 debc
000003a0: cc73 2b3e cfa9 613e 4728 c03d 748c 1d3e
000003b0: d935 afbe f280 2abe f380 943d 16c3 ddbd
000003c0: ac69 4bbe 48eb 60bd 2e65 1e3f db72 773e
000003d0: 0b98 ba3d 1855 c93e a2fa c8bc 5f7d 0c3c
000003e0: cd88 603e 7b21 1c3d 16aa 5b3d 69a7 c43e
000003f0: 33d3 843e 29b4 4e3e bc35 60bd 09f7 823e
0.9539089 0.045895122 0.63156706 0.3038832 0.17375308 0.5002946 0.22913766 -0.12976897
0.15109167 0.12043657 -0.053392317 -0.10536516 -0.24620888 -0.21612486 -0.18162954 -0.3067319
-0.15751566 -0.14050591 -0.21729423 -0.24832618 -0.113627136 -0.09398274 -0.032998372 -0.12772271
-0.19033155 -0.097494 0.09474449 -0.29530704 -0.3075643 -0.13942835 -0.042903733 -0.14485165
-0.17763114 -0.14743377 0.16937692 -0.10317301 0.12607156 0.027101351 -0.03083069 0.037852325
0.08844278 0.41240025 -0.08373955 0.12620947 -0.1139456 0.105624326 -0.0916235 -0.14049397
-0.2683324 0.025236115 0.24910069 0.24230957 0.19601719 0.18340093 -0.30321628 -0.106779814
0.0990313 -0.04223722 -0.124503486 0.00753323 0.62811613 0.36328238 0.03971946 0.4369822
0.05490404 -0.019569846 0.28827822 0.17012706 0.07306955 0.50919676 0.37426355 0.14365892
0.068322256 0.17264844 -0.30796438 -0.21759386 -0.37483138 -0.29166406 -0.26037464 0.06634464
-0.11531605 -0.044316314 -0.019806376 0.17541316 -0.16159144 0.06620765 0.30044264 -0.27075306
-0.12887734 -0.050225608 0.5900617 0.29440576 0.064643316 0.32850316 0.33980373 0.29764313
0.14897595 0.14402048 -0.14046477 0.30733192 0.29202762 0.3276572 0.46426517 0.06568182
-0.1424782 0.34499288 -0.006800703 -0.051792078 -0.07416302 0.3277094 -0.23511657 -0.082751684
-0.049447034 0.0871124 0.30223355 0.240123 -0.2927342 -0.06588737 0.18113884 0.03169225
0.09002967 0.03794676 0.11698235 -0.07482677 -0.25489342 0.070034966 -0.457358 0.02018236
-0.0024106817 0.19613013 -0.10717965 0.12331256 0.23504753 -0.18822266 0.16233595 -0.089155234
-0.018762084 0.03281112 -0.14355136 0.21614017 0.08120964 0.1909879 -0.16899155 0.0360081
0.373376 -0.06598614 0.18356945 0.20691217 -0.021272779 -0.0031660572 0.088095985 0.13754825
0.00023436487 0.24877776 0.04038436 0.21306384 0.07245115 0.1364481 -0.29964274 0.21326376
0.5832258 0.5572022 0.89729977 0.66152877 0.36294648 0.38902193 0.21218267 -0.20542237
0.17560723 0.22816643 -0.26103514 -0.043555614 -0.16990137 0.5270359 0.11595972 -0.23073031
0.8674275 0.57147944 0.4836543 0.5799292 0.52506655 0.5660717 0.783861 0.025920749
0.4813465 0.2707857 0.16056673 0.55416316 0.06690622 -0.16132672 0.2828231 0.040505227
-0.030193664 -0.19959009 -0.29153386 -0.3048703 -0.19833735 -0.2861494 -0.121679544 -0.17858092
-0.21788187 -0.31923604 -0.059735924 -0.112748444 -0.010371292 -0.17694291 -0.17826281 -0.22485088
0.031528477 -0.25244534 -0.32706493 -0.19638547 -0.0881664 -0.20773637 -0.033441726 -0.05823097
0.13082732 -0.13412955 0.13858475 -0.049266312 -0.08948276 -0.030460779 0.08060042 0.45087358
-0.08087047 0.17528987 0.022466877 0.025059655 -0.0814102 -0.12038115 -0.25912285 -0.027160762
0.16743392 0.22037433 0.09382682 0.1538561 -0.3422077 -0.16650751 0.072511576 -0.10828225
-0.1986453 -0.05491188 0.6187314 0.24164908 0.09111031 0.39322734 -0.024533574 0.008574813
0.21927185 0.038117867 0.053629003 0.38408974 0.25942382 0.20185913 -0.054738745 0.25579098

neuralnet.0.bias f4 [18]
00000000: 3684 d23f 4609 c03f 7439 d73f 6197 db3f
00000010: f672 c63f b4ed 9b3f d4f8 453f b7d9 7ebe
00000020: 4d3a be3f b73e db3f 6b5c d73f 3a0c d43f
00000030: 9833 d73f 6dd4 ca3f c518 22be b5bd d73f
00000040: c56c d83f b7d8 c03f
1.6446598 1.500283 1.6814408 1.7155572 1.5503833 1.2181916 0.77332807 -0.24887739
1.4861542 1.7128514 1.6825079 1.6566231 1.681262 1.5846077 -0.15829761 1.6854769
1.6908194 1.5066136

neuralnet.2.weight f4 [18, 18]
00000000: 6747 c43f 8fa9 c93f f979 ce3f cb28 af3f
00000010: dc92 ab3f 01e9 7f3f a7b1 513f 3998 ab3d
00000020: b812 9d3f 9785 b53f e8f1 b43f 91d2 b93f
00000030: 1cce c53f 1390 a73f e588 00bd 0c20 dd3f
00000040: bc04 ac3f 60c5 983f 41cb cbbb 9e15 c2bd
00000050: d54f 493e 6b86 5cbe a582 10be 8e59 4bbe
00000060: 04ad 1c3e 788e 07bd 720b 9a3c 95e4 6dbe
00000070: 82ad 053d c25b e5bd 3bee 2cbe 9584 56bd
00000080: 0552 ea3d b5ed 083d a570 443e eef7 d13d
00000090: ada7 8e3f cd0d b33f 35a1 9a3f 7c7c b13f
000000a0: ca7a a43f c8d0 853f 56ae fc3e ca38 3b3d
000000b0: 291d 913f 6b80 6a3f c4bd 893f c311 9e3f
000000c0: 2a3a b33f e0fb 943f cf72 2fbd 6bf5 ae3f
000000d0: 9b14 813f d3bd ae3f f1bc 983f a163 b13f
000000e0: 56cf a23f 00fd a53f 9790 9c3f 46fd 7f3f
000000f0: fdd0 173f b263 7fbd 22a5 883f 546c 893f
00000100: 6f27 913f 4173 c43f ddc7 963f c4fa 913f
00000110: 7734 343e 0967 973f 5566 bd3f 1b93 843f
00000120: ec68 92bd dce3 13be 4208 433e 9f16 7a3d
00000130: 20df acbd 94ce 663d 057f 173e ee9d e83c
00000140: a9ca 07bd 8ba6 00bc bfd3 3d3d 73d7 f33c
00000150: fff1 e33d 94ee c7bd b70f 863d 3f7a 13be
00000160: b774 c4bd 937c 49be ba47 bfbd 825e 9d3d
00000170: 9b35 f63d e2c7 3dbe a001 d8bd 3080 9cbd
00000180: 211a d33d f92b 173e 778d fc3d 0dcf 48be
00000190: d488 0abe 37a6 48be 980c 8abd 3440 113b
000001a0: f511 5d3e 490a 92ba 37f8 92bc 9a5f c43d
000001b0: 41c1 293d c598 433e 1071 96bd a450 80be
000001c0: e5b5 ee3d d758 b93d 2fde 81bd b944 923d
000001d0: f9a7 15bd 5b0a f63d 86e0 e43d 2d8d 20be
000001e0: 7b5c 64be 7367 fb3d e41e 1b3e 148d 3dbe
000001f0: c221 8ebd c6fd 40be 4836 36be 63bf 383e
00000200: bc0a 3c3d 0c3d 0ebd 0e13 00be 1661 50be
00000210: e210 a63d 3fdb 233e d2a2 5cbe e459 27be
00000220: 4426 87bd 36fa a6bd 58f7 b23c 3cfa 69be
00000230: 8026 9bba ad09 0a3e c1ba 553e ba8b bf3d
00000240: 7682 a33f 9c81 c63f 7086 9a3f 9a59 a73f
00000250: f616 b93f 2b97 a83f f6c0 623f 8f6f 0a3e
00000260: 71fe 9b3f 87ef b13f ef3c c53f 6e8c cc3f
00000270: 4cd5 c13f 7379 bf3f 599d 203d 602c b53f
00000280: 973e c13f 6fb7 a13f 5102 f9bd 8c01 cbba
00000290: ef93 5bbe b578 2d3d 6e5b 4cbb 49d5 da3d
000002a0: 787e aa39 b08c 793c dbe2 5dbe 4b33 34bc
000002b0: a065 a73c 8788 01be 88fc 71bd be50 30bd
000002c0: ad79 0dbe 50be 3abe ff71 413e 8830 b2bd
000002d0: 90ae ac3f e43c c53f 95c4 ce3f f8c4 b93f
000002e0: 2e5a bc3f 6f1e 553f 1e8d 173f 44f5 c63d
000002f0: 3fc4 b43f 59c4 c73f e992 b43f 2b5f 943f
00000300: 610f b03f 1561 c23f 6f50 963d d429 a83f
00000310: 0b53 ab3f bb5f 8d3f 7d81 ae3f e1b1 a03f
00000320: cbe3 aa3f 9656 7d3f a239 af3f a4f7 8d3f
00000330: 653c 2c3f 5509 2e3e 3435 a53f 278b 893f
00000340: d753 bb3f 6623 963f 93d1 7f3f 98a7 883f
00000350: f498 01bb 617f a83f 946d b13f 6eaa be3f
00000360: 46bd 71be 4aa8 1a3d 4147 87be 9693 313d
00000370: 004b 3cbe 25ed d8bd e1b1 023e ffba 20bc
00000380: 095c 71be bcf0 583d 25c2 b33d 8fbe cbbd
00000390: 4449 f33c 99cc aabc 60e1 e5bd 8146 97be
000003a0: 7668 5cbd 21d4 2b3d dddc 153e 04cd 56bd
000003b0: c072 34bb 94d7 52bd 0010 843b 0062 083b
000003c0: f8f7 39be 60c3 bfbd f472 0b3d 0a3a 0dbe
000003d0: c819 d7bd 6ab1 67be 8ce0 403d 69b1 0f3e
000003e0: 6aa4 10be 80a8 0dbd fe5e c83d 66ae a5bd
000003f0: 3a26 c13f e126 bc3f 9bd1 b23f 2503 c53f
1.533429 1.575487 1.6130973 1.3684324 1.3404193 0.9996491 0.819117 0.083786435
1.2271338 1.4181393 1.4136324 1.4517385 1.5453525 1.3090843 -0.031380553 1.7275405
1.3438945 1.1935234 -0.006219298 -0.094767794 0.1965936 -0.21535651 -0.14112337 -0.19858381
0.15300375 -0.033094853 0.018804286 -0.23231728 0.032636173 -0.11199142 -0.16887753 -0.052372534
0.11441425 0.03342982 0.19183595 0.10252367 1.114492 1.3988587 1.2080446 1.3866115
1.2849972 1.045434 0.49351758 0.045708455 1.1337024 0.916022 1.0761037 1.234917
1.4002125 1.1639366 -0.0428341 1.3668646 1.0084413 1.365168 1.193266 1.3858529
1.2719524 1.2967834 1.2231625 0.9999584 0.59303266 -0.062350936 1.0675395 1.0736184
1.1340159 1.5347673 1.1779743 1.1404653 0.17598139 1.1828319 1.4796854 1.0357393
-0.071489185 -0.1444239 0.19046119 0.06105673 -0.08440995 0.056349352 0.14794548 0.02839562
-0.033152256 -0.007852207 0.046344515 0.02976582 0.111301415 -0.09762302 0.06545966 -0.14402102
-0.09592574 -0.19676428 -0.09339853 0.076840416 0.12021943 -0.1853328 -0.10547185 -0.07641637
0.10307718 0.14762868 0.1233167 -0.19610234 -0.13528758 -0.19594656 -0.06740683 0.0022163512
0.21588881 -0.0011141981 -0.017940624 0.09588547 0.041444067 0.19101246 -0.07345784 -0.25061524
0.116557874 0.09050148 -0.06341206 0.07142014 -0.036537144 0.12013694 0.11175637 -0.15678854
-0.22300903 0.12275591 0.15148503 -0.18510848 -0.069400325 -0.18846807 -0.17794144 0.18041758
0.045908675 -0.034726188 -0.12507269 -0.20349535 0.08108689 0.16001604 -0.21546486 -0.16342884
-0.065990955 -0.08153193 0.021846458 -0.22849363 -0.0011837035 0.13480254 0.20872022 0.093528226
1.2774189 1.5508304 1.2072277 1.3074219 1.4460132 1.3171133 0.88575685 0.13519119
1.2187024 1.3901223 1.540922 1.5980356 1.5143218 1.4958938 0.03921256 1.4154167
1.5097226 1.2634104 -0.12158645 -0.0015488132 -0.21443151 0.042351443 -0.0031182426 0.10685212
0.00032519153 0.015231296 -0.2166857 -0.010998557 0.0204342 -0.12649737 -0.059078723 -0.04304575
-0.13815947 -0.18236661 0.18891142 -0.08700663 1.3490772 1.5409207 1.6153742 1.4513235
1.4715021 0.8324956 0.591997 0.097147495 1.412239 1.5606796 1.4107333 1.1591543
1.3754693 1.5185877 0.0733956 1.3137765 1.3384718 1.104484 1.3633267 1.2554284
1.3350767 0.98960245 1.3689463 1.1091199 0.67279655 0.16995747 1.2906861 1.0745591
1.4634961 1.1729553 0.9992916 1.0676146 -0.0019775005 1.3163873 1.3861566 1.4895761
-0.23607358 0.03775815 -0.2642155 0.04335364 -0.18387985 -0.10592107 0.12763168 -0.009810208
-0.23570265 0.052963957 0.087772645 -0.099484555 0.029698022 -0.020849513 -0.112246275 -0.29545978
-0.05381056 0.04195035 0.14635034 -0.052441612 -0.0027534217 -0.051475123 0.0040302277 0.0020810366
-0.18160999 -0.09363437 0.034045175 -0.13791671 -0.10502964 -0.22626272 0.047089145 0.1403252
-0.14125219 -0.034584522 0.09783743 -0.080899045 1.5089791 1.4699365 1.3970217 1.5391585

neuralnet.2.bias f4 [18]
00000000: 7915 bc3f 671f 71bc ce6a a83f c48c b63f
00000010: 2c6c 45bd aa85 35be 9e6b c63d b45e 39be
00000020: 6914 b43f 1e44 4f3d fc01 c33f 0dd9 933f
00000030: eb6c 2e3e 5743 25be fbba c83f de6a 693f
00000040: ff46 073e 6479 25be
1.4694053 -0.01471696 1.3157594 1.4261708 -0.048198864 -0.1772677 0.09688495 -0.18102533
1.4068729 0.05060207 1.523498 1.1550614 0.17033736 -0.1613897 1.5682062 0.9117869
0.13210677 -0.16159588

neuralnet.4.weight f4 [4, 18]
00000000: ff1f 6dbf b5f3 193e f29a 22bf f4f1 5bbf
00000010: 2a60 ab3d 4070 ebbc 4406 723a 906c 31bc
00000020: 0bca 65bf 1454 b13d bda6 2dbf bfe2 09bf
00000030: ee77 e0bd 5c04 35bd 0fdb 4bbf 8726 f1be
00000040: a331 843d 0bd9 483e e42c 3fbf b255 0f3e
00000050: abcd 1ebf 3b73 3bbf 0cdb 2bbe b1ae d9bc
00000060: fa58 233e 698c 5b3e 602b 26bf db71 643b
00000070: 27fa 59bf 3919 3dbf f6ff 543c c084 dabc
00000080: 5085 1dbf b1a8 56bf 301f f9bb cd8f 58be
00000090: 1736 5ebf 5709 273e b09b 0dbf 1692 0abf
000000a0: cb17 063c 2d19 01be 2d48 dfbd 84ad 6b3d
000000b0: c3cd 64bf c6c8 c93c a72e 37bf a818 4abf
000000c0: 71a3 163e 2f5b f8bd 7b07 50bf 28bc 5bbf
000000d0: ae1e 0e3d 4516 043e 75ac 4dbf d73f 6d3b
000000e0: 20d4 62bf 4d16 3bbf 8868 813e ba37 6ebe
000000f0: 40b4 213d 5e08 ff3d 724f 32bf 4a38 2e3e
00000100: 9865 54bf b83d 34bf 0279 29be 002a c6b9
00000110: a393 28bf 0230 30bf 70a9 8dbe cfe7 463e
-0.9262695 0.15034373 -0.6351768 -0.85916066 0.08367951 -0.028740048 0.0009232501 -0.010829106
-0.8976142 0.08658615 -0.6783255 -0.5386161 -0.10960375 -0.04419361 -0.7963113 -0.47099707
0.0645478 0.19614045 -0.7467787 0.13997534 -0.62032574 -0.732227 -0.16782779 -0.026572557
0.1595191 0.21440281 -0.64909935 0.0034857902 -0.8514733 -0.7386661 0.013000479 -0.026674628
-0.61531544 -0.8385115 -0.007602595 -0.21148606 -0.86801285 0.16312157 -0.55315685 -0.5412916
0.008184384 -0.1260726 -0.10902438 0.057538524 -0.8937647 0.024631869 -0.7155556 -0.7894387
0.14710785 -0.12126767 -0.81261414 -0.8583398 0.034697227 0.1289912 -0.80341274 0.0036201382
-0.8860493 -0.73080903 0.25275064 -0.23263445 0.03947854 0.12452768 -0.69652474 0.1701366
-0.8296752 -0.70406675 -0.16550067 -0.00037796795 -0.65850276 -0.68823254 -0.27668333 0.19424365

neuralnet.4.bias f4 [4]
00000000: 628a dcbe f20f 8abe 6fcf b8be 1f02 2cbf
-0.43074328 -0.2696529 -0.3609576 -0.67190737
